saved_models/saved_model2.pth (torch, 217706 bytes, 24 tensors)

input_layer.weight f4 [128, 52]
00000000: 9191 acbd 8539 983e 1a88 843e cc9b 183d
00000010: 3667 2f3e 781b 26be 3e82 a63e c66c a4be
00000020: a19a 813e 3c6e ce3e 5126 eb3e a146 ba3e
00000030: c12f a7be d3ac 293c 5c6a f4bf bcbf 553f
00000040: 5cc5 773e 361b 52bf 8fad 3dbe d9c6 5cbe
00000050: 8c4e ee3e 5e47 02be bc3d 813e f313 883e
00000060: a3cc 583d da43 4bbd 3ad7 243d 23a9 35bf
00000070: 6c7b 343f 2c39 2cbf 6b44 b9be 8676 f4be
00000080: f5d3 bd3e d4e8 9ebe e2aa eabd d005 53be
00000090: ee12 0dbd 7db0 e1bd 35cb c33d 9d86 c6bd
000000a0: 17d0 12bd b604 e43d 2586 29be 5c4c 0440
000000b0: a3b9 19c0 cfd4 043e 891e cabf ea43 23bf
000000c0: 2807 7d40 6798 723d 1a4e 3c3e 46c4 e83d
000000d0: 44db b6be 799d 95bd 763e d93c 0ad3 f8bd
000000e0: 9a31 b93e 4506 cd3d fe66 29be 6cc6 7bbd
000000f0: bad1 65bf 562d f53e 4960 fcbe 2556 50bf
00000100: f0ae a53e 4238 eabe 80bf a9be f4fd 84bd
00000110: ec39 863e ad49 133f d328 653e 42db 91be
00000120: a3c2 663e fd6b 913e 162d 11be 22af bfbe
00000130: d4ec e53e fd36 1cbf bc87 6abe 446a b93e
00000140: 5de5 30bf 724d 6f3f 940d 733e 5398 523f
00000150: 533d ebbc fa4e a2bf a874 3f3f f6c8 aa3d
00000160: 2e29 bfbd b67e cf3c 55fb ccbf 9d89 303f
00000170: 38c9 5b3d 9bec 853e 9e41 6ebf 75f9 d3bf
00000180: e39f c640 8c3f 6740 38ba 54bf 05e1 7f3f
00000190: 6b1e e63f 9c30 bdbd dbe6 b8ba 81b9 ce3d
000001a0: dfee 673c 3b54 07be 6b82 6cbe b479 14be
000001b0: 14e1 9e3d 2060 873e abc2 ce3d 62b6 bc3d
000001c0: 38da 083e 75dc 90be f4d4 1f3d a84d 993e
000001d0: b831 cc3c 00f2 06be 5032 9f3e 7a53 913e
000001e0: 870b f5bd 1cb8 a8bf 95c9 1abe 7644 abbe
000001f0: 948d 9d3f 554f e83e c28f 293f 7423 90bd
00000200: dd6c cdbe a757 81bf 3093 1ebe 5b23 c43c
00000210: 3e78 30be ef92 8dbd 08a3 6c3c f8f2 913e
00000220: 3dee c53d b9ac 823e ee46 473f 60d2 04bf
00000230: f83e b3bf c2ad a8bf edb4 40bf 10df a33f
00000240: 60b2 ee3f d504 83bf 0383 f73f f0f8 3c3b
00000250: 5f60 893f 78e1 fabf 8b99 1540 adec b4bf
00000260: 2f57 f63f b987 c9bd b6a4 80bb 3584 87bd
00000270: 7d77 24be 8ad3 683e d1c3 b9be 19fd 87be
00000280: 4f08 0f3e 487d 3ebe fa17 93be ef46 4b3d
00000290: d6cb 73be 4949 f7be b0b1 eabd e26b 323e
000002a0: 0377 df3e 23bf 443e 5532 3ebe acf2 d93c
000002b0: 7140 5bbe ff05 59bd 60b3 04be 8658 cdbd
000002c0: 996d 1ebf 5a64 a53e 8298 d73e 0c2d ea3e
000002d0: 6908 cf3e e2dc 273d b4cb f63d deb7 e83c
000002e0: f90a acbe ee6a db3f f92c 103f 2804 9e3f
000002f0: 59dc 1abf 3ae1 0f3f 1158 5fbf ddd8 873f
00000300: 8d35 cabf d4c8 42be 8933 a4be f0d0 533f
00000310: 694b 573e cfc5 e43e d857 4bbf 03a2 5940
00000320: c162 b6c0 ca1b ca40 940d 3840 71aa 5040
00000330: ddce 8cc0 0429 41bd a22d a4bd 5f42 123d
00000340: ac67 a33c c048 b9bc 0d66 77be 77fa 4fbe
00000350: 3b6e 3e3e 8de3 88be 0b2f d5be b8c2 8b3e
00000360: e17d 273d 1bca 5abd 5003 85bd bfaf adbd
00000370: a933 13be 8330 11bf e48a b0bc 3359 56bd
00000380: f507 a7be 9a52 043e 55db fe3d 1987 083e
00000390: c6ca 393e d748 debd e3b6 483e 0762 1e3c
000003a0: 3d58 8dbe d603 bc3d d229 98bc 3d80 60be
000003b0: 2bb4 f73e ab13 853f d58d b33e 7f0c 303f
000003c0: 8597 1b3e 69ce 29bf eb7c cc3e f05d 983f
000003d0: 7036 773f 9afd af3f d340 0bbf aa85 35be
000003e0: 72e5 353f 8cfc 143f 6f6e 49c0 de6b 5ec0
000003f0: 334e 3e3f 6f6b fa3f 4f95 a43f 7c58 35bf
-0.08426202 0.29731384 0.25885087 0.037257954 0.17129216 -0.16221416 0.32521242 -0.32114238
0.25313285 0.40318477 0.4592767 0.3638201 -0.3265362 0.010356146 -1.9094958 0.8349569
0.2419638 -0.8207277 -0.18523239 -0.2156023 0.46544302 -0.12722537 0.25242412 0.2657772
0.05292953 -0.049625255 0.04024432 -0.7096121 0.70500827 -0.6727474 -0.3618501 -0.47746676
0.37075773 -0.3103701 -0.114583746 -0.20607686 -0.03444188 -0.110199906 0.09560243 -0.09693644
-0.03584298 0.11133711 -0.16555078 2.0671606 -2.4019554 0.12971805 -1.5790569 -0.63775504
3.9535618 0.059227373 0.18389168 0.11365561 -0.3571416 -0.07305426 0.026519042 -0.121496275
0.36170655 0.100109614 -0.16543195 -0.061468527 -0.8977314 0.4788615 -0.4929221 -0.81381446
0.3236003 -0.45746046 -0.33153915 -0.0649375 0.26216066 0.57534295 0.22378854 -0.28487593
0.22535186 0.284027 -0.14177355 -0.37438303 0.44907248 -0.61021405 -0.22903341 0.36213887
-0.6909998 0.9347755 0.23735648 0.8226368 -0.028715765 -1.2680352 0.7478738 0.083391115
-0.09334026 0.025328975 -1.60142 0.6895998 0.053658694 0.26157078 -0.93068874 -1.6560503
6.2070174 3.6132536 -0.8309665 0.9995273 1.7978033 -0.09237787 -0.0014106886 0.10093976
0.014156072 -0.13215725 -0.23096626 -0.14499551 0.07757774 0.26440525 0.10095724 0.09214474
0.13364494 -0.28293195 0.039021447 0.2994206 0.024926051 -0.13178253 0.31093073 0.28384
-0.11965089 -1.3181186 -0.1511596 -0.3345067 1.2308831 0.45373026 0.6623498 -0.07038012
-0.4012212 -1.0104874 -0.15485835 0.02394264 -0.17233369 -0.06912791 0.014443167 0.28505683
0.09664581 0.25522402 0.77842605 -0.51883507 -1.4003592 -1.3178027 -0.7527607 1.2802448
1.8648186 -1.023585 1.9336857 0.0028834902 1.0732535 -1.9600058 2.3374965 -1.4134728
1.9245356 -0.0984034 -0.003925885 -0.06617013 -0.16061206 0.22736946 -0.3628221 -0.26560286
0.13968013 -0.18602479 -0.2872923 0.049628194 -0.23808226 -0.482981 -0.114596725 0.17423967
0.43645486 0.19213538 -0.18573888 0.026604973 -0.21411301 -0.052984234 -0.12959051 -0.1002665
-0.6188598 0.32303125 0.42108542 0.45737493 0.40436104 0.040982135 0.12050572 0.028407987
-0.3360212 1.7142007 0.5631862 1.2345018 -0.60492474 0.56203043 -0.87243754 1.0613056
-1.5797592 -0.19021922 -0.32070568 0.8274069 0.2102486 0.44682166 -0.79430914 3.4005134
-5.699555 6.315892 2.8758287 3.260403 -4.400252 -0.047158256 -0.08016516 0.035707828
0.019946896 -0.022617698 -0.24160023 -0.20310389 0.18596737 -0.26736107 -0.41637453 0.27296996
0.04089153 -0.0534154 -0.064947724 -0.084807865 -0.14375176 -0.5671465 -0.021550603 -0.05233116
-0.32623258 0.12922135 0.12444178 0.13332786 0.18143758 -0.10853737 0.19601016 0.009666926
-0.27606383 0.09180419 -0.018574629 -0.21923919 0.48379645 1.0396627 0.35069147 0.6876907
0.15194519 -0.6633058 0.39939055 1.1903667 0.9656744 1.3749268 -0.5439579 -0.1772677
0.7105323 0.58197856 -3.1473653 -3.4753337 0.7433807 1.9564036 1.2858065 -0.7083814

input_layer.bias f4 [128]
00000000: 6c45 d7be 0ebe 27bf 6b0e 19bf d796 bdbf
00000010: e4b8 87bf fc25 97bf dca7 aabf 16a6 cfbf
00000020: 1108 edbf 737d c0bf 09cb 70bf 43b2 44be
00000030: 0277 29bf 276d 5cbf c3ad a5bd a11e 9ebf
00000040: f69d 0cbf 789e e2bf d214 b5bf b4cc 9abf
00000050: 6b37 2dbf de56 27c0 e73e ddbf f2e1 d2bf
00000060: a893 64bf 2a8b 92bf 2fb0 afbe 20e8 e53e
00000070: b118 14bf d63e 84bf 9502 6cbf 30eb c43e
00000080: 2a76 05c0 30a5 debf 83b0 d5bf d6d9 85bf
00000090: 5684 b9bf 74e6 26c0 0532 f5bf 97c2 71be
000000a0: 34d4 53bf 9a8b d3bf e982 9bbf 0f43 a03f
000000b0: e4c0 ebbf b8d7 67bf efed b5bf 0ad7 c9be
000000c0: ff7f e8bf 24ca f7bf fd0b 61bf 4b52 efbf
000000d0: 5aa4 ddbf 71d6 ccbf ad71 66bf b878 62bf
000000e0: 559d 153e 03a3 0abf 9e9b aabf 906b 0bbf
000000f0: 7d7c 4cbf 6b44 97bf cbe9 03c0 9a56 dabf
00000100: 9441 863f e97b 6bbf f9fa e9bf f677 29bf
00000110: de77 b9bf f526 7bbe 7a44 96bf 32a5 653f
00000120: 41dc fabf 0fb2 9fbf 6ce6 d7be 7b94 14bf
00000130: a11c 89bf d883 a8be 6ff9 ccbf a748 34bf
00000140: e75b 21c0 a83e 8abf 0907 20bf 860d 97bf
00000150: 013a 09bf 3be2 20bf 5213 d6bf c4a1 d1bf
00000160: 6186 8bbf 2d10 c5bf 4afa 16bf 1ccb 89be
00000170: 842e fdbd c1bb aabf a660 9fbf ab1d 233e
00000180: ede1 92bf b611 5d3e 315e cdbf 26d6 94be
00000190: c1a0 cbbf 8f4e 8cbf b4c3 33bf de71 8fbf
000001a0: bd18 97be 34e9 32bc b526 03bf 72ec bfbf
000001b0: e8ad cfbf b124 033f 8217 553f aaf3 583e
000001c0: 9ff2 9fc0 b0ff 1dbf f45f fbbd e49d a5bf
000001d0: b4ba f6be f7ed 3bbf 650a 0ec0 7bb3 32bf
000001e0: b1d6 f8be 0bb9 0b3e 7831 33bf a4e5 cdbe
000001f0: d3f7 dabf 8b5b abbe 8c4c e8bf 365e c0bf
-0.42045152 -0.65524375 -0.59787625 -1.4811658 -1.0603299 -1.1808467 -1.3332477 -1.622256
-1.8518087 -1.5038284 -0.9405981 -0.19208626 -0.66197217 -0.86104053 -0.08089783 -1.2353097
-0.5492853 -1.7704611 -1.4146979 -1.209372 -0.67662686 -2.614677 -1.7284821 -1.6475203
-0.89287806 -1.144872 -0.34314105 0.4490366 -0.57850176 -1.0331676 -0.9219144 0.38460684
-2.0853372 -1.7394161 -1.6694492 -1.0457103 -1.4493511 -2.6078157 -1.915589 -0.23609386
-0.8274567 -1.6526978 -1.2149326 1.2520465 -1.841824 -0.90563536 -1.4213237 -0.39421874
-1.8164061 -1.9358563 -0.8790892 -1.8696989 -1.7315781 -1.6002942 -0.90017205 -0.8846545
0.14610799 -0.54154986 -1.3328741 -0.54461 -0.79877454 -1.1817755 -2.0611446 -1.7057679
1.0488763 -0.91985947 -1.8279716 -0.6619867 -1.4489706 -0.2452658 -1.1739647 0.89705193
-1.9598466 -1.2476214 -0.42167985 -0.58039063 -1.0711862 -0.3291309 -1.6013621 -0.7042336
-2.5212343 -1.0800371 -0.62510735 -1.1801002 -0.5360413 -0.628452 -1.6724646 -1.6377492
-1.0900384 -1.5395561 -0.5897566 -0.26912773 -0.12362388 -1.3338548 -1.245137 0.15929286
-1.1475197 0.21588787 -1.604437 -0.29069632 -1.5908433 -1.0961474 -0.70220494 -1.1206625
-0.2951106 -0.010919858 -0.5123094 -1.4994032 -1.6224947 0.5122786 0.83238995 0.211867
-4.998367 -0.61718273 -0.12274161 -1.2938809 -0.48189318 -0.7340998 -2.2193844 -0.69805115
-0.48601297 0.13644807 -0.6999736 -0.40214264 -1.710688 -0.3346828 -1.814836 -1.5028751

hidden_layers.0.weight f4 [64, 128]
00000000: e5c8 1cbe 98c7 fc3e f1dd 703d 3329 8e3e
00000010: 231c ca3e a43b f13e 8d64 963d 28e0 883d
00000020: af34 933d db14 61bf c098 6fbf d963 003e
00000030: f3b7 44bf efd2 883d a193 b9be 10ce 383f
00000040: 86c9 a33e 9181 8b3e c5f9 d73e 2211 e13c
00000050: 4b88 fd3d 9a5b e9bf f678 dbbe 0aeb 37be
00000060: 4afb 08bf fb98 48be 48e5 fc3e 5996 afbe
00000070: 1d58 5e3d 5669 15be 063a 3e3e a50f 16bf
00000080: f224 c63e 6c95 4b3f b3be 22bb 40f5 5e3e
00000090: 0b09 a1be 4bf2 423f c813 e0bf 7e9d 85be
000000a0: ac02 9a35 7b62 00bf 27e5 f3bc d493 0ac0
000000b0: 588f 3ebe c0bd 0ebe fa00 5d3e 87e1 613e
000000c0: 7570 973d eb2a 783e 6cdd 88bf 48f3 043e
000000d0: 8a83 573e d973 c2bf 3dd0 b43d 600c 5e3e
000000e0: 8a3b fdbd 69cd 613e 2c40 5cbf 91a3 723e
000000f0: 287b f1bd c036 6c3d 7405 a6be 3b91 00bf
00000100: 9095 8bbe 2a44 5dbe 3117 0a3f 839e 743e
00000110: f7c4 0cbf 7a33 a43e 185d d03d 8de8 b23e
00000120: f57f c1be e7d3 b03e 3bcf 313d e464 be3e
00000130: 5b33 53be 72da 513d 8742 0c3f 4b12 1abd
00000140: 9d32 91c0 b8b4 2c3e c87a 083e 8c8f 8f3f
00000150: 3582 203c 5fab 933e 9536 7d3d b759 e3be
00000160: 5cae e63e 28bd b83e 2b7e 523f 4f51 083f
00000170: cd46 2d3d aed4 5b3e 6c0e 0dbf caa0 66bf
00000180: 700c 8c3e 9231 8c3e dd21 493e 2915 f13e
00000190: 2a55 96bc 3825 78bf a943 e93e 1c86 973d
000001a0: 2bde fe3e f2ac aa3e 8a00 24bf 40ff 1cbe
000001b0: ac2a 33be 0a38 12bf 7e9b 50bf e5a8 ddbd
000001c0: 6c40 67c0 9aad c5bd 2845 063f 6178 083f
000001d0: 28a6 123c 3d25 8b3f 9370 58bd 3474 50bd
000001e0: d547 873e d833 2dbf 6379 7bbe 30e4 9d3e
000001f0: efaf 9d3e 162b 65bd a627 11bd 1102 2b3e
00000200: 641b 9c3e a047 3a3d 34dd 3ebe 067d 6e3f
00000210: f48e e33e e41f 923e be32 46be a725 5a3f
00000220: 76d9 91bf 67e0 24bc d2db e83e 4b64 a5bf
00000230: 9e06 d83e 6018 83bf 80a4 853d 6aca 463f
00000240: 26c4 803b abd8 04bf 8262 363f 53d0 96be
00000250: fbd9 493e bbe4 853e c226 82bf 6912 603e
00000260: 413e ffbd a506 b83e da63 c6bd 568f 3abf
00000270: 4208 8a3e bc2b ce3e 3ea5 e93e f6c9 973e
00000280: c539 5f3f f903 c23e 2fdd a13e a24b 5e3e
00000290: 7940 973d 607d 843e 4a53 473e 760f a3bc
000002a0: 45bc e83d 24e2 c6be f19c 8c3e 51d7 05bf
000002b0: 0780 023f 4bc5 8dbd 943d f03d cbaa 0fbf
000002c0: 5290 15c0 e87c 2c3d bce8 b43e 4127 1ebf
000002d0: 99a1 883f 6376 293e 6fb5 bdbc 3948 1bbe
000002e0: 79f4 6cbc ffa3 283f 0b19 a33e d7ee edbc
000002f0: 2044 f13d 61c1 ea3d d329 cb3d d332 a6bd
00000300: 8aa3 473d c2d2 de3e 953b efbd e4a0 d7bd
00000310: 0968 88bc 0fba e83d b3c8 5d3e 9aaf 32bf
00000320: 4620 78be 32b6 8f3f 3edd 5cbf 41c7 e5bb
00000330: 839b 893e e06a 303e 923a 093e 14f9 523e
00000340: 470e 543f 03a9 37be ce2c ef3e a4f4 60c0
00000350: 4d29 ac3e ac61 243f 4a04 723e d5d5 60be
00000360: 6db5 5f3f 76bf 3cbf 2660 893d 9b3e 5cbf
00000370: 8bf0 8dbf 82e6 31be 5d76 153f 5776 573e
00000380: 25b8 293f ec1a b7be e45b 9abc d04c ae3e
00000390: dd56 b3bc 3c23 d5be 96e0 b5be 31ef 973e
000003a0: 4aab 843e 7f83 50be d829 843e ecda c43e
000003b0: 8385 a43e fff7 893e 2bfb e3be 10c3 e33e
000003c0: 395a d53f 769e 3f3e 2a11 473f e316 cabf
000003d0: 0636 673f 8459 113f 3855 1b3e 7655 09c0
000003e0: 02fb 913d 1bc6 ba3d 1949 08be 24ec 973d
000003f0: 44b7 1f3d c72e 103e 2050 083f 91c5 453f
-0.1531101 0.49371028 0.05880541 0.27765808 0.39474592 0.47115815 0.07343397 0.066833794
0.07187783 -0.8792245 -0.93592453 0.12538089 -0.76843184 0.066808574 -0.36245444 0.72189426
0.31989688 0.2724729 0.42182747 0.02747399 0.123795114 -1.823108 -0.42865723 -0.17960754
-0.53508437 -0.19589607 0.49393678 -0.34294394 0.05428325 -0.14590964 0.18576822 -0.5861762
0.38700062 0.79524875 -0.0024832904 0.21773243 -0.31452212 0.7615096 -1.7506037 -0.2609672
1.1474672e-06 -0.5015027 -0.029772354 -2.1652727 -0.18609369 -0.13939571 0.21582404 0.22058688
0.07394496 0.24235122 -1.0692573 0.1298343 0.21046272 -1.5191604 0.08828781 0.21684408
-0.12364872 0.22051014 -0.8603542 0.23695208 -0.11791068 0.0576694 -0.32426035 -0.50221604
-0.27262545 -0.21608034 0.5394164 0.23888592 -0.54988045 0.32070524 0.10174006 0.34943047
-0.37792936 0.3453667 0.04341052 0.37186348 -0.2062506 0.051233716 0.5478901 -0.0376151
-4.5374284 0.16865814 0.13328087 1.1215682 0.009796669 0.28841683 0.06181963 -0.44404384
0.450549 0.36081815 0.8222377 0.5324907 0.04230385 0.2146785 -0.5510013 -0.90089095
0.2735324 0.2738157 0.19641824 0.47086456 -0.018351156 -0.9693179 0.45559433 0.07398626
0.49778876 0.33335072 -0.6406332 -0.15331745 -0.17496747 -0.5711676 -0.8148726 -0.1082323
-3.613307 -0.096522525 0.52449274 0.53308684 0.008950748 1.0870739 -0.052841734 -0.05089207
0.2642199 -0.6765723 -0.24558024 0.30838156 0.3079829 -0.055949293 -0.035438202 0.16700007
0.30489647 0.045478463 -0.1863907 0.9315952 0.44445002 0.28539956 -0.19355294 0.852137
-1.1394489 -0.010063267 0.4548021 -1.2921232 0.4219255 -1.0241814 0.065255165 0.7765261
0.0039296327 -0.5189311 0.7124406 -0.29455814 0.19712059 0.2615107 -1.0168078 0.21882023
-0.12463046 0.3594257 -0.09687014 -0.72874963 0.26959425 0.40267742 0.45633882 0.2964627
0.87197524 0.37893656 0.31614062 0.21708539 0.07385344 0.25876904 0.19465366 -0.019904833
0.113640346 -0.38844407 0.27463487 -0.5228167 0.50976604 -0.06922396 0.11730495 -0.56119984
-2.3369336 0.042111307 0.35333812 -0.61778647 1.0674316 0.16549067 -0.023157803 -0.1516427
-0.014462584 0.6587524 0.31855044 -0.029044552 0.11780572 0.11462665 0.09920087 -0.08115163
0.048739947 0.4352017 -0.11681286 -0.10528734 -0.01665117 0.11363613 0.21658592 -0.69799197
-0.24231061 1.1227477 -0.8627509 -0.0070122783 0.2687646 0.1722827 0.13401249 0.20602828
0.82834285 -0.17935567 0.4671387 -3.5149317 0.3362526 0.64211535 0.23634449 -0.2195657
0.8738621 -0.73729646 0.06707792 -0.8603303 -1.1089033 -0.17373088 0.58383733 0.21041237
0.6629661 -0.35762727 -0.018842645 0.34042978 -0.021892006 -0.41628444 -0.35522908 0.29674676
0.25911933 -0.20362662 0.25813174 0.38448274 0.3213311 0.26947019 -0.44527563 0.44484758
1.6668159 0.18712792 0.77760565 -1.5788234 0.9031681 0.56777215 0.15169227 -2.1458411
0.07127954 0.09119817 -0.13309135 0.07418087 0.038993135 0.14080344 0.5324726 0.7725459

hidden_layers.0.bias f4 [64]
00000000: ba86 923f dfbe b0bf 0310 18c0 bb7a 2d3f
00000010: f12a cbbe 48ba bfbd cc23 663f c26f e03f
00000020: 2fb4 133f 1f6a f3bf 7096 fcbe 4ec8 853f
00000030: ac21 9dbf 822b e7bf 09bd 6e3e a7a1 aa3f
00000040: cc41 b73f 2b0d 91bf 45ab 0d3f e903 76bf
00000050: c8ae 9a3f 1e93 903e ec16 f6bd 4f88 babf
00000060: eb2b a4bf 8398 443f 3451 5240 bb1b aabd
00000070: ee57 993f a9e4 33bf 5bb2 933f 9641 1a3d
00000080: bf31 83c0 4eae 963f 36a4 a3bf 1107 cd3d
00000090: 429b 5a3f 5b90 c53e a1e0 ab3f c3bf d03f
000000a0: 833f 013f ab85 58c0 1765 41bf 89fa bbbe
000000b0: 4a88 af3f 04c8 7ebe f1e7 193f 5467 6cbe
000000c0: 629b f3bf bc76 23c0 ee94 e13d 9dd3 4ebf
000000d0: 0111 57bc f393 fb3e 2d1b 5dc0 2cd8 843f
000000e0: c2af 27bf a908 e43e 45a9 4d3f 3e92 fb3f
000000f0: 98d6 4ebe 85b8 e2bd b346 913f 3fcc f9bf
1.1447365 -1.3808249 -2.3759773 0.67765397 -0.396812 -0.09361702 0.8989837 1.7534106
0.57696813 -1.901676 -0.49333525 1.0451753 -1.2275901 -1.8060153 0.23314299 1.3330582
1.4316955 -1.1332144 0.5533946 -0.96099716 1.2084589 0.28237242 -0.12016091 -1.4572848
-1.2825903 0.76795214 3.2862062 -0.083060704 1.1979959 -0.7027078 1.1538805 0.037660204
-4.0998225 1.1771944 -1.2784488 0.100111134 0.85393155 0.38586697 1.3427926 1.6308521
0.50487536 -3.3831584 -0.75544876 -0.3671458 1.3713467 -0.24880987 0.6011954 -0.23086292
-1.9031794 -2.554122 0.11014734 -0.80791646 -0.013126613 0.49136314 -3.4547837 1.037847
-0.6550256 0.44537857 0.8033641 1.9654005 -0.20199049 -0.110703506 1.1349701 -1.9515456

hidden_layers.1.weight f4 [32, 64]
00000000: 7da5 3a3e bc65 743e 2d67 c53d 85d9 a93e
00000010: a532 393d 13b2 83be e0b7 a9be d861 613e
00000020: 9c45 42bf f178 dcbe ef24 3bbf b191 4f3e
00000030: 0cdd 99bd fb92 0a3f 7a29 f23e d0e4 01be
00000040: 0790 223f 07e3 6dbf 0a18 dc3e 2baf 063f
00000050: 177e a13d 64ff 0d3e 27da 28be 38b0 913d
00000060: edfd 333e c147 f73d 2127 32be 4ff3 59bd
00000070: dd70 603e c14d 163e 06ee 3f3e e278 78bf
00000080: 78e7 443c 3811 a6be 3a2a 013f 9cca 0bbf
00000090: 6472 c6bc 57bf 5a3e 7fe3 383f bee7 83be
000000a0: eb09 82be 8d6e 11be a53d d0be 4d44 7e3e
000000b0: dbeb 67be 62f7 12bf e2e7 123f ee9f 0e3f
000000c0: 585a 8fbe 3301 1abf d72a 503f b402 503e
000000d0: d42b b93d 54fe ab3d feb9 a1bc 8f4f 463e
000000e0: 420b 163f 303b 38be 52f5 91be 0996 dc3e
000000f0: 6db8 30bf 2d3a 39be 8fd0 373e 7407 6dbd
00000100: e41c e1bd f171 07bf d2c5 acbe 564f a3be
00000110: f89c f23e 4703 0fbe 9e72 b1bf b5c6 eabd
00000120: 6cf8 463e 5b71 a33e c337 89be 95d5 063e
00000130: 32c2 dcbe 78de eabf 88b4 8d3e efe2 a13e
00000140: a9e3 323d 4d19 493e b970 113e 5aa6 9fbf
00000150: edd5 ed3e 0119 d1be 9aeb 11be fac3 063f
00000160: 96ff e6be 6023 b33e 3f22 133e 8e02 ab3d
00000170: 2873 0b3f f78f 3a3e 640a 2d3f cf49 16be
00000180: 7826 b6bf c712 37bf 2e8f c03e d12a 4d3e
00000190: a40e 44be 091c fa3e f5ff 93be 1269 eb3e
000001a0: d22a 363e e987 013f d2ee 1abe 8062 7a3e
000001b0: 7469 f6be 2f5d 1ebe 9ab3 eebe 5c65 ab3e
000001c0: 7cd9 31be 19b5 2c3d 4291 fb39 085d fcbe
000001d0: 7aad 9abd b936 f13e 5ef1 c9bd e1c5 db3e
000001e0: 1a18 89be 65e9 34bf c411 423e 579b 5ebd
000001f0: e4d5 de3e 4710 52bf 7d00 333e a486 30bf
00000200: 6cfe 813f 09cd 2d3d fa6c 973e 91dc 6b3d
00000210: faa3 eebd d4b0 db3d c12d d8be 4b38 393f
00000220: ef62 523e 62be 2dbf 3169 d3bd 3968 f73e
00000230: 4fc5 2dbf d445 4dbf ba8a 923e 1ca1 263c
00000240: d80d a13e 7a48 133e faf3 ebbe 48ab a8be
00000250: 1f2e d7bf adf0 463e 5a99 d73d bc0a 39be
00000260: f8e1 4bbf 7600 46be ab0f cdba f8d4 d9bd
00000270: 07e6 153e 8117 67bf a756 f0bd 60e5 b8bb
00000280: 5891 76be 3214 a1bd deb7 8f3d 0373 1b3d
00000290: e24b 3cbf 5b45 75bc 9e0c 37be 8972 dbbd
000002a0: 0157 e3bd 64f5 2ec0 1b59 fc3d 79a1 fd3d
000002b0: e5db 5fbd 4719 6c3e d116 c7be 3bd9 0fbe
000002c0: 28d6 d43d c9e1 abbf 9420 3dbc 094e a2bf
000002d0: 9396 af3d 151b 3d3e d220 7abe 6b29 2abf
000002e0: 6c61 833f 9cc8 b4be a44b 0e3f 5ae8 4b3e
000002f0: 826f 3ebe 2b00 c7bc b6a8 3abd 85f8 09bf
00000300: 76cc 253f 161f d9bd 803f 123d 4374 05bf
00000310: 0c78 1fbf 6ae5 8ebd ce2c c53e 8243 12bf
00000320: ced2 ee3e 7292 a3bd 7bb0 c5bf d934 08bf
00000330: ac5d 8d3d 9b7a e13e 90a3 dfbe dd64 c13c
00000340: 1819 5a3e 15ab 03be c074 d0bf 6832 45be
00000350: e5c1 0cbf 8968 d93e 4335 14be 36e6 66bd
00000360: 815c 37bd 7653 833e d75a dc3e 19ab c7bd
00000370: 6ce0 cd3d 69ec 9fbe d081 8fbe 8780 b2bd
00000380: 7ef8 013e d9cd f3bc 9a63 243f ea3f 5d3e
00000390: 7c87 30be 70f4 92be 8f09 b6be 1aae a23e
000003a0: dae1 a83e 71aa b93e c7d2 b63e 11f9 0bbf
000003b0: 558a b83e d536 1a3f e949 9d3e dc64 85be
000003c0: 1bfb 8f3e 9ee6 edbe b74a 3dbd 953f 823d
000003d0: 42e9 70bd a42a a0bd 94f1 573f f3fa 2b3e
000003e0: 42ba 85bf 1faa 5abf d6cd f83c 3939 87be
000003f0: d838 173e c48c 8d3e 989c a5be a06b aabf
0.18227191 0.23866934 0.0963882 0.33173767 0.045214314 -0.25721797 -0.33148098 0.2200998
-0.75887465 -0.4306102 -0.7310323 0.2027042 -0.075128645 0.54130524 0.4729727 -0.12684941
0.6350102 -0.9292454 0.4298709 0.52611035 0.07885378 0.13866955 -0.16489469 0.07113689
0.17577334 0.12074233 -0.17397739 -0.053210553 0.21918054 0.14678098 0.18743142 -0.9705945
0.012018077 -0.32435012 0.5045506 -0.5460603 -0.024224468 0.21362053 0.7222213 -0.25762743
-0.25398192 -0.14202328 -0.4067203 0.24830742 -0.22648565 -0.57408726 0.57385075 0.55712783
-0.27998614 -0.6015808 0.8131537 0.20313531 0.09041563 0.083981186 -0.019742008 0.19366287
0.5861093 -0.17991328 -0.28507477 0.43083218 -0.6903141 -0.18088599 0.17950653 -0.057868436
-0.109918386 -0.52908236 -0.33744675 -0.31896466 0.47385383 -0.13966094 -1.3863103 -0.114636816
0.19430703 0.3192242 -0.26800355 0.13167413 -0.4311691 -1.8349142 0.27676797 0.3161845
0.043674145 0.19638558 0.14203157 -1.2472641 0.46452275 -0.4083939 -0.14250031 0.52642787
-0.45116872 0.34987926 0.14368533 0.08350097 0.5447259 0.1821898 0.6759398 -0.14676593
-1.423049 -0.71513027 0.37609237 0.20035864 -0.1914621 0.48849514 -0.28906217 0.459786
0.17789772 0.5059801 -0.15130165 0.24451637 -0.4812733 -0.15465234 -0.466214 0.3347577
-0.1736812 0.042164896 0.00047982676 -0.49289727 -0.07552619 0.47112063 -0.0986049 0.42924407
-0.267762 -0.7066863 0.1895209 -0.054347362 0.4352256 -0.8205609 0.17480655 -0.68955445
1.0155768 0.042431865 0.2957533 0.057583395 -0.1165237 0.10727087 -0.42222407 0.7235152
0.20545553 -0.67868626 -0.10322798 0.48321703 -0.67879194 -0.80184674 0.28621465 0.010170247
0.31455874 0.14383116 -0.46084577 -0.32943177 -1.681095 0.19427748 0.10527296 -0.18070501
-0.79641676 -0.19336113 -0.0015644928 -0.10636324 0.1463853 -0.9027024 -0.117352776 -0.005642578
-0.24078882 -0.0786518 0.07017492 0.03795148 -0.7355329 -0.014970149 -0.17875907 -0.10715205
-0.11100579 -2.7337275 0.12321683 0.12384314 -0.054653067 0.23056518 -0.38884595 -0.1404771
0.103924096 -1.3428279 -0.011543412 -1.2680064 0.08573642 0.18467362 -0.24426582 -0.6646945
1.0264106 -0.35309303 0.5558417 0.19912854 -0.18597224 -0.024292072 -0.04557105 -0.53894836
0.6476511 -0.10601632 0.03570509 -0.52130526 -0.6229255 -0.06977351 0.38510746 -0.5713426
0.46645206 -0.079869166 -1.5444483 -0.5320564 0.06902632 0.44038853 -0.43679476 0.023607666
0.21298635 -0.12858231 -1.6285629 -0.1925751 -0.5498336 0.42462566 -0.14473443 -0.05637189
-0.044765953 0.25649613 0.43038055 -0.09749431 0.10052571 -0.31235054 -0.28028727 -0.08715921
0.12692448 -0.029761242 0.6421448 0.21606413 -0.17239183 -0.28702116 -0.35554168 0.31773454
0.3298481 0.3626285 0.35707685 -0.5467692 0.3604304 0.6023992 0.3072045 -0.26053512
0.28121266 -0.4646501 -0.04621383 0.063597836 -0.058816202 -0.07820633 0.84352994 0.16794948
-1.0447466 -0.85415834 0.030371588 -0.26410845 0.14767778 0.27646458 -0.32346034 -1.3314095

hidden_layers.1.bias f4 [32]
00000000: fc88 dabe 2cfb 7f3f fa5e 223f 78d1 8bbf
00000010: 7e10 943c 9b58 c4bf 5dd4 89bf 02aa 0140
00000020: 110a 893f 51fe ec3e ba30 ed3d 6a16 22bf
00000030: 70cc 27c0 c4f2 4a3f a097 05c0 460c ad3e
00000040: 8b93 2fbf 2aa0 363e f23e 2c3f 508b 39bf
00000050: a4c1 dbbd ba2f 1abf c59c 45bf edbd cbbf
00000060: 87c1 2e3f 609b 0bbe f10d aabf b47a 9abe
00000070: b0e8 373f cba3 653b eb69 523f a590 f4bd
-0.42682636 0.9999263 0.6342617 -1.09233 0.01807427 -1.533954 -1.0767933 2.0260015
1.0706197 0.46287778 0.115815595 -0.6331545 -2.6218529 0.7927668 -2.0873795 0.33798426
-0.6858451 0.17834535 0.67283547 -0.724782 -0.107302934 -0.60229075 -0.77192336 -1.5917336
0.6826405 -0.1363349 -1.3285505 -0.3017174 0.7183943 0.0035040255 0.8219287 -0.11941651

output_layer.weight f4 [6, 32]
00000000: a233 9b3d 2fbc 1a3c b2ff 35be 30d4 00be
00000010: 58b5 f43d 3f74 bd3d 6910 bc3d a60b d0bd
00000020: dd29 88be 6168 283e e0cf 9e3d ecd0 b53d
00000030: b904 f0be 54e4 01be b764 013e 93dc 10be
00000040: 8158 063d 8cec adbd 75ba 20bc 4b4f 94be
00000050: e5e6 f43d cd8f 19be 4b82 2a3e 38a8 453e
00000060: 2438 97be 1a66 04be 7b7c 113e d5a8 613d
00000070: d7b3 d9be 75a6 68be 35b4 0abe 0c37 663e
00000080: 3f5a 09bd 896c 18bd cb36 b0bd 2470 50be
00000090: d430 063e d076 c93d 9c44 903c cf61 3f3d
000000a0: acc0 21be 7c8f 163e 6ba1 9f3d 75c6 793c
000000b0: 159a 1abe bbdb acbd e652 0ebd 0545 b7bc
000000c0: 14dc 323d 836c d6bd 2051 ecbb a575 09be
000000d0: ff2e 103e 820a 2fbe 682e 2f3e 83f9 463e
000000e0: f9dc 95be 8385 da3c 9350 873d efea 053c
000000f0: ba7c 95be 928b 21be ea4b 03be bcf6 1a3e
00000100: 8974 57bd 2644 05be 2ae1 efbb b0f9 5ebe
00000110: ad8b 043e b04d 943d 6322 2cbd 1f71 003e
00000120: 9afa 28bd 8fca 743d 89d9 2e3d 8056 b3bd
00000130: d18e 483c 5c2b 713a 1a25 d1bd 0bfe e1bc
00000140: bf48 c53b 2137 6bbe 690d 9c3d 3609 8ebe
00000150: 68a4 0b3e bcb0 51be 83a3 223e 9a57 163e
00000160: 98f6 24be 4761 11bc d1d6 203d bd26 643d
00000170: 06e6 24be 6baf 7bbd 56b6 f8bd a0d9 283d
00000180: afb8 a73d f849 3cbe 3f35 683d bfc3 e7bd
00000190: 824b 283c 1fa1 cd3d 00fe 0bbe ae7e d63d
000001a0: 9eea a83d 0afa fcbd 9221 a13d 3559 72be
000001b0: 2dea 633e 0206 c83d ae73 15be ee38 d1bd
000001c0: 40e3 debd 4365 84be bad0 933c 1e66 74be
000001d0: aa33 b23d 45a0 43be ef40 a73c 7fd3 a13d
000001e0: bd66 d2bb 64b4 2c3c 0193 fdbc 8676 af3b
000001f0: 2f03 1c3b 4764 d43c a9be dabd 87a1 87bd
00000200: 6e23 953d 19cc 99bd 8649 763e 6683 ea3c
00000210: 7ea5 32be 8124 7d3d 8bed 98be b6cb 6b3d
00000220: 2c34 bc3d 78ca c3be 6fbd f23d 0446 a8be
00000230: 1a2d a63e 9828 413d 99d7 2abe 8ecd 003d
00000240: b20c 91be 4de2 4dbe fffd 7cbe 319f 1c3d
00000250: e488 513d cbc8 9eba f2a4 063e 710f 7abe
00000260: c105 1b3e c9bc 30be ae19 87be a9e3 5cbe
00000270: 7fd4 3c3e 4e63 543d f5b5 953d ef64 1dbe
00000280: 7ccf ce3d b9a7 213e de38 313e b1ea ab3d
00000290: 21bc b6bc cfd0 c2be 676b 16bf 5e7f 6b3d
000002a0: 53c8 a4bd 436e 17bf d206 96be 832f 77bd
000002b0: 2976 963e 66ec 62be 2be7 38be d6d2 953d
000002c0: 4a72 e8bc 7252 453e 365c cbbc 885d 2cbf
000002d0: 0b16 f8be 0ea9 fd3d f1da 88be 25fb 40bf
000002e0: 4d58 f63e d1d1 cabd 7acf 12bf b99f d1be
000002f0: ee31 8e3e 88b1 013e 5cf3 c43e 1052 90be
0.075782076 0.0094442805 -0.17773321 -0.12580943 0.11948651 0.09250688 0.091828175 -0.10158472
-0.2659444 0.16446067 0.07754493 0.08877739 -0.46878603 -0.12684757 0.12636076 -0.14146642
0.032799248 -0.08492383 -0.00981008 -0.28966746 0.11958102 -0.14996262 0.16651265 0.19302452
-0.2953502 -0.12929574 0.14207642 0.05509265 -0.4252002 -0.22719748 -0.13545306 0.22481936
-0.03353333 -0.037212882 -0.08604201 -0.20355278 0.13104564 0.09837115 0.01761084 0.046724137
-0.15796155 0.14703172 0.0779446 0.01524507 -0.1509784 -0.08440348 -0.034747027 -0.022371778
0.043666914 -0.10469916 -0.0072118193 -0.13423784 0.14080428 -0.17093852 0.17107546 0.19431119
-0.2927015 0.026674991 0.06607165 0.008173688 -0.2919672 -0.15775898 -0.12821928 0.15133184
-0.05260137 -0.13014278 -0.007320543 -0.21774936 0.12943907 0.0724138 -0.04202498 0.12543152
-0.041254617 0.059763487 0.042687926 -0.08756733 0.012241081 0.00091998815 -0.10212155 -0.027586957
0.006020635 -0.22970249 0.07619745 -0.27741402 0.13636935 -0.20477575 0.15882687 0.14681855
-0.16109693 -0.00887329 0.039267365 0.055701006 -0.16103372 -0.06144659 -0.12144153 0.04122317
0.081895225 -0.18387592 0.056691404 -0.113166325 0.010271909 0.10040497 -0.13671112 0.10473381
0.08247875 -0.12352379 0.07867731 -0.23666842 0.222573 0.09766771 -0.1459491 -0.102159366
-0.10883188 -0.25858507 0.018043865 -0.2386708 0.087012604 -0.19104107 0.020416705 0.07901668
-0.0064209388 0.010541055 -0.030953886 0.0053547053 0.0023805609 0.025926722 -0.10680897 -0.06622606
0.07282148 -0.07509632 0.24051484 0.028627109 -0.17445943 0.06180239 -0.2986873 0.05756732
0.091896385 -0.3824041 0.11852538 -0.32865918 0.32456285 0.047157854 -0.16683806 0.031446032
-0.28329998 -0.20105858 -0.24706267 0.038237754 0.05115594 -0.0012114284 0.13148859 -0.24419953
0.15138914 -0.17259516 -0.2638678 -0.2157122 0.18440436 0.051852517 0.07310096 -0.15370534
0.10098168 0.15786637 0.1730685 0.08394373 -0.022306504 -0.38049933 -0.5875763 0.057494514
-0.08046021 -0.5915262 -0.29302078 -0.060348045 0.29387024 -0.22160491 -0.18056934 0.073156044
-0.02837481 0.19269732 -0.024824243 -0.6733022 -0.48454317 0.1238576 -0.2672954 -0.75383216
0.48114243 -0.099033006 -0.57347834 -0.4094217 0.27772468 0.12665379 0.38466918 -0.2818761

output_layer.bias f4 [6]
00000000: c308 5bbf 007a 73bd 0ce5 7e3e d2c1 af3e
00000010: c60c a43e 89d8 8bbe
-0.85560244 -0.05944252 0.24892062 0.3432756 0.32040995 -0.2731364

exp_avg f4 [128, 52]
00000000: 874f ebbc b188 4a3c c8d4 c1bc c86c 1fbb
00000010: fc2a 2d3b ce9a d93b 45f1 273b d8c6 48ba
00000020: 905e ce3b 1e4b bb3a c410 753a ea3d b83b
00000030: 0db9 03bb fced 053b 2f62 cebb 4bed c13a
00000040: d9ca c9bb 5052 7439 b210 90bb a026 49b8
00000050: f16c 10bb 9805 b23a 9dbd 99bb c6a7 9bbb
00000060: a739 baba a62e 55b9 96c1 fbb9 4f87 d2ba
00000070: a93c 80bb 9e40 faba 6c57 a63a 9d9d f73a
00000080: 705a bb39 b0b3 11b8 0766 b63a 14ea 413a
00000090: cac8 c93a e9ae 173a 3295 333a 146c fd39
000000a0: 6ffb 81b9 d9a4 e139 0e0b ee38 aa62 5f39
000000b0: 721e 89b8 ecd5 88b6 839e 09b6 7368 e536
000000c0: 5248 2236 8c0d 00ab ee56 67ae fa48 012b
000000d0: 6740 403a 07c3 de3b 65bb 9dbb 14d8 c0ba
000000e0: a4e1 e0bb 9dbc 1d3b 242b 95ba 8a37 953b
000000f0: c48d d6ba 296a ecb9 8fb4 f5ba b6cf deb8
00000100: 7f57 183b dc04 1e3b 94ad 33ba 941e 99bb
00000110: afa4 f8ba d619 81b7 16e7 c039 106c 7437
00000120: be07 553b 086a 52b9 3970 62bb 1afa 9938
00000130: 0233 e139 757c 9eba 7f70 e23a 4ecd 153b
00000140: 62a1 9aba 2ad1 da38 745b 2239 d58d e23a
00000150: 5212 213a a837 9cba 6edb c1b9 495b 77ba
00000160: 6209 15ba 3325 06b9 f0c5 22ba 8cee fcb9
00000170: 35b7 b4b9 ae72 0039 5d2d 8c39 cb0b 65b9
00000180: ed41 9bb8 604d 5d37 d328 fb36 3fb9 0d34
00000190: 1fef fd34 68cd d42a b63b 3f2e de77 e2aa
000001a0: 7831 4bbc e2a5 863c 86a4 363c 12c6 8c3b
000001b0: 2c05 613a 5dc9 ba3b 767e 89bb b11d 8bbb
000001c0: dc1a ea3a cfe8 813b b906 92ba 30e9 2639
000001d0: edd2 8bba 4e5b 3cbb 28c4 94ba e6be 9b3b
000001e0: e42c e4b9 12f3 8dbb 9ec9 92ba 0eb7 923b
000001f0: b0db b33b ade6 1d3b 3273 81ba 77fb a4bb
00000200: 54dc 03b9 1c8d bdb9 bf3d c93a 8279 14ba
00000210: f0dc a1b8 0f0a be39 47b7 7a3a cfaf 4e3a
00000220: 67a6 173b 2ff9 5e3a 536c 503a 0884 d639
00000230: 0aac 653a 60ee 01ba 8cc8 8038 6868 a239
00000240: 2090 113a 309f 1f3a b2d8 1bb9 c86c 2db9
00000250: 373b f1b8 6e42 c937 2fc0 67b6 b17b ccb5
00000260: e0f4 1834 5d69 162b 1238 862e 9f8c 1fab
00000270: 333b 0c3c 6007 a4bc 0096 dbb6 e092 05bb
00000280: 3138 87bb d7e0 123a 3d01 c5b9 8ffd 15bb
00000290: 25a8 10bb a08d 1b3a 2b15 1dba 8b0a 0dbb
000002a0: aa0e 5fb9 cfe8 823b 71a3 443b 6b3a 913a
000002b0: 44f5 76ba 310a cb3a 33d7 c7b9 994f bc3a
000002c0: 0e8e e33a 69fa 3fba 021f 85ba b280 a3ba
000002d0: d8af 88ba 432a 42ba 4c9a 1fba 22c7 0cba
000002e0: 342e 113a 59e3 2eb9 0a08 c339 ddda d4b9
000002f0: c416 7b3a fa4a c1b9 739e 3b39 deae 62b9
00000300: f855 9e39 4b0a e1b7 3d76 b7b9 cb35 b938
00000310: 3a93 90b9 5620 8039 9fcf 6c39 0a6b 08b9
00000320: 0361 3f37 fd5d 1237 fa94 2f36 d9b2 4136
00000330: c345 60b5 4520 87a9 75e4 e2ac fdd2 9229
00000340: cdbd 263c 025e a8bb 1505 c8ba 3a01 3d3b
00000350: cc68 733a 2ca6 78bb c061 833a d29f 43bb
00000360: c410 d8ba a12f b7b9 f6b2 b73a 264c a739
00000370: 862e 7b3b 4535 113b 9afc e839 2f53 3bb9
00000380: 1aa9 a839 52fb 173b ca15 3538 afe7 f1b9
00000390: 85bc 553b c2b5 4aba 8abd 26ba fdbd 9bba
000003a0: fc91 103a f0ba 99ba c091 f3b9 c4d0 3a3a
000003b0: b3b5 583a 4d81 9fba f499 f8b9 9885 41b9
000003c0: 7351 2b3a 3e1e 3ab9 348f 113a a3e1 be38
000003d0: d416 65b8 c0f2 d539 56d0 1c39 1762 4db8
000003e0: 851e 5bb7 5a87 19b9 efec f839 38ee 1ab9
000003f0: f896 3a37 ecec af36 6e98 cc36 b8d6 60b5
-0.028724445 0.012361691 -0.023661032 -0.0024326313 0.0026423326 0.0066407686 0.0025625986 -0.00076590246
0.006297894 0.0014289354 0.00093485066 0.005622615 -0.0020099313 0.002043604 -0.0062983255 0.001479545
-0.0061582145 0.00023300317 -0.0043965215 -4.7958107e-05 -0.002203759 0.0013581989 -0.004691793 -0.0047502248
-0.0014207856 -0.00020330641 -0.00048018683 -0.0016062054 -0.0039134813 -0.0019092744 0.0012690849 0.0018891577
0.000357348 -3.473804e-05 0.0013915905 0.0007397246 0.0015394923 0.00057862565 0.000685054 0.00048336445
-0.0002479213 0.00043038165 0.000113507835 0.00021303692 -6.53834e-05 -4.0780196e-06 -2.0506857e-06 6.8368913e-06
2.4181977e-06 -4.5493535e-13 -5.2600528e-11 4.593128e-13 0.00073338154 0.0067981514 -0.004813599 -0.0014712834
-0.006862836 0.002406872 -0.0011380655 0.00455374 -0.0016369154 -0.00045092523 -0.0018745827 -0.00010624474
0.002324551 0.0024111783 -0.0006854173 -0.0046728346 -0.0018969978 -1.539003e-05 0.00036793266 1.4568694e-05
0.0032505835 -0.0002006666 -0.0034551753 7.3421936e-05 0.00042953348 -0.0012091534 0.0017275958 0.0022857967
-0.0011797363 0.0001043401 0.00015483593 0.0017284701 0.00061443925 -0.0011918442 -0.00036975316 -0.0009435905
-0.0005685297 -0.00012793094 -0.00062093046 -0.00048242917 -0.00034468775 0.00012249753 0.0002673668 -0.00021843535
-7.4032556e-05 1.3190642e-05 7.4851355e-06 1.319904e-07 4.7298906e-07 3.7801294e-13 4.3481406e-11 -4.022884e-13
-0.012401931 0.016436521 0.011147624 0.0042960728 0.00085838395 0.005700274 -0.0041959835 -0.004245483
0.0017860788 0.0039645205 -0.001114092 0.00015917863 -0.0010667719 -0.0028740945 -0.0011349963 0.0047529815
-0.00043520995 -0.0043319548 -0.0011199003 0.004477388 0.0054888353 0.0024093792 -0.000987625 -0.0050348598
-0.00012575212 -0.00036154024 0.0015353485 -0.0005663858 -7.718231e-05 0.00036247118 0.00095640536 0.0007884474
0.0023139955 0.0008505759 0.0007950712 0.00040915632 0.00087612926 -0.000495648 6.1408704e-05 0.00030976837
0.00055527873 0.00060890894 -0.00014862677 -0.0001653909 -0.00011502805 2.3992001e-05 -3.4533548e-06 -1.5235183e-06
1.4245188e-07 5.3436926e-13 6.1035746e-11 -5.66833e-13 0.008559036 -0.020023048 -6.544171e-06 -0.0020381734
-0.0041265716 0.0005602962 -0.0003757569 -0.0022886728 -0.0022072878 0.00059338845 -0.0005992229 -0.0021521177
-0.000212724 0.003995038 0.0030004645 0.0011080032 -0.00094207027 0.0015490708 -0.00038116574 0.0014366984
0.0017361061 -0.0007323386 -0.0010156336 -0.0012474267 -0.0010428382 -0.000740681 -0.00060883607 -0.0005370249
0.0005538196 -0.00016678627 0.00037199288 -0.00040598857 0.00095782825 -0.0003686769 0.00017892737 -0.00021618183
0.0003020016 -2.6826883e-05 -0.00034992574 8.831507e-05 -0.00027575513 0.00024438155 0.00022584059 -0.00013009846
1.1407074e-05 8.7241615e-06 2.6163748e-06 2.8863344e-06 -8.354802e-07 -6.000802e-14 -6.44867e-12 6.520303e-14
0.010177088 -0.0051381597 -0.0015260304 0.0028839842 0.00092853303 -0.0037940843 0.0010023639 -0.00298499
-0.0016484489 -0.00034939966 0.0014015127 0.00031909457 0.003832729 0.0022156995 0.0004443869 -0.00017864698
0.00032169448 0.002319057 4.3174055e-05 -0.0004613972 0.0032613587 -0.00077327725 -0.0006360641 -0.0011882182
0.00055149174 -0.0011728685 -0.00046457164 0.00071264454 0.00082668214 -0.0012169272 -0.0004741695 -0.00018455682
0.0006535269 -0.00017749608 0.000555265 9.101934e-05 -5.4619115e-05 0.0004080739 0.0001495493 -4.8967162e-05
-1.3060523e-05 -0.0001464164 0.00047478775 -0.00014775328 1.1121614e-05 5.2429878e-06 6.097419e-06 -8.375896e-07

exp_avg_sq f4 [128, 52]
00000000: 851e 663b c152 253b 6ccb bc3a 2501 933a
00000010: 4b63 a93a 29c7 513a b4a6 263a 0e14 d639
00000020: 4325 c439 478a a139 0538 aa39 5c52 a239
00000030: e2ae ac39 6282 b039 c23a 5139 9e97 7239
00000040: 8487 6739 e4f6 4039 87dc f438 b4f4 1439
00000050: c1b4 1739 4572 0039 84ab e838 6625 d538
00000060: 6967 e738 395d e438 fbb1 ac38 0f2e 8838
00000070: f6d8 7d38 4048 5e38 2fbb 4238 16e7 3938
00000080: 5676 0838 6d91 ad37 b373 a637 7508 4b37
00000090: 2048 4e37 cfc7 0b37 699c 1c37 dea2 2137
000000a0: 5897 df36 c97d 3037 2388 5e36 ec61 bf35
000000b0: e5cf 8f34 2982 e431 47ae 5530 2731 1c30
000000c0: c678 ec2d 75a9 3019 d4ff 0d20 7cff 4619
000000d0: 6d99 383b 2444 d33a 4842 2a3a 62c8 323a
000000e0: 156a 1d3a 1e12 103a 73f9 a639 e71a 6439
000000f0: c9a3 5e39 d9a1 8039 f631 4f39 fb1d 6839
00000100: 9ced 7e39 f79b 6639 a9f0 4739 404c 5239
00000110: 6e08 fe38 c998 1539 d99e b238 900d cc38
00000120: 87f2 e938 b0a2 b838 06ed 9838 8a4a 8738
00000130: db1f 9338 6001 7938 d6ee 7538 6263 f937
00000140: 189b 0b38 4479 c637 578f 0a38 aced c337
00000150: dab6 7b37 34be 4a37 1537 0737 5727 d136
00000160: 21ec 2937 58dd 0237 7db4 dc36 f4a7 0037
00000170: e6f8 df36 0c13 4136 a985 0c36 b1d5 9135
00000180: 101f 5634 01b8 9331 77f8 2030 99ae ce2f
00000190: 4892 aa2d 800c e418 e073 b71f ce7c 0019
000001a0: 17b4 923a f64d 713a d494 663a 278e 5c3a
000001b0: 4750 1a3a 3d23 9139 ff3a 9939 71e9 2739
000001c0: ec28 5f39 f2f5 2239 1f81 1839 9d22 e338
000001d0: f81f 1239 adcd 1839 2b08 1f39 9f57 3f39
000001e0: 7566 bf38 c3c7 a838 f581 3738 04df 4538
000001f0: 74d2 6438 9575 7838 e904 6138 65c7 6738
00000200: 7153 4a38 11d8 0338 049d 0c38 909d cd37
00000210: 3ab3 c037 00a9 bb37 a9aa 8337 6d01 7a37
00000220: e9cd 9c37 24c3 0737 6d19 0037 fc95 be36
00000230: a870 7e36 6217 8a36 cc26 9836 7076 7736
00000240: 0de7 6236 034b c336 8fa9 b135 1bfe 4635
00000250: 4bab 1a34 f594 1332 bba2 ad2f 1de4 602f
00000260: e373 352d 6b80 5218 2032 291f ea77 6d18
00000270: 51bf 063b 4d81 0e3b 28af 0e3a 41e0 2d3a
00000280: 0404 ed39 b6c4 af39 685e ac39 6978 1439
00000290: fd90 3139 3136 2839 73ec f138 89a7 2d39
000002a0: fb07 4439 580b 3b39 182d 0839 6a55 2d39
000002b0: 3e22 f138 6b99 d038 c5cd 5738 1fa0 c038
000002c0: 2e19 b038 e588 7538 9fa6 3c38 2438 3938
000002d0: 9879 3538 a273 5638 6151 0638 a168 0438
000002e0: 4466 df37 208d c537 c360 c137 eacf a737
000002f0: 3e46 a037 a3e2 4a37 4fee 1b37 ab30 6a36
00000300: dd65 a236 8641 8736 711e 0337 7514 ab36
00000310: 7e78 9a36 afa4 9336 b3ef ac35 5bc6 1235
00000320: 4b60 e933 cd02 a831 2f72 eb2f 55fb a22f
00000330: 2604 822d 795a b718 0d82 931f 03a9 ce18
00000340: 042b 923a 8d39 5c3a 30ae 9939 7e2c 8239
00000350: 8f5e d639 e979 7c39 2f6e 5d39 7023 0839
00000360: 0db4 1b39 751d 1439 8a11 d838 c87a 0439
00000370: a899 fb38 f765 e238 77b5 fb38 08cc cc38
00000380: 57f6 a038 30a2 9f38 3fc1 3238 d99c 7b38
00000390: 81c5 8d38 c9d6 3d38 2445 1738 89a1 0938
000003a0: c643 f437 45f9 1338 11f7 b637 003a b137
000003b0: 8eab 9a37 851c 8a37 accf 5637 7c88 6537
000003c0: 724d 1a37 5af8 0137 04eb d236 eff9 3636
000003d0: 994a 5536 6643 4336 94a8 7336 c309 6136
000003e0: 1635 3836 0846 1f36 cc3f a235 5821 f634
000003f0: 4c4e bb33 5fd5 d531 d7ff 8e2f b16e 4d2f
0.0035113406 0.0025226327 0.0014403886 0.0011215551 0.0012923268 0.00080023945 0.0006357238 0.00040832203
0.00037411795 0.00030811338 0.00032466665 0.0003096041 0.00032936694 0.0003366648 0.00019953682 0.000231354
0.0002208036 0.00018402521 0.00011675903 0.00014205539 0.00014467818 0.000122496 0.00011094569 0.000101635975
0.000110342 0.00010889251 8.2347506e-05 6.4935644e-05 6.052196e-05 5.2996213e-05 4.6427533e-05 4.4322653e-05
3.2535136e-05 2.0690926e-05 1.9842619e-05 1.2101712e-05 1.229535e-05 8.331567e-06 9.334742e-06 9.634268e-06
6.6635366e-06 1.0519704e-05 3.315982e-06 1.4259108e-06 2.678709e-07 6.650471e-09 7.773661e-10 5.682232e-10
2.6883728e-11 9.133208e-24 1.2027811e-19 1.0287955e-23 0.002816762 0.001611833 0.0006494862 0.00068200205
0.0006004882 0.0005495864 0.00031847841 0.00021753796 0.00021232585 0.00024534648 0.0001975967 0.00022136413
0.00024311844 0.0002199261 0.00019067772 0.00020055566 0.00012113234 0.00014266664 8.517289e-05 9.730004e-05
0.0001115548 8.8041066e-05 7.292074e-05 6.4511856e-05 7.01544e-05 5.9367507e-05 5.8634985e-05 2.9729392e-05
3.3284625e-05 2.3659908e-05 3.303526e-05 2.3356486e-05 1.5003339e-05 1.2084423e-05 8.059452e-06 6.233265e-06
1.0128163e-05 7.800139e-06 6.5775225e-06 7.668499e-06 6.6748935e-06 2.8770328e-06 2.0939426e-06 1.0865534e-06
1.9941604e-07 4.299182e-09 5.856075e-10 3.759524e-10 1.9391724e-11 5.894924e-24 7.7695214e-20 6.642649e-24
0.0011192587 0.00092050375 0.0008795981 0.00084135163 0.0005886596 0.0002768281 0.0002922639 0.00016013325
0.00021282182 0.00015541146 0.00014543951 0.00010830651 0.00013935554 0.0001457247 0.00015166464 0.00018247821
9.126674e-05 8.048073e-05 4.3751632e-05 4.717616e-05 5.4555436e-05 5.9237314e-05 5.3648753e-05 5.5260392e-05
4.8238264e-05 3.143406e-05 3.3524833e-05 2.4511275e-05 2.2971642e-05 2.2370834e-05 1.5695887e-05 1.4901493e-05
1.8692534e-05 8.092062e-06 7.635314e-06 5.6799017e-06 3.7914524e-06 4.1154426e-06 4.5344696e-06 3.6874808e-06
3.3811114e-06 5.8201854e-06 1.3236876e-06 7.413052e-07 1.4404684e-07 8.590395e-09 3.1584144e-10 2.0453723e-10
1.0314391e-11 2.7206698e-24 3.5828604e-20 3.0692073e-24 0.002056081 0.002174455 0.00054429704 0.00066328427
0.00045207154 0.00033525162 0.00032876735 0.00014159236 0.00016934048 0.00016041916 0.000115358176 0.00016560977
0.0001869499 0.00017837936 0.0001298677 0.00016530385 0.000114981536 9.946789e-05 5.1451632e-05 9.185098e-05
8.397024e-05 5.8540045e-05 4.497787e-05 4.4159722e-05 4.3267006e-05 5.1129267e-05 3.202388e-05 3.1568696e-05
2.6631293e-05 2.3549946e-05 2.3052451e-05 2.0004769e-05 1.9106195e-05 1.2092906e-05 9.2942055e-06 3.4897046e-06
4.8398347e-06 4.0309415e-06 7.815296e-06 5.0985786e-06 4.603585e-06 4.400113e-06 1.288476e-06 5.4677884e-07
1.08674236e-07 4.889762e-09 4.2827383e-10 2.964621e-10 1.4781131e-11 4.7395745e-24 6.247207e-20 5.342041e-24
0.0011151736 0.000840091 0.00029312214 0.00024828681 0.00040887712 0.00024078008 0.00021117249 0.00012983172
0.00014849026 0.00014125353 0.000103029495 0.0001263424 0.000119972334 0.00010795512 0.00012002413 9.765482e-05
7.675279e-05 7.6119206e-05 4.261848e-05 5.998914e-05 6.760192e-05 4.5261146e-05 3.6065598e-05 3.2813787e-05
2.9118626e-05 3.527968e-05 2.181114e-05 2.1127053e-05 1.8438117e-05 1.6464162e-05 1.2803746e-05 1.3681241e-05
9.197147e-06 7.746823e-06 6.285847e-06 2.7265594e-06 3.1782895e-06 2.9096495e-06 3.6307947e-06 3.3533295e-06
2.7449037e-06 2.373361e-06 1.2088508e-06 4.5845331e-07 8.722108e-08 6.2233734e-09 2.6011435e-10 1.8683967e-10

exp_avg f4 [128]
00000000: aabc fe3b 4e6a 0c3a a2ab 9d3b ce35 76bb
00000010: d635 bfba 12d9 eaba 0edf f83a 0cc3 893b
00000020: a70f acba bb16 0cbc 1217 7c3b ba62 67bb
00000030: 3547 2d3b b76f 473b 28c0 c1bb fea8 ae3b
00000040: 70c7 38b8 eb30 39bc 01ed b03a 2522 2abb
00000050: 48c6 7f39 6a51 d3bb 70cd c43a 7bf0 ed3a
00000060: 8816 913b c9dd 533b 5b1d efba cb33 a03b
00000070: ba28 5c3b 9ce7 d13b a529 5fbb 8abc 84bb
00000080: 9a1e 4a3a ccf2 72bb 7e40 3d3b 0462 9239
00000090: 10e7 0bba ec4f 243c 1c0d 6a3b a2b3 37bb
000000a0: 48ca 95bb 00e1 9039 1621 f03a 360b 013c
000000b0: a78c 1bbb 44f1 01bc c6d6 99bb cc52 07bc
000000c0: 1b6b 2b3b 74ee 2ebc c644 8cbb 3a94 fc3a
000000d0: 840c 49bb aa56 223b ff5b 30bb 0661 5539
000000e0: c37c 5dbb d01a 14ba 4bb9 45bb 1895 2439
000000f0: ff7a 8f3b 25e4 2a3b 74a0 7439 e082 7a39
00000100: 4ea6 1f3c c728 fabb 9f84 ef39 7dc9 183c
00000110: 0613 c73b 2006 1dbc 69d2 003c 025e 0db9
00000120: 1cc1 d3b9 00c6 bab8 d0b3 deb8 80ca e9ba
00000130: 35db 7cbb 4518 a7bb 981c 18ba 8c8e 003b
00000140: 760d ffbc c0f2 22bb 0ef6 8f3b 5d96 a9bb
00000150: 6096 b638 60c4 853b 8251 8739 31b1 623b
00000160: e677 74bb b391 3f3c 42dc 753a 8f7e 74bb
00000170: c119 243b e96b 89bb 4be4 543a 36b5 ce3b
00000180: 6623 89ba 2d86 53bb ad16 b13a 3249 05ba
00000190: 7825 91ba 6a3b 80bb a9eb 9fba a4f7 f83a
000001a0: 8553 cc3b 9610 97ba e442 77ba de3d 003b
000001b0: 3048 473b db8e b4bb d6de 3a3c 03d1 a83a
000001c0: 63f9 0abc 47e5 003b 1a44 083c 68b2 37bb
000001d0: 0e1b d63b 718b 953b 1ef5 32bb 5981 1dbb
000001e0: 7969 0bbb 6855 613a 204b 5fba 1be1 323b
000001f0: 6654 acba 7262 f93b 5e08 5a3a 2ec8 573b
0.0077739554 0.0005356417 0.00481172 -0.0037568691 -0.0014588188 -0.0017917475 0.0018987374 0.0042041596
-0.0013127223 -0.008550341 0.00384659 -0.0035306648 0.0026440148 0.0030431577 -0.0059127994 0.005330204
-4.405476e-05 -0.011303167 0.0013498367 -0.0025960293 0.0002439256 -0.0064489143 0.0015014838 0.0018153334
0.0044277348 0.003232824 -0.0018243002 0.0048889867 0.003359361 0.006405784 -0.0034051922 -0.004050796
0.00077102485 -0.0037070988 0.0028877552 0.00027920317 -0.000533686 0.0100288205 0.003571338 -0.0028030653
-0.004571233 0.00027633458 0.0018320407 0.007876208 -0.0023734958 -0.007931057 -0.0046947924 -0.008259486
0.002615637 -0.010676969 -0.0042806594 0.0019270249 -0.0030677626 0.0024770894 -0.0026910303 0.00020349407
-0.0033796288 -0.00056497473 -0.0030170258 0.000156958 0.004378676 0.0026075926 0.00023329427 0.00023890613
0.00974424 -0.0076342556 0.00045684443 0.009325382 0.006075266 -0.00958398 0.007862666 -0.00013481829
-0.00040388934 -8.9060515e-05 -0.000106192776 -0.0017836839 -0.0038582806 -0.0050993287 -0.00058026006 0.0019616215
-0.031134348 -0.0024863929 0.0043933457 -0.0051753954 8.706446e-05 0.0040822476 0.00025809935 0.0034590478
-0.003730291 0.011692452 0.0009378829 -0.003730688 0.0025039765 -0.004193772 0.00081211765 0.006308223
-0.001046282 -0.003227602 0.0013510786 -0.00050844543 -0.0011073789 -0.0039133327 -0.001220097 0.0018994701
0.0062355422 -0.0011525329 -0.000943227 0.0019568126 0.0030408017 -0.0055101938 0.011405667 0.0012879673
-0.00848231 0.001966791 0.008317018 -0.0028029922 0.006533987 0.004563742 -0.0027306746 -0.0024033396
-0.0021272583 0.00085957954 -0.00085179694 0.0027294818 -0.0013147711 0.0076106125 0.0008317287 0.0032925713

exp_avg_sq f4 [128]
00000000: 37e1 bc39 35aa 8a39 7571 1b39 7e77 6439
00000010: 91be 0539 798d 2239 6ae9 eb38 54ca 6c39
00000020: 18fe 1139 185e 8e39 6604 ea39 0950 0a3a
00000030: 2c23 b339 8aa2 8439 6c6e 6a39 3694 b839
00000040: 4bd8 9c39 d62f 1a3a 7267 0b39 cf2e ac39
00000050: 57f6 313a d377 3b3a 9ed4 5639 7849 1339
00000060: 9688 8a39 fd67 0539 db56 2e39 a5f3 aa39
00000070: abd8 7839 fd42 8239 7280 0639 a6a2 4c3a
00000080: 5c8c 4b39 743b 7439 844e d338 cb2f 233a
00000090: e10c 7c39 958c 063a c304 e439 7817 5539
000000a0: 929e 5539 cee9 3039 e09b df38 a261 593a
000000b0: 425c 2739 3e4d 1e3a f5ee 9039 7e89 9d39
000000c0: 7a8b 893a 597a a339 0b0a 643a 9488 0f39
000000d0: 1cf0 cc38 6f69 633a 6f7c cd39 37a5 6c39
000000e0: 3d17 f539 f462 5a39 abb2 463a ea6c e139
000000f0: 34ff a539 dd3c b538 ce0e eb38 2ee0 1d39
00000100: 6f16 2c3a 0064 4039 def6 3d39 9f75 4339
00000110: 5976 db39 8085 313a e1e3 3439 7d08 c539
00000120: 76b5 4e39 0312 103b c104 9e39 ed4e 5e39
00000130: e9eb d938 da7e af39 80f8 0d3a 587c a939
00000140: 61f0 b13a a1ff 2f39 e98a aa39 693b 173a
00000150: c080 0139 8e24 4f39 f3c0 e538 200a 8e39
00000160: 88e8 1f39 a81d bd39 e2a4 c239 2aae eb39
00000170: bc48 8b39 3fcb 1139 354b 0d39 656d d439
00000180: bb10 0c39 365b 253a a0d6 4f39 7ab0 a339
00000190: b3ea 9039 aa94 6239 7b1b c739 a15f 9f39
000001a0: f6ad 7c39 4357 d439 211d ec39 0494 d139
000001b0: 43f6 9c38 39f6 b239 aeaf 0e3a 457d 9d39
000001c0: 91e9 983b 681d 1939 a67c 8539 0d80 003b
000001d0: 2735 9239 1ebe e639 3397 4939 e454 8139
000001e0: 6834 aa39 1a81 c339 e32c 8239 4192 5539
000001f0: a253 3739 bd8b d739 fad1 223a 374b 8d39
0.00036025952 0.00026448225 0.00014824218 0.00021788289 0.0001275486 0.00015502227 0.0001124915 0.00022582087
0.00013922935 0.00027154456 0.00044635235 0.00052762084 0.00034167746 0.00025298103 0.00022357114 0.0003520564
0.0002991579 0.0005881762 0.0001329461 0.00032841272 0.00067887217 0.0007151339 0.00020487836 0.00014046382
0.00026423176 0.00012722607 0.0001662629 0.00032606456 0.00023731838 0.00024845442 0.00012827085 0.0007806219
0.00019411877 0.00023291801 0.00010075889 0.0006225078 0.0002403739 0.00051326427 0.00043491097 0.00020322006
0.00020372335 0.00016871767 0.000106625026 0.00082924415 0.0001596073 0.00060387317 0.00027643857 0.00030047813
0.0010493838 0.0003118094 0.0008699006 0.00013688422 9.772202e-05 0.00086750736 0.00039193357 0.00022568261
0.00046747355 0.00020826963 0.0007579724 0.00042996492 0.00031661394 8.642089e-05 0.00011208431 0.000150562
0.0006564622 0.000183478 0.0001811641 0.00018640466 0.0004185911 0.0006771907 0.00017251029 0.00037581092
0.0001971329 0.0021983392 0.0003013965 0.00021200972 0.00010391308 0.00033473113 0.00054157525 0.00032326835
0.0013575667 0.0001678453 0.00032528423 0.00057690457 0.00012350362 0.00019754676 0.000109555105 0.00027091894
0.00015250046 0.00036070985 0.0003712541 0.00044952455 0.00026566337 0.00013903993 0.00013474825 0.00040517296
0.00013357673 0.0006307842 0.00019821012 0.00031221268 0.00027640685 0.00021608421 0.00037976712 0.00030398092
0.00024097398 0.00040500806 0.0004503513 0.00039973867 7.4845295e-05 0.00034134256 0.00054430484 0.00030038707
0.004666515 0.00014602172 0.00025460607 0.0019607574 0.00027886892 0.00044010667 0.0001922518 0.00024668046
0.00032463972 0.00037289486 0.00024828975 0.00020367747 0.00017483396 0.0004111211 0.00062110985 0.00026949655
