saved_models/saved_model3.1.pth (torch, 417306 bytes, 10 tensors)

layers.0.weight f4 [512, 52]
0.026518254 0.084476314 0.17198594 0.10266165 -0.13477136 -0.029587315 0.08139614 0.06035882
0.19241044 0.0037620473 -0.13065353 0.21740165 -0.299662 0.19491275 0.04210189 -0.6435584
-0.059498288 -0.6142824 -0.013036348 0.63179505 0.3788685 -0.0029206413 -0.15977125 0.4310718
-0.7954624 0.084741354 -0.09936045 -0.14568189 -0.25295284 0.28053954 0.30839163 -0.18222803
-0.2613002 -0.19690762 0.17287622 0.6594917 1.1410761 0.894464 0.06646155 -1.6286772
-0.47210371 0.3451274 -1.2713257 -0.12348119 -0.31992188 3.6708264 0.7097426 1.1799471
0.34249416 0.13846992 0.0096239615 0.028535206 -0.08715126 0.13772662 -0.12077823 -0.07838394
-0.073815055 -0.12595555 0.10078586 -0.03137027 -0.18705788 -0.059495796 0.007532 0.0016450795
0.034853607 0.13982293 -0.12593976 0.040565785 0.067126274 -0.09023507 -0.11957833 -0.096127644
0.0033544258 0.062247492 0.15850379 0.0630501 0.16082557 -0.1385811 0.14859763 -0.13276166
-0.09253289 0.6378062 0.18001564 0.49910796 0.050461113 -0.6675236 0.70079225 -0.4010919
-0.18011007 -0.12312929 0.33065596 0.27419147 0.53894174 -0.23486234 4.155474 0.21862286
6.401541 2.774428 -1.4608483 -0.6484437 1.3900642 -0.015919494 0.075658426 -0.04489971
-0.02870671 -0.1691738 0.074722454 -0.2081655 -0.1100104 -0.116568945 0.2186043 0.07401366
0.06340027 0.08875069 -0.017926209 -0.26185465 -0.005440327 0.03894359 -0.2139444 0.11182749
0.29921687 -0.54591984 -0.38015598 -0.22995913 -0.42528126 0.2253484 0.2570461 0.24895273
0.57848656 0.1005626 0.3208165 0.48854354 -0.36271968 0.032893606 0.38474903 -0.07889276
0.4863277 -0.034346778 0.06786237 0.62354404 0.48565358 -0.21881755 0.8492 0.22348998
-0.630066 0.84591144 -0.27748612 -0.6797445 -1.9764034 0.4479305 -0.24275152 0.31967244
0.56028605 0.13666855 -0.13574913 -0.0293738 0.011678289 0.20898584 -0.066424906 -0.07308073
0.15550153 0.22475272 -0.38112932 -0.25771472 0.010071411 0.21692152 0.390589 0.36027744
-0.30695117 0.26180908 -0.7501689 0.09453956 0.13846935 0.53708696 -0.031725436 -0.4072637
-0.43222845 -0.022074452 -0.044010747 -0.39778605 0.5521383 0.034686673 0.16900565 -0.10933709
0.40631846 -0.31832823 0.009590366 0.030615615 0.2960243 -0.0281159 -0.10664639 -0.22162516
-0.03000655 0.009120679 -0.07134231 0.06598534 0.10152673 0.31210768 -0.01673713 0.41600597
1.0989406 0.88562393 1.2882956 -1.3440814 1.208134 -0.056779906 -0.12220201 -0.07381222
0.104077145 -0.33866054 0.20743017 0.19205555 -0.1482773 -0.070695706 0.39071193 0.31332794
-0.046338793 -0.14206333 -0.2065907 -0.1783009 0.3013634 -0.47895226 -0.29040995 0.31960708
-0.03304158 -0.9726339 -0.09355952 0.530293 0.58136475 -0.037403334 0.12147264 0.69128436
-0.7318635 -0.26101628 -0.2131906 -0.03409648 -0.294154 0.043517254 -0.47892162 -0.05741136
-0.42025694 -0.10221259 -0.036816962 -0.056293722 -0.06879681 0.024950495 0.49666086 0.11024762
0.025793443 -0.36086425 0.10334178 0.1399608 -0.22270921 -0.3866135 0.76472914 -0.12380926
00000000: cf3c d93c eb01 ad3d 151d 303e 4540 d23d
00000010: 8101 0abe 1961 f2bc 05b3 a63d cf3a 773d
00000020: 3e07 453e ae8c 763b 0aca 05be 8a9e 5e3e
00000030: 4c6d 99be 3597 473e 0873 2c3d 3ec0 24bf
00000040: 7ab4 73bd 9d41 1dbf 6896 55bc 52bd 213f
00000050: 0dfb c13e 3b68 3fbb 139b 23be 71b5 dc3e
00000060: 6da3 4bbf e08c ad3d 7e7d cbbd a22d 15be
00000070: 0983 81be e1a2 8f3e 82e5 9d3e fc99 3abe
00000080: 24c9 85be 27a2 49be 7706 313e 73d4 283f
00000090: c80e 923f 98fb 643f fe1c 883d 7f78 d0bf
000000a0: 94b7 f1be 8ab4 b03e cdba a2bf b5e3 fcbd
000000b0: cdcc a3be d2ee 6a40 b1b1 353f 8208 973f
000000c0: 655b af3e 0fcb 0d3e d2ad 1d3c aac2 e93c
000000d0: 5c7c b2bd 3508 0d3e 945a f7bd c287 a0bd
000000e0: 592c 97bd 7efa 00be d168 ce3d 1d7e 00bd
000000f0: 1a8c 3fbe ddb1 73bd ffce f63b b59f d73a
00000100: a8c2 0e3d be2d 0f3e 5af6 00be 4f28 263d
00000110: 8079 893d 2acd b8bd 7ce5 f4bd 92de c4bd
00000120: edd5 5b3b 3af7 7e3d d14e 223e 6920 813d
00000130: 75af 243e 34e8 0dbe fa29 183e acf2 07be
00000140: e281 bdbd 4447 233f 0556 383e 148b ff3e
00000150: 50b0 4e3d d4e2 2abf 1f67 333f eb5b cdbe
00000160: c66e 38be 362b fcbd bd4b a93e d362 8c3e
00000170: 16f8 093f c17f 70be a5f9 8440 acde 5f3e
00000180: 6dd9 cc40 3a90 3140 14fd babf 6800 26bf
00000190: a0ed b13f 9969 82bc cef2 9a3d c2e8 37bd
000001a0: 562a ebbc e63b 2dbe 1608 993d 5629 55be
000001b0: 224d e1bd b3bb eebd ced9 5f3e 7994 973d
000001c0: 00d8 813d ecc2 b53d fcd9 92bc d011 86be
000001d0: c544 b2bb 5083 1f3d 3e14 5bbe d005 e53d
000001e0: f432 993e 67c1 0bbf cea3 c2be 687a 6bbe
000001f0: 77be d9be bbc1 663e 8c9b 833e 77ed 7e3e
00000200: b217 143f c4f3 cd3d 0f42 a43e 6122 fa3e
00000210: 65b6 b9be 72bb 063d d3fd c43e 8792 a1bd
00000220: f2ff f83e 35af 0cbd 6dfb 8a3d 95a0 1f3f
00000230: 96a7 f83e b511 60be 2c65 593f 8fda 643e
00000240: 014c 21bf a78d 583f a912 8ebe bc03 2ebf
00000250: c9fa fcbf 2657 e53e db93 78be 1bac a33e
00000260: e86e 0f3f d7f2 0b3e d201 0bbe 53a1 f0bc
00000270: 4b56 3f3c 6200 563e c809 88bd 5aab 95bd
00000280: cb3b 1f3e 9425 663e 6223 c3be 2ff3 83be
00000290: 8f02 253c ad20 5e3e 48fb c73e 4976 b83e
000002a0: b428 9dbe d70b 863e 120b 40bf f59d c13d
000002b0: e9ca 0d3e 887e 093f 88f2 01bd de84 d0be
000002c0: 0c4d ddbe 7bd5 b4bc 9d44 34bd 9daa cbbe
000002d0: f058 0d3f 9d13 0e3d d10f 2d3e 20ec dfbd
000002e0: f908 d03e ebfb a2be e920 1d3c 99cd fa3c
000002f0: 7f90 973e 5153 e6bc 6c69 dabd b5f1 62be
00000300: 4cd0 f5bc e76e 153c eb1b 92bd 5223 873d
00000310: 3fed cf3d 94cc 9f3e 4e1c 89bc bcfe d43e
00000320: 16aa 8c3f 40b8 623f dfe6 a43f dc0a acbf
00000330: 23a4 9a3f 0c92 68bd 0c45 fabd dc2a 97bd
00000340: 6626 d53d ea64 adbe 9368 543e 36aa 443e
00000350: 01d6 17be e9c8 90bd 650b c83e 856c a03e
00000360: bfcd 3dbd 0d79 11be 838c 53be 8394 36be
00000370: 4e4c 9a3e 3b39 f5be 9db0 94be 8aa3 a33e
00000380: 9c56 07bd 89fe 78bf 229c bfbd 48c1 073f
00000390: 52d4 143f 3d34 19bd a6c6 f83d 03f8 303f
000003a0: 685b 3bbf eda3 85be a34e 5abe c0a8 0bbd
000003b0: 5a9b 96be 263f 323d 3735 f5be 2d28 6bbd
000003c0: eb2b d7be d654 d1bd 62cd 16bd 3f94 66bd
000003d0: 58e5 8cbd fb64 cc3c 554a fe3e 81c9 e13d
000003e0: c54c d33c 33c3 b8be dba4 d33d e251 0f3e
000003f0: e20d 64be 34f2 c5be 4ac5 433f b68f fdbd

layers.0.bias f4 [512]
-1.076217 -1.0421191 -1.1134506 -2.1651452 -0.5524958 -1.4717904 -1.2991886 -1.4601874
-1.636428 -1.7605897 -0.6494972 -1.4165394 -1.6459117 -1.2229753 -1.2894773 -1.9909356
-1.3797821 -1.0683789 -1.1497948 -0.98253787 -1.6981965 -1.3721904 -0.84157753 -1.2167797
-1.2639446 -1.9597191 -1.4512349 -1.7510202 -1.7008431 -1.5664195 -1.8189609 -1.8749181
-2.6357036 -2.0023344 -1.2371346 -0.69723284 -1.6646417 -1.5556464 -1.3965516 -1.3521779
-1.5635111 -1.6035979 -1.391473 -1.1842649 -1.8417281 -1.3341373 -1.4251468 -1.9917789
-0.9997921 -1.3930123 -1.5639955 -1.7203507 -1.2745628 -1.5718279 -1.0809128 -1.3713709
-1.6373174 -1.7690372 -1.0894381 -1.543548 -1.6004014 -1.1786883 -1.8795792 -1.7415972
-0.16659239 -1.1209774 -1.6635247 -1.748039 -1.5382531 -1.8734455 -1.3841482 -1.1392026
-1.3772753 -0.48403552 -1.6221284 -0.8901601 -1.1029077 -1.1600815 -1.4986464 -0.67145854
-1.6389054 -1.1760322 -1.8934424 -2.4748867 -1.3837478 -1.5005451 -1.4240803 -1.2619628
-1.5247525 -1.4629507 -1.5637634 -0.23369236 -1.0735942 -1.4089402 -0.08818057 -1.6897966
-1.5084248 -1.4111108 -1.5029993 -1.1147522 -1.3729666 -1.7886738 -1.436196 -1.5100656
-1.215072 -1.2151089 -1.6825063 -1.0435334 -1.4612782 -1.6232166 -1.5245776 -0.7197361
-2.0031154 -1.6700257 -1.3405372 -1.122003 -1.8989705 -1.6604172 -1.9269248 -1.9414792
-1.6808857 -1.5687052 -1.5454558 -1.4630121 -1.6014624 -1.2305856 -2.2188954 -1.3620203
-1.5826869 -1.4284332 -1.4714164 -0.88016546 -1.3874224 -1.4707929 -1.8511188 -1.5025713
-0.975557 -1.6615828 -1.6022705 -1.5750186 -1.0234897 -1.7327505 -1.3594189 -1.1067945
-0.96556586 -0.895474 -1.711072 -0.43199873 -2.3419693 -1.6722852 -1.3518845 -2.2754505
-1.1046239 -1.7416608 -1.5420263 -1.3420593 -1.915688 -0.7554804 -0.87520856 -1.4657615
-1.6372457 -1.3206782 -1.4772394 -0.9359835 -1.4993359 -1.919338 -1.5123143 -2.3217258
-1.2030624 -1.0136274 -1.54988 -1.6024718 -1.5812563 -1.3715609 -1.4331897 -2.091345
-1.3643858 -1.7860166 -0.742005 -1.5465096 -1.4350836 -2.1306007 -1.5342677 -1.3832585
-1.4335021 -1.2939713 -1.7632549 -0.8132499 -0.7290929 -0.7680426 -1.0768093 -1.0440241
-1.3802375 -1.4136535 -1.2259008 -0.17545617 -1.7485837 -1.0844083 -1.5127201 -1.1987938
-1.9819897 -1.913173 -1.5273675 -1.4577683 -1.4074621 -1.9311506 -1.7569767 -2.4283195
-2.0819151 -1.2447714 -1.2281632 -1.8884243 -0.7990895 -1.574418 -1.4314578 -1.5543095
-1.4679772 -1.127362 -0.88913214 -1.2422048 -1.6156906 -1.287624 -1.3778503 -0.7228484
-1.7015343 -1.0554862 -1.1332965 -1.8868605 -1.4943305 -1.5420741 -1.2110045 -1.5372139
-1.0226665 -1.2735192 -1.320389 -1.5288932 -1.3839235 -1.6685433 -2.902854 -1.7056354
-1.2756157 -1.6324629 -1.1814691 -1.3929104 -1.1909082 -1.4114509 -1.536395 -1.3375504
-0.90424585 -1.7975167 -1.2203349 -1.6997699 -1.7700635 -0.9155074 -1.2891895 -1.5236962
00000000: 7bc1 89bf 2964 85bf 8d85 8ebf bd91 0ac0
00000010: 5d70 0dbf a163 bcbf d04b a6bf 6ce7 babf
00000020: 7976 d1bf 015b e1bf 7345 26bf 2a51 b5bf
00000030: 3cad d2bf 748a 9cbf 980d a5bf fad6 febf
00000040: b39c b0bf a4c0 88bf 7a2c 93bf 9a87 7bbf
00000050: 815e d9bf efa3 afbf a071 57bf 70bf 9bbf
00000060: f0c8 a1bf 13d8 fabf 11c2 b9bf 6e21 e0bf
00000070: 3ab5 d9bf 6f80 c8bf b6d3 e8bf 51fd efbf
00000080: 5eaf 28c0 3f26 00c0 6d5a 9ebf da7d 32bf
00000090: fb12 d5bf 6c1f c7bf 34c2 b2bf 2a14 adbf
000000a0: 2221 c8bf b242 cdbf ca1b b2bf fe95 97bf
000000b0: bfbd ebbf 03c5 aabf 366b b6bf 9cf2 febf
000000c0: 60f2 7fbf 3a4e b2bf 0131 c8bf 7434 dcbf
000000d0: e024 a3bf a831 c9bf 5a5b 8abf 1589 afbf
000000e0: 9e93 d1bf d06f e2bf b572 8bbf fb92 c5bf
000000f0: f4d9 ccbf 42df 96bf 0d96 f0bf a8ec debf
00000100: 3297 2abe 307c 8fbf 61ee d4bf bebf dfbf
00000110: 7ae5 c4bf 10cd efbf c52b b1bf 64d1 91bf
00000120: 8f4a b0bf 81d3 f7be e7a1 cfbf 88e1 63bf
00000130: 142c 8dbf 8d7d 94bf a5d3 bfbf b5e4 2bbf
00000140: a7c7 d1bf 3988 96bf 525c f2bf 8b64 1ec0
00000150: a61e b1bf dd11 c0bf 4348 b6bf ff87 a1bf
00000160: 172b c3bf f841 bbbf 6629 c8bf 0d4d 6fbe
00000170: 896b 89bf 2758 b4bf 0498 b4bd 414b d8bf
00000180: 1014 c1bf 479f b4bf 4862 c0bf 33b0 8ebf
00000190: 5fbd afbf 43f3 e4bf 45d5 b7bf d449 c1bf
000001a0: 7b87 9bbf b088 9bbf 5e5c d7bf 8192 85bf
000001b0: 2a0b bbbf 90c5 cfbf 5c25 c3bf a040 38bf
000001c0: 0b33 00c0 67c3 d5bf b996 abbf cb9d 8fbf
000001d0: 7711 f3bf 8d88 d4bf 79a5 f6bf 6482 f8bf
000001e0: 4327 d7bf 55cb c8bf 7fd1 c5bf fb43 bbbf
000001f0: b8fc ccbf d483 9dbf 6202 0ec0 ae56 aebf
00000200: 7c95 cabf e6d6 b6bf 5f57 bcbf 8652 61bf
00000210: 0f97 b1bf f142 bcbf 76f1 ecbf 4254 c0bf
00000220: 1bbe 79bf bfae d4bf 3317 cdbf 369a c9bf
00000230: b601 83bf c5ca ddbf 7001 aebf 71ab 8dbf
00000240: 532f 77bf c93d 65bf 6804 dbbf f02e ddbe
00000250: d3e2 15c0 710d d6bf 8d0a adbf fba0 11c0
00000260: 5164 8dbf beee debf 1e61 c5bf 99c8 abbf
00000270: 4435 f5bf 2a67 41bf ab0d 60bf 139e bbbf
00000280: 4491 d1bf fc0b a9bf 2e16 bdbf 9d9c 6fbf
00000290: 3dea bfbf deac f5bf 8493 c1bf 2897 14c0
000002a0: f3fd 99bf 8bbe 81bf 7862 c6bf cc1d cdbf
000002b0: 9b66 cabf 4f8f afbf c372 b7bf 99d8 05c0
000002c0: 32a4 aebf 319c e4bf 0af4 3dbf 07f4 c5bf
000002d0: d2b0 b7bf c35b 08c0 e262 c4bf 9d0e b1bf
000002e0: ff7c b7bf daa0 a5bf 56b2 e1bf 2531 50bf
000002f0: d5a5 3abf 719e 44bf e3d4 89bf 95a2 85bf
00000300: 9fab b0bf 99f2 b4bf 51ea 9cbf c8aa 33be
00000310: 97d1 dfbf e4cd 8abf d0a0 c1bf 1372 99bf
00000320: d7b1 fdbf dae2 f4bf c780 c3bf 2798 babf
00000330: b827 b4bf f12f f7bf 9de4 e0bf 9669 1bc0
00000340: 193e 05c0 ab54 9fbf 7434 9dbf e3b7 f1bf
00000350: 2191 4cbf 8786 c9bf 023a b7bf 9df3 c6bf
00000360: ade6 bbbf 664d 90bf 2a9e 63bf 9100 9fbf
00000370: f3ce cebf ddd0 a4bf 665d b0bf 980c 39bf
00000380: e0cb d9bf 2c1a 87bf dc0f 91bf a584 f1bf
00000390: 3946 bfbf af62 c5bf 3202 9bbf 6dc3 c4bf
000003a0: bce6 82bf ad02 a3bf 8202 a9bf c6b2 c3bf
000003b0: 6824 b1bf d492 d5bf 5cc8 39c0 4352 dabf
000003c0: 6047 a3bf 8bf4 d0bf 613a 97bf e34a b2bf
000003d0: ae6f 98bf 6caa b4bf 97a8 c4bf da34 abbf
000003e0: a87c 67bf 0715 e6bf ef33 9cbf 0f92 d9bf
000003f0: 7191 e2bf b15e 6abf 2904 a5bf 7a08 c3bf

layers.1.weight f4 [128, 512]
-0.08037503 0.004601199 0.1491815 -1.9073275 -0.5106353 -0.09458419 0.0778737 0.091669396
-1.4292167 0.13287506 0.01508382 0.130279 0.67736906 0.15220767 -2.5014827 0.09006986
0.8559212 0.12140108 0.29954696 -0.27117375 0.24125549 0.1455916 -0.021763172 -0.37644672
0.07402764 -2.5379364 0.15324739 0.37114525 -0.10383992 0.06049395 0.16300611 -0.15140018
0.15788049 -0.645422 -0.007883293 -0.033282064 -0.5107169 0.054933116 0.91655463 -0.03846051
-0.44948617 0.048066404 -0.097644225 -0.060302526 0.78727746 0.024965087 0.43922088 -1.206924
0.49923125 -0.16856773 -0.4897112 0.054305222 0.11442933 -0.0038326764 0.032203034 -3.0077136
0.09348321 0.13085896 -0.006018033 0.3725795 0.057892922 -0.5716616 0.023195509 0.46479583
0.07018296 -0.05275701 0.057827953 -0.19945225 0.19713381 -1.23964 -0.6462173 -0.0036910418
-0.08783829 0.00920381 -0.5323895 -0.031638213 0.09290409 -0.09068359 0.4283424 -1.657149
0.1996544 -0.040996708 -0.62677157 -3.5199997 0.77977216 -0.01977835 0.35321337 0.2266355
0.045533676 0.13277505 0.32708022 -0.03613669 -0.5648746 0.0033588097 -0.056517284 0.41608915
-1.3353782 -0.11277403 0.0635771 0.20098929 -0.05875525 -0.16440491 0.10692185 0.11984722
0.10181328 -0.20992576 -0.076107554 -0.049600787 0.10080486 0.2460626 -1.375518 0.002229314
0.06521047 -0.00029261116 -0.989711 0.2391945 0.8056044 0.2697897 0.0041821534 -2.668524
0.039021373 -0.1002354 0.11073282 -0.060352113 0.056920823 0.2605761 -2.0841267 0.1505783
0.09347049 0.08455781 0.7268505 -2.60121 0.038808584 0.02099245 -1.4613156 0.2565189
0.0088822115 -0.11712171 0.112751506 0.3548323 -0.05581311 -0.06863972 -0.09048013 0.013670171
0.012923218 0.037851337 0.51771456 -0.11799544 0.076762915 0.58843285 -0.0052219843 -4.183291
-0.017081866 0.22643013 0.06742967 -0.003669416 -0.24515168 0.010675464 0.01127142 0.0945576
0.22697283 -1.2320653 -0.30474138 -0.06350623 -0.15139465 0.24843122 0.17208622 -4.5788608
0.0072842943 -0.73168534 -0.052169625 0.15670466 -0.008736365 0.23928642 0.24427566 -1.0906434
-0.3659632 0.051711287 -0.13339907 0.040755678 0.18417308 0.7150982 0.33759198 0.0109551
0.11468485 0.41662636 0.13626732 -0.21499951 -0.78338987 -0.033734426 0.032248314 -0.016251564
0.24606611 0.03210843 -0.23118313 0.027584016 -0.2594096 0.49687636 0.028132977 -0.012012289
0.20245542 -0.3684621 -0.024319097 0.10233713 -0.35400876 -0.88474405 -0.35598943 -4.4091263
-0.5722 0.26891014 0.62809926 -0.06883863 0.024727069 0.15444034 -0.055837266 -0.3081942
-0.7246076 -0.03243299 -0.32953095 -1.1083891 -0.4533653 0.0069212737 -0.26114035 0.023132678
0.037674453 0.26989055 0.06226364 -0.27163902 -0.110844664 -3.1994379 -0.0062028687 -0.7847552
-0.9039526 -0.43475518 -0.67119646 0.020777179 -0.667637 -0.28048995 -4.808393 0.12945703
0.0007952694 0.09699776 0.0021526224 -0.8847032 0.06397009 -0.05075359 -0.046341617 0.12715523
-0.39501068 -0.440207 -0.042922504 -4.088129 0.03958183 -0.002283643 0.06336798 -0.715278
00000000: aa9b a4bd a8c5 963b 09c3 183e 4f23 f4bf
00000010: ffb8 02bf 5bb5 c1bd 3f7c 9f3d 2abd bb3d
00000020: 93f0 b6bf 6610 083e 2022 773c dc67 053e
00000030: 0f68 2d3f 54dc 1b3e 4b18 20c0 8c76 b83d
00000040: a71d 5b3f 21a1 f83d 385e 993e 49d7 8abe
00000050: ae0b 773e f715 153e ae48 b2bc a0bd c0be
00000060: ce9b 973d 8d6d 22c0 e2ec 1c3e c006 be3e
00000070: 06aa d4bd 81c8 773d 13eb 263e a608 1bbe
00000080: 6cab 213e 603a 25bf ed28 01bc c652 08bd
00000090: 58be 02bf 8c01 613d 53a3 6a3f c588 1dbd
000000a0: 0d23 e6be 47e1 443d b2f9 c7bd c8ff 76bd
000000b0: 048b 493f 9583 cc3c 8fe1 e03e 7c7c 9abf
000000c0: 3d9b ff3e 059d 2cbe 6dbb fabe 276f 5e3d
000000d0: ed59 ea3d a42d 7bbb 54e7 033d 617e 40c0
000000e0: 2074 bf3d e4ff 053e eb32 c5bb bdc2 be3e
000000f0: 2121 6d3d 6a58 12bf 8204 be3c b8f9 ed3e
00000100: 15bc 8f3d bc17 58bd 01dd 6c3d 363d 4cbe
00000110: 72dd 493e 86ac 9ebf 7f6e 25bf 68e5 71bb
00000120: 90e4 b3bd 94cb 163c ae4a 08bf 1297 01bd
00000130: 8044 be3d 51b8 b9bd b24f db3e 751d d4bf
00000140: 3472 4c3e 2aec 27bd 1a74 20bf ad47 61c0
00000150: 269f 473f 3506 a2bc 62d8 b43e 2313 683e
00000160: 8581 3a3d 2ff6 073e 0f77 a73e 1104 14bd
00000170: 9f9b 10bf 7a1f 5c3b ab7e 67bd a309 d53e
00000180: aced aabf 12f6 e6bd b634 823d 23d0 4d3e
00000190: 58a9 70bd c359 28be d8f9 da3d 7672 f53d
000001a0: 7b83 d03d c7f6 56be 47de 9bbd 322a 4bbd
000001b0: c772 ce3d d6f7 7b3e f910 b0bf af19 123b
000001c0: 118d 853d 9b69 99b9 b35d 7dbf 67ef 743e
000001d0: 173c 4e3f e021 8a3e 720a 893b 19c9 2ac0
000001e0: e0d4 1f3d 3848 cdbd e4c7 e23d c733 77bd
000001f0: cf25 693d 3b6a 853e 5562 05c0 3331 1a3e
00000200: 756d bf3d a52c ad3d e012 3a3f 3a7a 26c0
00000210: c0f5 1e3d 5cf8 ab3c 640c bbbf 7256 833e
00000220: b286 113c 82dd efbd 43ea e63d 94ac b53e
00000230: 4a9c 64bd fb92 8cbd a54d b9bd daf8 5f3c
00000240: e8bb 533c 010a 1b3d f188 043f 98a7 f1bd
00000250: e035 9d3d 89a3 163f 2e1d abbb 85dd 85c0
00000260: 45ef 8bbc 4ddd 673e 9118 8a3d 967a 70bb
00000270: 0b09 7bbe 24e8 2e3c c3ab 383c 6aa7 c13d
00000280: 916b 683e 51b4 9dbf 1007 9cbe 8e0f 82bd
00000290: 3307 1bbe c164 7e3e 5f37 303e 0786 92c0
000002a0: 17b1 ee3b bb4f 3bbf d1af 55bd 3077 203e
000002b0: f822 0fbc 8007 753e 6623 7a3e 349a 8bbf
000002c0: 875f bbbe 37cf 533d c499 08be 6def 263d
000002d0: de97 3c3e ad10 373f dbd8 ac3e 057d 333c
000002e0: e4df ea3d 0d50 d53e a989 0b3e d528 5cbe
000002f0: 3d8c 48bf 1c2d 0abd cf16 043d 0022 85bc
00000300: c1f8 7b3e 2184 033d 45bb 6cbe e0f7 e13c
00000310: 56d1 84be 9466 fe3e 2177 e63c 31cf 44bc
00000320: 7950 4f3e 10a7 bcbe d838 c7bc 2196 d13d
00000330: a340 b5be 967e 62bf 3f44 b6be 9017 8dc0
00000340: b37b 12bf 97ae 893e 1dcb 203f 45fb 8cbd
00000350: 6c90 ca3c 9c25 1e3e 9eb5 64bd a1cb 9dbe
00000360: e27f 39bf 74d8 04bd 48b8 a8be b2df 8dbf
00000370: 7f1f e8be dacb e23b 30b4 85be be80 bd3c
00000380: 8750 1a3d 182f 8a3e 2908 7f3d 4514 8bbe
00000390: 8702 e3bd 97c3 4cc0 6f41 cbbb b7e5 48bf
000003a0: 7069 67bf 3b98 debe 88d3 2bbf e734 aa3c
000003b0: 42ea 2abf 619c 8fbe 5bde 99c0 6290 043e
000003c0: a079 503a c3a6 c63d 0313 0d3b e97b 62bf
000003d0: c002 833d ffe2 4fbd b5d0 3dbd fb34 023e
000003e0: d73e cabe d062 e1be 82cf 2fbd f4d1 82c0
000003f0: 8f20 223d 2ca9 15bb 12c7 813d 761c 37bf

layers.1.bias f4 [128]
-0.14087012 0.13920799 0.3925482 -2.8805342 0.020536002 -2.4315524 0.21456118 0.28195727
-2.1226614 1.1975477 -0.0072548576 -0.065003276 -0.16324617 0.26263362 0.64641774 -0.28700635
0.14420125 -0.18847078 -0.73509717 -2.7220533 -0.2266008 0.83437234 -1.3478749 0.3802717
0.054116488 0.6056371 0.6290852 0.4575031 1.0267944 0.4619134 0.17721245 0.103041835
0.35134757 -0.027041165 0.19663434 -1.0286186 -0.89456326 -0.34358758 0.91904503 0.34666812
-1.6043571 -0.07152738 0.5107402 -0.03148553 0.27599126 -0.2662099 -2.187802 0.3652324
-1.3374664 -0.40138662 -0.16278146 -1.8047069 -1.632878 0.20327659 -1.1725047 -0.82610285
0.523901 -0.5773192 -0.1269433 -1.9692854 0.21855155 -1.0906582 0.40187728 0.18901102
1.0028102 1.1216271 -0.05933841 -0.022312054 0.4866374 -0.9065511 -1.6882358 0.4191117
-0.100839436 -0.9124502 -0.2684697 -0.34953076 0.6883435 -0.5362056 0.6982044 0.44348952
-0.95011413 -1.4938453 -2.1234322 -0.464792 -0.30278763 -0.20058747 -0.15853901 0.5556317
0.41502896 -1.8603352 0.31632146 0.2777147 -1.3542312 0.3062137 0.04600481 -0.19617017
-1.6259933 -0.088830344 0.101001345 -3.2578661 -0.07844212 -0.29819536 0.31655943 -0.4918607
0.7514735 0.45729607 -1.4333341 0.19087397 -1.2639518 0.24980216 -0.10910423 -0.5085995
0.25112176 0.44837043 -0.8368127 -1.6295033 -2.8684626 -1.2725494 0.4213679 -2.7985241
-0.66889757 0.7325838 0.6198506 -0.30620995 0.2490281 0.032026064 -3.9269936 0.34834695
00000000: 4240 10be 8a8c 0e3e 14fc c83e ac5a 38c0
00000010: 1e3b a83c 8e9e 1bc0 edb5 5b3e b45c 903e
00000020: afd9 07c0 3e49 993f 28ba edbb 7020 85bd
00000030: 012a 27be ea77 863e a27b 253f 7ff2 92be
00000040: 7ea9 133e 7cfe 40be 542f 3cbf 1f36 2ec0
00000050: 0a0a 68be 6d99 553f 2a87 acbf f9b2 c23e
00000060: 40a9 5d3d 080b 1b3f ba0b 213f d93d ea3e
00000070: 006e 833f ea7f ec3e 2e77 353e 9907 d33d
00000080: d4e3 b33e 6f85 ddbc 835a 493e c6a9 83bf
00000090: 1902 65bf b6ea afbe 8946 6b3f 7c7e b13e
000000a0: 935b cdbf f27c 92bd dfbf 023f f9f6 00bd
000000b0: ba4e 8d3e aa4c 88be f304 0cc0 beff ba3e
000000c0: 1932 abbf 8c82 cdbe 2fb0 26be a300 e7bf
000000d0: 2502 d1bf bd27 503e a214 96bf 7a7b 53bf
000000e0: 601e 063f 31cb 13bf 6dfd 01be 8b11 fcbf
000000f0: facb 5f3e b09a 8bbf dcc2 cd3e 1b8c 413e
00000100: 165c 803f 7a91 8f3f d50c 73bd c5c7 b6bc
00000110: 8a28 f93e bc13 68bf 1c18 d8bf cf95 d63e
00000120: e884 cebd 5696 69bf dc74 89be b2f5 b2be
00000130: 4837 303f c544 09bf 86bd 323f 0f11 e33e
00000140: ae3a 73bf 5336 bfbf 50e6 07c0 38f9 edbe
00000150: fb06 9bbe cd66 4dbe 0d58 22be e13d 0e3f
00000160: ad7e d43e 771f eebf e3f4 a13e 9f30 8e3e
00000170: 7357 adbf 0bc8 9c3e 8a6f 3c3d d5e0 48be
00000180: 8c20 d0bf afec b5bd cbd9 ce3d e180 50c0
00000190: 43a6 a0bd 10ad 98be 1414 a23e 2ad5 fbbe
000001a0: 9160 403f b622 ea3e 7e77 b7bf 7774 433e
000001b0: 2cc9 a1bf 23cc 7f3e 0a72 dfbd 9433 02bf
000001c0: 0893 803e cf90 e53e 5b39 56bf 9093 d0bf
000001d0: e494 37c0 e6e2 a2bf 89bd d73e 051b 33c0
000001e0: df3c 2bbf 9d8a 3b3f 87ae 1e3f 8dc7 9cbe
000001f0: 3901 7f3e c32d 033d dd53 7bc0 885a b23e

layers.2.weight f4 [64, 128]
0.17810546 -0.9949223 -0.7835785 -0.6815152 0.1792064 -0.021968959 -1.2567275 -1.2164215
-0.025787927 -0.017812386 -0.09579145 -0.09964423 0.020717992 -1.8255126 -0.0034870477 -0.3831717
0.15664326 -0.17638394 -0.81284994 0.08064182 0.15665998 0.08360246 0.013570363 -1.6042291
-1.1536245 -1.6533012 -0.25069156 0.028517349 -0.024044303 -1.8100185 0.060007595 -0.3657479
0.24712196 0.27436438 0.08790621 0.085121736 0.09387804 -0.9758308 -2.311907 -0.07622944
0.2718931 -0.48583055 -0.8337912 0.12733233 -0.85943246 0.08203499 -0.0012416753 -3.1267476
0.061626848 0.041166298 -1.0738715 -0.04557997 0.068201855 0.22488542 0.041483197 0.022337051
-1.7027018 0.08277153 0.0671974 -1.6994509 -0.99651444 0.081056334 -0.1822075 0.00063788396
-0.6275551 -1.6265253 -0.057861477 -0.5198028 -2.827417 -0.312939 -1.0438083 -1.8677778
0.066523224 0.031018002 0.08557326 -0.3210572 -1.4002919 -0.2848002 -1.3327043 -0.86772454
0.0015637844 0.042016927 -0.091381766 0.05599442 0.110613905 0.30244035 0.04162082 0.03819223
0.047004543 0.35844406 -2.5951548 0.05582352 0.10820162 0.053710673 0.013273844 -0.4110743
-1.0166785 0.049013812 -0.34690627 0.07529311 -0.019550538 -0.45743084 0.067265384 -0.06782715
0.07567581 0.05603362 0.02656163 0.1226992 0.018698338 -0.3603748 0.035152625 0.21303238
0.10808108 0.18153954 0.19846687 0.15602657 0.0031376483 0.06378396 0.09522172 -0.029937435
-0.3965835 -1.7159727 -0.94401664 0.07481597 0.06719336 0.31490046 0.2701811 -2.620586
0.3515691 -0.15707679 -0.05031079 0.048055205 0.139587 -0.018248023 -0.28796595 -0.13130133
-0.15086266 -0.30532187 -0.85563046 0.01280353 0.033727095 -2.716927 0.16728863 -0.05718917
0.033200018 0.03787359 -0.10002318 -0.43173155 0.65447503 0.47957852 -0.0143736405 -0.01372188
-0.18476456 -2.5237315 -1.7144548 0.63839066 -0.41327432 -0.4194605 0.06688289 -2.2826068
0.044511035 0.101293996 0.07657966 0.059664868 -0.0068207798 -0.053198423 -0.1402214 -0.7455751
0.036734723 -0.17862798 0.06908709 0.5211619 -0.044528723 -0.042372312 -0.052871697 -2.963071
-0.01554312 0.023964213 -1.4887356 -0.18746354 0.0092949895 -0.04669463 -0.011121583 0.25400895
-2.097086 0.2051633 -0.12573995 -0.42468846 -1.2972 0.27057952 -0.02001793 0.18386912
-0.022594867 0.17447095 1.1487559 -0.46714392 -2.7729108 -0.10095407 -0.1495864 -0.6109013
-0.012679791 0.4284498 0.41844866 -0.0699116 -0.038469072 -0.43949768 -1.1122248 0.00052575825
0.017101469 -0.007250845 -0.10042512 0.02118143 0.080400676 -0.1497461 0.9815151 -0.030499613
0.0141742015 1.1210601 -2.7864704 0.045677666 0.15573052 0.015280202 0.18050483 -0.048477277
-0.4939953 0.17862026 -1.9191477 0.05199254 0.2573208 -0.0416436 -0.0040344624 -0.07537511
0.9408101 0.115755 -0.01112939 0.4328568 -0.23200941 -0.009158917 0.4824658 0.032552652
0.01378104 0.041398227 0.3353387 0.06715978 -0.6044076 -0.007604705 0.077192664 -0.20459767
-0.07873521 0.058857717 0.029876621 0.0950614 0.12655331 0.76491535 -2.6461804 -0.910279
00000000: 4761 363e 3ab3 7ebf 9a98 48bf c877 2ebf
00000010: e281 373e 3ff8 b3bc 72dc a0bf b3b3 9bbf
00000020: 3441 d3bc 48eb 91bc 4f2e c4bd 4612 ccbd
00000030: c7b8 a93c 66aa e9bf f486 64bb 152f c4be
00000040: 1767 203e fe9d 34be ef16 50bf 8a27 a53d
00000050: 796b 203e c437 ab3d 3a56 5e3c 6157 cdbf
00000060: f8a9 93bf 609f d3bf a55a 80be 379d e93c
00000070: 8ff8 c4bc b0ae e7bf 86ca 753d 4f43 bbbe
00000080: 8a0d 7d3e 7d79 8c3e 2c08 b43d 4e54 ae3d
00000090: 2143 c03d 0cd0 79bf 49f6 13c0 2e1e 9cbd
000000a0: 9335 8b3e c8be f8be 5773 55bf 6863 023e
000000b0: c403 5cbf f601 a83d b6bf a2ba a21c 48c0
000000c0: 6f6c 7c3d fe9d 283d 9f74 89bf 10b2 3abd
000000d0: 6aad 8b3d 5d48 663e 49ea 293d 31fc b63c
000000e0: 22f2 d9bf 1f84 a93d ca9e 893d 9b87 d9bf
000000f0: 921b 7fbf dd00 a63d 9a94 3abe ab37 273a
00000100: 73a7 20bf fb31 d0bf 2800 6dbd cc11 05bf
00000110: 66f4 34c0 8a39 a0be 839b 85bf 5813 efbf
00000120: 543d 883d 7719 fe3c 0941 af3d 9c61 a4be
00000130: c43c b3bf 55d1 91be 0e96 aabf 3223 5ebf
00000140: e6f7 cc3a f119 2c3d 5d26 bbbd 685a 653d
00000150: 8b89 e23d 76d9 9a3e 987a 2a3d 756f 1c3d
00000160: d687 403d fb85 b73e 0417 26c0 34a7 643d
00000170: d098 dd3d b9ff 5b3d 897a 593c 5578 d2be
00000180: 8522 82bf b5c2 483d b39d b1be 4633 9a3d
00000190: 7328 a0bc 6034 eabe 6fc2 893d f6e8 8abd
000001a0: ebfb 9a3d 8283 653d c797 d93c b849 fb3d
000001b0: 422d 993c 0c83 b8be 33fc 0f3d 2925 5a3e
000001c0: 9d59 dd3d 80e5 393e e63a 4b3e 6ec5 1f3e
000001d0: 01a1 4d3b 2aa1 823d 9b03 c33d 5a3f f5bc
000001e0: fe0c cbbe fea4 dbbf 13ab 71bf 1e39 993d
000001f0: ac9c 893d a23a a13e 2d55 8a3e aeb7 27c0
00000200: dd00 b43e bdd8 20be b012 4ebd 89d5 443d
00000210: e5ef 0e3e e17c 95bc 4670 93be db73 06be
00000220: be7b 1abe 2653 9cbe 990a 5bbf e6c5 513c
00000230: 6c25 0a3d 22e2 2dc0 b64d 2b3e 313f 6abd
00000240: befc 073d 5621 1b3d f4d8 ccbd eb0b ddbe
00000250: ad8b 273f 518b f53e 6b7f 6bbc bcd1 60bc
00000260: ec32 3dbe d184 21c0 4173 dbbf 926d 233f
00000270: b198 d3be 87c3 d6be e6f9 883d 3b16 12c0
00000280: 3451 363d 3a73 cf3d ccd5 9c3d 2663 743d
00000290: d980 dfbb 97e6 59bd 3396 0fbe 02de 3ebf
000002a0: 2677 163d 41ea 36be 887d 8d3d de6a 053f
000002b0: c063 36bd 978e 2dbd fe8f 58bd f5a2 3dc0
000002c0: 92a8 7ebc 9950 c43c e38e bebf 71f6 3fbe
000002d0: 034a 183c de42 3fbd 4d37 36bc 760d 823e
000002e0: a836 06c0 5416 523e f9c1 00be c470 d9be
000002f0: a60a a6bf 6689 8a3e a4fc a3bc 3048 3c3e
00000300: df18 b9bc 83a8 323e 6f0a 933f 7d2d efbe
00000310: 5f77 31c0 02c1 cebd 2d2d 19be 0764 1cbf
00000320: e6be 4fbc c65d db3e e73e d63e d02d 8fbd
00000330: bf91 1dbd d705 e1be 625d 8ebf 0ad3 093a
00000340: 6118 8c3c 7f98 edbb afab cdbd ae84 ad3c
00000350: 1ca9 a43d 0b57 19be 9344 7b3f 53da f9bc
00000360: e93a 683c e67e 8f3f 8855 32c0 8118 3b3d
00000370: d277 1f3e d059 7a3c 42d6 383e 1c90 46bd
00000380: f4ec fcbe 3be8 363e a2a6 f5bf 21f6 543d
00000390: 8dbf 833e 7b92 2abd 8633 84bb 445e 9abd
000003a0: eed8 703f f510 ed3d 0c58 36bc 689f dd3e
000003b0: e093 6dbe 480f 16bc c205 f73e ee55 053d
000003c0: dfc9 613c 3091 293d 84b1 ab3e 118b 893d
000003d0: 75ba 1abf e430 f9bb 3017 9e3d 0d82 51be
000003e0: ed3f a1bd ca14 713d d1bf f43c 8daf c23d
000003f0: 3197 013e 7ed1 433f 055b 29c0 0b08 69bf

layers.2.bias f4 [64]
0.020033926 0.089072526 0.053815443 -0.29432583 0.023091255 -0.3348569 0.07344535 -0.10980697
0.030631354 0.01856805 0.008826164 -0.78227866 0.0074736583 -0.1684882 0.04931459 0.059908364
0.035710968 -0.09330694 0.070410214 0.22004746 0.01245905 -0.50308514 0.044450328 0.037290037
-0.65525204 -0.57849663 0.035836663 0.10409248 0.018955048 0.05759066 -0.4682546 -0.060050044
0.079692334 0.1242568 0.1689761 0.07386121 0.18740188 0.052620802 0.10142592 -0.44696656
-0.6949998 0.046621814 0.06990979 0.013646756 0.022841485 0.018940117 -0.1520584 0.018307643
0.058231313 0.14627208 -0.041837614 -0.124688804 0.039202377 -0.5486244 -0.562349 0.0955619
-0.066262476 0.03777871 -0.035597056 0.011451544 -0.13762881 0.06243349 0.027119506 0.07178357
00000000: 301e a43c a86b b63d 956d 5c3d e0b1 96be
00000010: df29 bd3c 5d72 abbe 846a 963d 7ae2 e0bd
00000020: 9bee fa3c 061c 983c 9d9b 103c 6a43 48bf
00000030: 97e5 f43b 2c88 2cbe 18fe 493d 7962 753d
00000040: aa45 123d b517 bfbd 3b33 903d 1f54 613e
00000050: 0b21 4c3c 30ca 00bf 8c11 363d 70bd 183d
00000060: 99be 27bf 5b18 14bf 77c9 123d 702e d53d
00000070: 9e47 9b3c 2fe4 6b3d 11bf efbe 09f7 75bd
00000080: bc35 a33d 597a fe3d 1208 2d3e 8c44 973d
00000090: 47e6 3f3e e988 573d 65b8 cf3d cdd8 e4be
000000a0: 82eb 31bf 84f6 3e3d dd2c 8f3d a596 5f3c
000000b0: 111e bb3c 4e28 9b3c 32b5 1bbe e9f9 953c
000000c0: f583 6e3d 59c8 153e eb5d 2bbd d85c ffbd
000000d0: ac92 203d a672 0cbf 1bf6 0fbf f5b5 c33d
000000e0: 9fb4 87bd d9bd 1a3d 38ce 11bd 429f 3b3c
000000f0: 91ee 0cbe 42ba 7f3d ba29 de3c 4403 933d

layers.3.weight f4 [32, 64]
0.020756993 -0.6758611 0.031418227 0.021789942 -0.15551043 -1.7884344 0.0008429193 0.100694366
-0.9421533 0.035367217 -0.46113372 0.0460532 -0.81988704 0.07147198 -0.013310744 0.025970105
0.026936742 -1.9994849 -0.6673169 -0.21442164 -0.15680298 0.04093861 0.01331825 -0.67505664
-0.38495982 0.019681834 -0.68033934 0.008812224 0.0125731025 0.11150447 0.1069178 0.013605997
-0.42801183 -0.04020855 -0.346086 0.11201508 -0.18717493 -0.56231093 0.024739612 0.014579477
0.020088825 0.009433428 0.012869572 0.025290832 -0.05329649 0.028585784 0.020855848 0.009851846
0.026622836 -0.025367375 -0.31693953 0.0855558 0.21778591 0.13451244 -1.6568885 0.12658729
0.11175078 0.015902175 -0.7340108 -1.5607452 -1.5314437 0.07106887 0.023630623 0.009653327
-0.026929054 -0.20366368 -0.12161374 -0.07294201 -0.2853083 -0.44713396 -0.056038655 0.020169722
-0.35480288 0.01790123 -0.6325013 -0.18227386 -0.8008876 -0.1199736 -0.11393219 0.0010604106
0.012463239 -1.1339927 -0.022026768 -0.10633301 -0.31264853 -0.17783391 -0.027973697 -0.24715196
-0.60551924 -0.1720306 -0.17490356 -0.024965692 -0.02175581 0.024452688 -0.17537947 -0.05243477
-0.31005824 -0.13509399 -0.13132693 0.023346305 -0.15958619 -0.17395893 0.010160886 -0.10011473
-0.16945629 0.039701387 0.07110271 -0.0071679126 -0.2275944 0.031091629 -0.042761922 -0.047314357
0.038263317 -0.08512485 -0.4679676 0.019010782 -0.0015345063 -0.28534445 -1.4622843 0.016042355
0.022054706 0.05553537 -0.58960396 -0.54644585 -1.331987 0.16759025 -0.04003429 -0.021382706
0.11269867 0.0060303803 -0.012045975 -0.071806535 0.096561775 -0.0035539027 -0.0025568013 0.002551545
0.0020654623 0.098470375 0.12309023 -0.23538727 0.20611472 -0.104573496 0.085703894 0.06323599
0.09311231 0.10690683 0.0063781086 0.0033017797 0.10263301 -0.1548755 -0.0072918995 -0.0027339854
0.0006746067 -0.17371535 -0.009432474 -0.0049095573 -0.0099147055 0.0005219615 -0.2544265 -0.032638304
0.003718987 0.043689936 -6.993479e-05 0.0018936045 0.0012791709 0.0007113964 0.05981026 -0.12454371
-0.184685 0.0039032726 0.030424425 0.08633012 0.072899304 0.054269206 -0.027023816 -0.025975531
0.07739164 0.025103413 0.1318942 0.0018211305 -0.003815806 -0.98144776 0.053146426 0.0021168918
0.0028201814 0.07696942 0.16960207 0.00789003 0.036048763 0.0035932693 -0.021123463 -0.0030933635
0.009230778 -0.024197055 -0.20605361 -2.3845537 0.0044630477 -0.08427826 -0.2294857 -0.47693926
-0.04355421 0.012628525 0.00486122 -1.6085403 -0.0013818981 -2.5232944 0.0061951037 0.007517554
0.009878043 -0.07371707 -0.054375127 -0.020456977 0.006353052 -0.89998174 -0.582874 -0.06912847
-0.21375531 -1.8103951 -0.07850478 -0.506826 -0.49981618 -0.37814093 -1.5559019 -1.144962
-0.008363936 -0.00061960233 -0.021616759 -0.41018212 -0.0043057054 -0.053178992 0.005401328 -1.181303
-2.0052366 0.25507474 0.12798567 0.01367186 0.0066041565 0.060943075 -1.8407619 -1.3740283
-0.0032527354 0.0030789946 0.0029420578 -0.441577 -0.9210199 -1.2692606 -0.2045782 -0.5130457
-0.4153277 -0.00412993 0.0007436088 -0.034048386 -0.095494315 0.04179228 -1.1694059 -0.4718306
00000000: 920a aa3c 3c05 2dbf 66b0 003d d280 b23c
00000010: 203e 1fbe 6beb e4bf 5bf7 5c3a d938 ce3d
00000020: f530 71bf 37dd 103d b819 ecbe 48a2 3c3d
00000030: 1ee4 51bf e75f 923d 4f15 5abc 42bf d43c
00000040: 71aa dc3c 1fef ffbf 48d5 2abf 5991 5bbe
00000050: f690 20be 3eaf 273d ca34 5a3c 83d0 2cbf
00000060: 7419 c5be cc3b a13c b82a 2ebf 2561 103c
00000070: 6aff 4d3c 755c e43d b8f7 da3d b0eb 5e3c
00000080: 5e24 dbbe b8b1 24bd 2f32 b1be 2a68 e53d
00000090: c9aa 3fbe 9cf3 0fbf baaa ca3c c2de 6e3c
000000a0: 5291 a43c aa8e 1a3c e6da 523c b82e cf3c
000000b0: 6c4d 5abd bc2c ea3c e2d9 aa3c a369 213c
000000c0: 2218 da3c 3ecf cfbc e645 a2be e137 af3d
000000d0: 4503 5f3e a1bd 093e ec14 d4bf 19a0 013e
000000e0: 98dd e43d 4745 823c 22e8 3bbf 80c6 c7bf
000000f0: 5906 c4bf 8e8c 913d 0295 c13c fd28 1e3c
00000100: 529a dcbc 368d 50be a010 f9bd 9f62 95bd
00000110: ee13 92be beee e4be ca88 65bd f93a a53c
00000120: b9a8 b5be 9aa5 923c 9beb 21bf 00a6 3abe
00000130: f806 4dbf b8b4 f5bd 4855 e9bd 7afd 8a3a
00000140: 9d32 4c3c ac26 91bf 7b71 b4bc 1fc5 d9bd
00000150: 7813 a0be 181a 36be 1829 e5bc 6715 7dbe
00000160: 4f03 1bbf ca28 30be eb19 33be da84 ccbc
00000170: 3e39 b2bc 0151 c83c ad96 33be d7c5 56bd
00000180: f4bf 9ebe 1456 0abe 917a 06be c040 bf3c
00000190: 906a 23be 4a22 32be d879 263c f408 cdbd
000001a0: f385 2dbe ec9d 223d 4c9e 913d cfe0 eabb
000001b0: 820e 69be dfb3 fe3c 2027 2fbd b3cc 41bd
000001c0: ffb9 1c3d f055 aebd 7399 efbe 80bc 9b3c
000001d0: 7d21 c9ba ab18 92be 222c bbbf 426b 833c
000001e0: 12ac b43c 0e79 633d 49f0 16bf e0e3 0bbf
000001f0: 8d7e aabf c79c 2b3e fffa 23bd c92a afbc
00000200: 8fce e63d 7f9a c53b 7b5c 45bc 4e0f 93bd
00000210: 2ec2 c53d 98e8 68bb 0290 27bb d237 273b
00000220: b55c 073b d6aa c93d bb16 fc3d 5c09 71be
00000230: bd0f 533e a12a d6bd 8685 af3d df81 813d
00000240: abb1 be3d f8f1 da3d 74ff d03b ac62 583b
00000250: 4131 d23d af97 1ebe e3f0 eebb aa2c 33bb
00000260: 17d8 303a 70e2 31be aa8a 1abc 5ae0 a0bb
00000270: 4a71 22bc 3ed4 083a 3144 82be beaf 05bd
00000280: 40ba 733b 38f4 323d f4a9 92b8 d332 f83a
00000290: daa9 a73a 017d 3a3a 9afb 743d c610 ffbd
000002a0: 111e 3dbe 0cce 7f3b a53c f93c d9cd b03d
000002b0: 3b4c 953d 6349 5e3d 0d61 ddbc a3ca d4bc
000002c0: 827f 9e3d aca5 cd3c 460f 073e 00b3 ee3a
000002d0: 9a12 7abb 2940 7bbf 11b0 593d 8dbb 0a3b
000002e0: cbd2 383b 25a2 9d3d 2aac 2d3e 2f45 013c
000002f0: dea7 133d 0e7d 6b3b 1d0b adbc 07ba 4abb
00000300: b03c 173c e738 c6bc b8ff 52be 879c 18c0
00000310: c23e 923b 159a acbd 4dfe 6abe 6231 f4be
00000320: e665 32bd dfe7 4e3c de4a 9f3b a6e4 cdbf
00000330: ce20 b5ba a87d 21c0 4c00 cb3b d055 f63b
00000340: 84d7 213c faf8 96bd 74b8 5ebd 6495 a7bc
00000350: 432d d03b 3465 66bf 3b37 15bf 3a93 8dbd
00000360: ace2 5abe 07bb e7bf 1dc7 a0bd 59bf 01bf
00000370: e8e7 ffbe b09b c1be cb27 c7bf 1d8e 92bf
00000380: e408 09bc cf6c 22ba a115 b1bc 6403 d2be
00000390: e016 8dbb 37d2 59bd a0fd b03b f034 97bf
000003a0: cc55 00c0 2899 823e ad0e 033e f0ff 5f3c
000003b0: ae67 d83b 729f 793d 169e ebbf 29e0 afbf
000003c0: d82b 55bb f5c8 493b 8acf 403b 6116 e2be
000003d0: f6c7 6bbf 2277 a2bf f37c 51be f756 03bf
000003e0: d5a5 d4be 5d54 87bb beee 423a 5276 0bbd
000003f0: 8692 c3bd 622e 2b3d 18af 95bf c893 f1be

layers.3.bias f4 [32]
0.7402867 1.1441722 0.16240948 1.3126626 0.66784126 1.1980766 0.38180304 0.86636883
0.7228602 0.1735987 0.34376258 0.23649345 0.16281383 0.16368578 0.2025414 1.2216762
-0.0155607965 0.68452096 0.66290975 0.7282212 1.0570909 0.24056962 0.37468424 1.2711335
1.1200535 -0.013405194 0.18414113 1.1760163 0.1679943 1.1347165 0.17556757 0.19172566
00000000: 6e83 3d3f 3c74 923f ac4e 263e 5405 a83f
00000010: a5f7 2a3f 935a 993f b07b c33e 59ca 5d3f
00000020: 5e0d 393f dcc3 313e a601 b03e 572b 723e
00000030: abb8 263e 3f9d 273e 0367 4f3e e35f 9c3f
00000040: b6f2 7ebc c43c 2f3f 74b4 293f b46c 3a3f
00000050: c14e 873f e257 763e 9dd6 bf3e 81b4 a23f
00000060: ea5d 8f3f 75a1 5bbc 7e8f 3c3e b487 963f
00000070: b306 2c3e 643e 913f fcc7 333e bb53 443e

layers.4.weight f4 [6, 32]
-0.15562287 -0.039696787 0.04152046 -0.011984699 -0.27206987 -0.1343646 0.06541697 -0.22261228
-0.123562194 0.05817414 0.10442485 0.04953563 0.035270143 0.09437738 0.14899041 -0.22016618
0.13241288 -0.14582464 -0.121614926 -0.32771146 -0.31826323 0.061519235 0.102037475 0.0016138403
-0.090115 0.0076161325 0.067730546 -0.09106046 0.045950137 -0.111034684 0.08064136 0.08467234
-0.07627811 0.0018052905 0.038820934 0.08634081 -0.14630158 -0.027818607 0.028391464 -0.111065164
-0.040425263 0.05618945 0.090307884 0.043925818 0.03286238 0.09213935 0.1413115 -0.14572963
0.10896101 -0.0026940978 -0.016717112 -0.20542774 -0.17792538 0.090011895 0.0822227 0.0938278
0.021925654 -0.014456552 0.064916074 -0.0026332333 0.0428121 -0.05028712 0.077752635 0.08176034
0.0060260124 0.08427473 0.03209644 0.11584852 -0.06786854 -0.00085280824 0.004160659 -0.09786959
0.027338922 0.05067969 0.07162461 0.033495303 0.026346097 0.08594148 0.12755685 -0.089824766
0.079799004 0.054204598 0.06762205 -0.12038421 -0.12816493 0.09601881 0.05809005 0.14332047
0.073268056 -0.04180882 0.05802549 0.06558622 0.035135847 0.028736115 0.070300974 0.07413604
0.08681318 0.16656479 0.010671499 0.11529923 -0.018413214 -0.008738175 -0.0014246767 -0.0015086954
0.122089095 0.033776578 0.025045551 0.00044659583 0.0052473447 0.06739189 0.082164876 0.010533419
0.046587706 0.08007187 0.12822853 0.0051421593 0.002656465 0.09354017 0.0015515862 0.1614872
0.08463103 -0.07719554 0.034657624 0.09719781 0.008998523 0.086361654 0.04789106 0.048445974
0.12142822 0.17273377 -0.09223996 0.020744333 0.011963656 -0.043944515 -0.20098224 0.091199875
0.16487482 -0.05280045 -0.14122243 -0.1509434 -0.09994287 -0.027085198 -0.07761118 0.06957284
0.084759876 0.105611004 0.15689072 0.067136355 0.14247933 -0.056219637 -0.17313439 0.14379913
0.011553512 -0.03966868 -0.08106067 0.06710897 -0.10986054 0.07275146 -0.061253693 -0.06474251
0.14019874 0.009597693 -0.879477 -0.14346457 0.029119942 0.0045970837 -0.39324334 0.104720436
0.1792939 -0.70836586 -0.28106868 -0.5801287 -0.9133776 -0.748847 -1.176084 -0.07698109
0.14795046 0.12127634 0.1767802 0.086166486 -0.009993568 -1.1834372 -0.24299878 -0.012242631
-0.2957236 0.022385128 -0.96769357 -0.13095619 -1.0276369 -0.092969686 -0.8949901 -0.97618014
00000000: 9a5b 1fbe 1999 22bd 5c11 2a3d 795b 44bc
00000010: be4c 8bbe e096 09be 55f9 853d 79f4 63be
00000020: 2d0e fdbd 0248 6e3d b2dc d53d dfe5 4a3d
00000030: 6d77 103d ee48 c13d f190 183e 3e73 61be
00000040: 3e97 073e 0e53 15be 3f11 f9bd ccc9 a7be
00000050: 66f3 a2be 98fb 7b3d 06f9 d03d 7f87 d33a
00000060: 378e b8bd c090 f93b 50b6 8a3d e87d babd
00000070: 3636 3c3d 2766 e3bd 4c27 a53d b168 ad3d
00000080: b337 9cbd 7f9f ec3a b302 1f3d 73d3 b03d
00000090: 15d0 15be d9e3 e3bc 3795 e83c 2276 e3bd
000000a0: f694 25bd e926 663d 57f3 b83d 8feb 333d
000000b0: b49a 063d 8eb3 bc3d f6b3 103e 263a 15be
000000c0: f326 df3d 768f 30bb 53f2 88bc a65b 52be
000000d0: 1232 36be 2858 b83d 6064 a83d ca28 c03d
000000e0: 6e9d b33c 2ddb 6cbc b8f2 843d 5392 2cbb
000000f0: be5b 2f3d def9 4dbd c63c 9f3d f771 a73d
00000100: db75 c53b 3b98 ac3d 8f77 033d fd41 ed3d
00000110: a9fe 8abd fe8e 5fba 2356 883b da6f c8bd
00000120: e0f5 df3c 8295 4f3d ecaf 923d 5f32 093d
00000130: c5d3 d73c 1602 b03d 439e 023e 0cf6 b7bd
00000140: a96d a33d a405 5e3d 6e7d 8a3d ff8b f6bd
00000150: ab3d 03be 83a5 c43d d5ef 6d3d 9ac2 123e
00000160: 900d 963d ba3f 2bbd 23ac 6d3d 1152 863d
00000170: 9bea 0f3d 0068 eb3c f5f9 8f3d a3d4 973d
00000180: 1ccb b13d f68f 2a3e 83d7 2e3c 0122 ec3d
00000190: 4fd7 96bc 902a 0fbc 38bc baba 6bbf c5ba
000001a0: d909 fa3d 4f59 0a3d 542c cd3c 1425 ea39
000001b0: ebf1 ab3b c204 8a3d 0f46 a83d 5d94 2c3c
000001c0: c0d2 3e3d b8fc a33d 574e 033e 8f7f a83b
000001d0: 1618 2e3b fd91 bf3d 985e cb3a e75c 253e
000001e0: 0953 ad3d b218 9ebd 27f5 0d3d a50f c73d
000001f0: 8a6e 133c 61de b03d 6b29 443d 496f 463d
00000200: 5caf f83d 1fe1 303e 4ee8 bcbd 05f0 a93c
00000210: 3603 443c 2aff 33bd 4ace 4dbe 00c7 ba3d
00000220: f2d4 283e 4945 58bd 9d9c 10be e890 1abe
00000230: d9ae ccbd c7e1 ddbc 9cf2 9ebd 357c 8e3d
00000240: 9696 ad3d 954a d83d f6a7 203e c97e 893d
00000250: 1ae6 113e 9046 66bd 244a 31be 1440 133e
00000260: f14a 3d3c a07b 22bd 2303 a6bd 6d70 893d
00000270: 90fe e0bd b8fe 943d 27e5 7abd b997 84bd
00000280: 4290 0f3e a43f 1d3c 6825 61bf 60e8 12be
00000290: f28c ee3c 22a3 963b 3157 c9be ab77 d63d
000002a0: d298 373e 7757 35bf 3ce8 8fbe 5183 14bf
000002b0: 1dd3 69bf 70b4 3fbf ec89 96bf 43a8 9dbd
000002c0: 5380 173e bb5f f83d de05 353e 0e78 b03d
000002d0: 10bc 23bc df7a 97bf acd4 78be 5195 48bc
000002e0: 1569 97be 0461 b73c c4ba 77bf 6119 06be
000002f0: 9b89 83bf e466 bebd 121e 65bf f1e6 79bf

layers.4.bias f4 [6]
-0.27749604 -0.1820314 -0.18899553 -0.1606792 0.39768913 1.3123103
00000000: f613 8ebe 7066 3abe 0b88 41be 1789 24be
00000010: e99d cb3e c9f9 a73f
