saved_model3.0.pth (torch, 72660 bytes, 8 tensors)

layers.0.weight f4 [128, 52]
-0.0293576 0.22472735 0.31604335 0.09681754 0.026504746 0.061445113 0.31306532 0.2022159
0.10373207 0.020100022 -0.39164203 -0.5244055 0.2874077 -0.13889372 1.0381649 -0.20702435
-0.030814283 0.014724928 -0.061374538 0.107954174 0.17518131 -0.21657234 0.08907075 0.06447227
-0.048950102 -0.07088475 -0.0914544 -0.31258634 0.5852914 -0.50440526 -0.29482952 -0.30842355
0.37115768 -0.030016813 -0.3564155 -0.17385435 -0.38085014 -0.5048382 0.5196035 -0.121449724
0.10456709 -0.17280218 0.55936414 1.722054 -2.4665883 1.2558022 0.3773 -0.25560728
0.9676191 0.039139826 -0.023917546 -0.06061907 -0.019221606 0.06418985 -0.08511076 -0.058436926
0.006569917 -0.06957637 0.05822258 -0.16791825 -0.11598041 -0.1805134 0.053117536 0.08044045
-0.8467632 1.3130883 0.69882447 -0.5137154 1.0811502 0.32078797 -0.07934773 -0.33171234
-0.09601629 -0.05368313 0.14789996 -0.14514436 0.2340619 0.13361748 0.08299587 0.024585601
0.19950533 0.06427704 0.023428485 -0.26246893 -0.17974086 -0.23927484 -0.37229154 -0.10040431
-0.16355485 0.1041413 0.124540925 0.039053805 0.3810464 0.15483196 -0.013709581 0.19008218
-0.17949048 2.0570102 -1.5678316 0.5632878 -0.41673896 0.11085465 -0.07534613 -0.09740088
-0.021179024 -0.12689759 -0.14050408 -0.0982085 0.041756853 -0.023693845 0.30919784 0.20877482
-0.181585 0.027973449 -0.24317485 -0.5138967 0.77529734 -1.1582756 -0.75083005 0.56613255
0.008466157 -0.48132852 -0.18471211 -0.31000522 0.28315082 -0.22920224 0.44409546 0.1754229
0.47983754 0.1218586 0.25195247 -0.15725727 0.307207 -0.078449115 -0.05638461 -0.34907424
0.004750157 0.073123924 -0.25831798 0.14875756 0.31033057 -0.07728828 -0.035331212 -0.27529973
-0.37514892 -0.12809518 -0.032325193 0.48310307 -0.24281411 -3.8304765 -0.19719058 2.6050534
-1.2277143 0.1361252 0.15719801 -0.10984206 -0.10433792 0.11826274 -0.3759014 -0.28635138
-0.0062127234 -0.35051087 0.13882923 0.069634184 -0.18298498 0.054348473 0.27753502 0.006874408
-0.039506078 0.026298676 0.0748726 -0.02517049 0.2585244 -0.08189603 0.0717914 -0.09889897
-0.099641114 0.34328523 -0.23463486 -0.40516385 0.44327372 0.039431036 0.09023415 0.5421203
-0.21430224 0.019571843 0.5122965 0.99822325 0.49142933 0.047017723 -0.23114829 0.15691161
0.60128796 0.02688417 -0.35826954 0.13459139 -0.3507564 0.999501 0.90495217 0.7863018
-3.241549 -2.1781688 0.14263894 1.030066 2.6393237 0.11460064 -0.07715897 -0.09097925
-0.026753323 0.26792815 -0.065621786 -0.08314038 0.0656656 -0.026346378 -0.14832239 -0.18225883
-0.016871003 0.16965497 0.23414548 0.2707604 -0.60186106 0.8986172 0.43968326 -0.35085362
0.10286065 0.37628573 -0.17950492 -0.10709542 -0.2247647 -0.030756924 -0.029298015 -0.3966856
0.35480192 -0.12716466 0.053095825 -0.047038086 0.15322971 -0.09166068 -0.21619938 0.31630167
0.14816843 0.26377234 -0.0218358 0.13907856 0.2820021 -0.52748543 -0.12946498 -0.28121978
-0.22874533 0.34362215 0.5457798 -0.03294289 0.32784408 1.4387418 -1.7892722 0.6883347
00000000: 597f f0bc ed1e 663e 6fd0 a13e 4648 c63d
00000010: 7b20 d93c dfad 7b3d 194a a03e af11 4f3e
00000020: 7b71 d43d cda8 a43c 4e85 c8be 703f 06bf
00000030: 1a27 933e 283a 0ebe 96e2 843f 31fe 53be
00000040: 3c6e fcbc d340 713c de63 7bbd 1417 dd3d
00000050: bb62 333e 24c5 5dbe ba6a b63d 0a0a 843d
00000060: e77f 48bd 062c 91bd 724c bbbd 510b a0be
00000070: a8d5 153f b420 01bf e5f3 96be b1e9 9dbe
00000080: 6108 be3e d2e5 f5bc 187c b6be e006 32be
00000090: cafe c2be 143d 01bf bc04 053f a2ba f8bd
000000a0: 4527 d63d 0ef3 30be 7d32 0f3f 446c dc3f
000000b0: 95dc 1dc0 20be a03f 772d c13e f5de 82be
000000c0: e3b5 773f 1551 203d bbee c3bc b44b 78bd
000000d0: a176 9dbc f875 833d 8d4e aebd 8f5b 6fbd
000000e0: 7548 d73b 0e7e 8ebd cd7a 6e3d c3f2 2bbe
000000f0: 2387 edbd 81d8 38be c691 593d f6bd a43d
00000100: 79c5 58bf 4713 a83f 29e6 323f da82 03bf
00000110: 2163 8a3f 523e a43e 1081 a2bd 33d6 a9be
00000120: 30a4 c4bd d7e2 5bbd 1673 173e b9a0 14be
00000130: ecad 6f3e 05d3 083e bdf9 a93d be67 c93c
00000140: 204b 4c3e aea3 833d 18ed bf3c 5462 86be
00000150: fd0d 38be 7704 75be ff9c bebe c6a0 cdbd
00000160: ec7a 27be 0948 d53d 500f ff3d e2f6 1f3d
00000170: 8418 c33e 458c 1e3e 279e 60bc e7a4 423e
00000180: 5acc 37be 0ea6 0340 b5ae c8bf a133 103f
00000190: cf5e d5be c307 e33d 124f 9abd 1d7a c7bd
000001a0: a27f adbc 71f1 01be 4de0 0fbe 8a21 c9bd
000001b0: 3c09 2b3d 9819 c2bc 2e4f 9e3e 11c9 553e
000001c0: 6bf1 39be 9328 e53c d402 79be bc8e 03bf
000001d0: e379 463f 6042 94bf 6636 40bf 10ee 103f
000001e0: a3b5 0a3c b170 f6be 2c25 3dbe 01b9 9ebe
000001f0: 25f9 903e feb3 6abe 7b60 e33e 10a2 333e
00000200: 44ad f53e 0091 f93d eaff 803e 0d08 21be
00000210: 3c4a 9d3e eea9 a0bd 8cf3 66bd dcb9 b2be
00000220: 34a7 9b3b ffc1 953d 4142 84be e753 183e
00000230: a6e3 9e3e 5149 9ebd 76b7 10bd 16f4 8cbe
00000240: 8513 c0be 622b 03be 6c67 04bd 4959 f73e
00000250: 43a4 78be 8726 75c0 54ec 49be 32b9 2640
00000260: be25 9dbf 6864 0b3e 84f8 203e e0f4 e0bd
00000270: 1faf d5bd bc33 f23d 2676 c0be a69c 92be
00000280: 1a94 cbbb 2976 b3be 4029 0e3e 5e9c 8e3d
00000290: 6a60 3bbe 819c 5e3d 1219 8e3e b742 e13b
000002a0: 20d1 21bd 5270 d73c ce56 993d 5832 cebc
000002b0: 4f5d 843e 1bb9 a7bd 5f07 933d 8b8b cabd
000002c0: a410 ccbd 15c3 af3e 1f44 70be a371 cfbe
000002d0: c6f4 e23e 7082 213d afcc b83d 65c8 0a3f
000002e0: 0c72 5bbe 2155 a03c dd25 033f 8f8b 7f3f
000002f0: a09c fb3e a895 403d 23b2 6cbe 70ad 203e
00000300: 02ee 193f 313c dc3c 1b6f b7be 53d2 093e
00000310: 5896 b3be 4cdf 7f3f f2aa 673f 134b 493f
00000320: 8a75 4fc0 1e67 0bc0 f10f 123e 34d9 833f
00000330: aeea 2840 beb3 ea3d 8605 9ebd 5453 babd
00000340: c929 dbbc e12d 893e b764 86bd 8145 aabd
00000350: b07b 863d 5cd4 d7bc d3e1 17be 0fa2 3abe
00000360: 0f35 8abc 08ba 2d3e d5c3 6f3e 1ba1 8a3e
00000370: 9113 1abf c70b 663f 2a1e e13e 16a3 b3be
00000380: 9ba8 d23d 86a8 c03e 23d0 37be d854 dbbd
00000390: b828 66be f2f5 fbbc 6402 f0bc 601a cbbe
000003a0: 99a8 b53e 7437 02be 027b 593d 02ab 40bd
000003b0: 40e8 1c3e 98b8 bbbd 5f63 5dbe 4bf2 a13e
000003c0: 77b9 173e 2b0d 873e fee0 b2bc 9c6a 0e3e
000003d0: 9462 903e 4909 07bf 7892 04be 0afc 8fbe
000003e0: 373c 6abe 3eef af3e 3ab8 0b3f 20ef 06bd
000003f0: 2edb a73e b128 b83f df06 e5bf b436 303f

layers.0.bias f4 [128]
-1.0488628 -1.5387334 -0.84701216 -1.8757663 -2.1480112 -0.8990662 -1.1145641 -1.023227
-1.7041084 0.2616142 -1.4319894 -0.9709863 -2.0115206 -1.3467827 -1.3919985 -0.98039937
-0.5604062 -1.201974 -1.6616501 -1.6991432 -1.2027987 -1.2995008 -1.6453699 -0.61056757
-1.0057058 -1.721271 -1.6195062 -0.36618268 -1.1761025 -1.1014723 -0.83982706 -0.86009
-1.116323 -1.2468858 -1.9852935 -1.4195458 -0.9114028 -1.6174442 -1.0077881 -1.2716414
-2.2745442 -0.90124804 -0.7957636 -1.1479757 -1.1443636 -1.5816064 -1.4836708 -1.5525384
-0.3263133 -1.1029507 -1.9673241 -1.356942 -0.85382086 -1.5302402 -0.5424405 -1.5453628
-1.7767806 -1.1894827 -1.5155187 -1.5488615 -1.6798742 -1.4179612 -0.789175 -0.43982035
-0.6778861 -0.79804087 -1.274679 -1.7714432 -1.2066607 -1.4866636 -1.862291 -1.4183017
-1.9569134 -1.2171707 -1.124598 -1.8463111 -2.0351937 -1.4298944 -1.66868 -1.4627415
-1.1752692 -0.1853079 -1.076586 -1.3813686 -2.1542823 -1.4989725 -1.4710647 -1.4498482
-2.129891 -0.08124588 -1.1554818 -0.27265227 -1.0173985 -0.82669157 -1.4451557 -0.48946542
-1.5245756 -1.3953185 -1.6776612 -1.2671568 -1.3486646 -1.9318718 -1.776931 -1.2730228
-1.3753163 -1.501683 -1.5711775 -1.0907458 -0.04677791 -1.8695669 -0.98811585 -1.0322956
-2.0227735 -1.6136137 -1.2184161 -1.2373402 -2.3059423 -1.9434634 -0.07026325 -1.5120589
-0.09884313 -1.7757335 -1.6506872 -1.4844891 -1.0345061 -2.2735188 -0.9730751 -1.732107
00000000: 2341 86bf 37f5 c4bf cad5 58bf 1c19 f0bf
00000010: 0479 09c0 3429 66bf 09aa 8ebf 1af9 82bf
00000020: 3920 dabf 4cf2 853e 6e4b b7bf 8f92 78bf
00000030: c1bc 00c0 6063 acbf 022d b2bf 74fb 7abf
00000040: c876 0fbf 49da 99bf f3b0 d4bf 867d d9bf
00000050: 4ff5 99bf 0b56 a6bf 7b9b d2bf 284e 1cbf
00000060: f8ba 80bf 9c52 dcbf fb4b cfbf 4c7c bbbe
00000070: 878a 96bf 0bfd 8cbf e8fe 56bf dc2e 5cbf
00000080: ace3 8ebf f499 9fbf 191e febf adb3 b5bf
00000090: b251 69bf 6908 cfbf 33ff 80bf 25c5 a2bf
000000a0: 2292 11c0 31b8 66bf 2ab7 4bbf def0 92bf
000000b0: 827a 92bf 1472 cabf ede8 bdbf 94b9 c6bf
000000c0: 8912 a7be 7d2d 8dbf 47d1 fbbf 47b0 adbf
000000d0: 0194 5abf e9de c3bf 61dd 0abf 73ce c5bf
000000e0: 8c6d e3bf f840 98bf 84fc c1bf 1841 c6bf
000000f0: 1e06 d7bf c17f b5bf 5f07 4abf 2230 e1be
00000100: f289 2dbf 684c 4cbf ae28 a3bf a7be e2bf
00000110: dc73 9abf fe4a bebf 8d5f eebf e98a b5bf
00000120: 237c fabf 40cc 9bbf d4f2 8fbf ec53 ecbf
00000130: 9d40 02c0 c806 b7bf 4e97 d5bf 1d3b bbbf
00000140: 396f 96bf 5bc1 3dbe 92cd 89bf b0d0 b0bf
00000150: c3df 09c0 55de bfbf d94b bcbf a094 b9bf
00000160: 2250 08c0 3d64 a6bd d4e6 93bf 1499 8bbe
00000170: 1d3a 82bf 0fa2 53bf ddfa b8bf 369b fabe
00000180: 4b25 c3bf cc99 b2bf 9abd d6bf 3232 a2bf
00000190: 0ba1 acbf 9347 f7bf 7a72 e3bf 69f2 a2bf
000001a0: 5d0a b0bf 2637 c0bf 581c c9bf 8f9d 8bbf
000001b0: 329a 3fbd f84d efbf 29f5 7cbf 4322 84bf
000001c0: 1f75 01c0 e58a cebf 0ff5 9bbf 2a61 9ebf
000001d0: 8f94 13c0 69c3 f8bf 2ee6 8fbd 258b c1bf
000001e0: 446e cabd 3c4b e3bf b849 d3bf bd03 bebf
000001f0: b26a 84bf 5581 11c0 731b 79bf afb5 ddbf

layers.1.weight f4 [64, 128]
-0.0012281499 0.038024873 -0.5270207 -0.17082301 -2.999981 -1.5657772 -5.005275 0.04720192
-0.15385062 -0.0021003834 0.23025858 -0.001241835 -1.5904093 0.04833485 0.20638742 -0.003394684
0.024693783 0.02291426 0.035298917 0.045176703 0.18021 0.042236403 0.11379629 0.008418061
0.018174734 0.05299164 -5.6043878 -0.15984003 -0.34521917 -2.8668952 0.0316568 0.024964433
-0.24876852 -2.3513036 0.03658684 0.2851705 -0.038498547 -2.9732141 -0.052969486 -1.6933697
1.008467 0.030028937 0.021261098 0.14203286 -2.9158227 -3.094391 0.23539858 -0.028503641
-0.0213667 0.023962729 0.052490186 -0.30454433 0.030200388 -0.08851214 -0.11960293 0.426934
0.26048276 -0.19097562 0.053557362 -0.07621399 0.3526606 0.1484642 0.05721409 -0.007118681
0.057638977 0.024302473 -0.59791833 -0.0064917477 -3.6235101 0.13148275 -0.7081284 -1.0129222
0.07935583 0.061501548 -1.4529152 -0.21406381 0.08518804 0.053764284 -2.4800124 -2.532
-0.20199817 -0.004728519 -0.0022203915 -0.00089928607 0.72634894 0.032922227 0.05238574 -2.2296402
0.65497 -0.008112995 0.04869151 -1.1401876 0.02557882 0.053789586 0.054181807 0.012185674
0.036155667 -0.41711196 0.013123263 -2.1270685 -0.8358598 0.66382754 -1.1788751 0.0639158
0.026024865 0.07331329 -1.4904299 -0.14763191 -0.013063381 0.066313185 -0.03500098 -2.5935447
0.14197531 -1.7423887 -0.12183125 -1.6556355 -1.320314 -2.9886575 0.00071279565 0.3154154
-0.01611453 0.27498952 0.022077987 0.16611952 -0.7218922 1.5331271 0.0017062852 -0.053773403
-0.28688052 0.012755326 -0.0005580404 0.40007553 0.35053596 0.50092876 0.028583156 -1.059085
0.043857787 -0.42290163 0.009962636 -0.3457072 0.091248825 -1.1051399 0.24404792 0.0403386
-0.38021025 -0.041658103 -0.30260658 -0.007358469 -0.34828454 0.057818066 -1.1846908 -0.6599177
-0.005284796 0.06688025 -0.034304935 -0.08776432 0.81030357 0.018539544 0.00092947134 0.0027395946
-0.10376884 -0.70180565 0.19117032 0.49862936 -0.83978283 -0.0043506175 -0.4950549 0.20332727
-3.6311026 -0.003917843 -0.68272585 0.022879928 0.3021962 -0.36325037 -1.5725976 -0.3310613
0.043625023 0.10336411 -0.750971 0.06416543 0.008834184 0.20818856 -1.1970252 0.04467861
1.091308 -0.07873991 0.008399995 -1.3651389 0.2923096 -0.49659047 0.024109717 -0.05746551
0.0008334472 -0.00016197492 0.8236432 0.17491935 0.057893682 0.042025156 -0.23814927 0.6104077
-2.224347 0.07256268 0.061096236 0.0029320233 0.27635148 0.045816746 0.18955897 0.07457402
0.009375446 0.04495529 -0.1236328 0.00856086 -4.554303 -1.6012748 0.018483665 -0.02083946
-4.572501 0.047321606 0.038530916 0.0029209906 0.021823218 0.06665211 0.018536726 -1.1218076
0.011697146 0.010821609 0.25731483 0.23687069 0.09049626 0.035777207 0.48102438 -2.7626913
0.104633205 0.030554404 0.28185043 0.03770029 0.034346394 -2.1380439 -0.21945886 -0.3077532
0.323669 -0.3031361 -0.019395012 0.010941201 -1.0069945 0.15146752 0.055496592 -0.2708374
0.04306535 -1.1453885 -2.6522791 0.047559265 0.5605814 -2.1594222 -0.3515205 0.16665049
00000000: dff9 a0ba f8bf 1b3d d4ea 06bf 3aec 2ebe
00000010: b0ff 3fc0 636b c8bf 362b a0c0 cd56 413d
00000020: 048b 1dbe 96a6 09bb e8c8 6b3e 11c5 a2ba
00000030: 8892 cbbf c4fa 453d 3957 533e 5979 5ebb
00000040: 9e4a ca3c b0b6 bb3c 9995 103d 350b 393d
00000050: f888 383e 1400 2d3d 070e e93d e8eb 093c
00000060: 2ee3 943c c30d 593d 2557 b3c0 1bad 23be
00000070: 91c0 b0be 367b 37c0 90aa 013d 3682 cc3c
00000080: 2dbd 7ebe c27b 16c0 15dc 153d de01 923e
00000090: a7b0 1dbd 2449 3ec0 88f6 58bd 57c0 d8bf
000000a0: 7215 813f 3fff f53c c12b ae3c 1071 113e
000000b0: d79c 3ac0 810a 46c0 530c 713e 7880 e9bc
000000c0: 3809 afbc 7c4d c43c f3ff 563d 3ced 9bbe
000000d0: ce66 f73c da45 b5bd 62f2 f4bd 1897 da3e
000000e0: ff5d 853e 1d8f 43be f75e 5b3d 1516 9cbd
000000f0: ee8f b43e 0007 183e 5259 6a3d d343 e9bb
00000100: d916 6c3d fb15 c73c 2d11 19bf bab8 d4bb
00000110: 97e7 67c0 6aa3 063e e747 35bf 6fa7 81bf
00000120: 4f85 a23d 0ce9 7b3d 20f9 b9bf 8b33 5bbe
00000130: 1177 ae3d f037 5c3d 86b8 1ec0 4a0c 22c0
00000140: 9cd8 4ebe b1f1 9abb fd83 11bb 11be 6bba
00000150: 01f2 393f 75d9 063d 6e92 563d 6db2 0ec0
00000160: 1dac 273f 5eec 04bc c070 473d abf1 91bf
00000170: ac8a d13c 7852 5c3d beed 5d3d 6ca6 473c
00000180: f717 143d b38f d5be f402 573c e421 08c0
00000190: e8fa 55bf 9af0 293f 61e5 96bf 49e6 823d
000001a0: 1932 d53c 4725 963d 68c6 bebf d22c 17be
000001b0: cb07 56bc 35cf 873d 305d 0fbd a3fc 25c0
000001c0: fa61 113e 9806 dfbf aa82 f9bd ddeb d3bf
000001d0: 0d00 a9bf 2a46 3fc0 e8da 3a3a 217e a13e
000001e0: 9e02 84bc 6dcb 8c3e e5dc b43c 3c1b 2a3e
000001f0: edcd 38bf 823d c43f 6ea5 df3a 8041 5cbd
00000200: 01e2 92be b7fb 503c 7549 12ba b3d6 cc3e
00000210: 7379 b33e de3c 003f 3927 ea3c 1990 87bf
00000220: 39a4 333d 9086 d8be 533a 233c 8900 b1be
00000230: aae0 ba3d 3975 8dbf b3e7 793e 163a 253d
00000240: ebaa c2be b0a1 2abd 40ef 9abe 501f f1bb
00000250: 5a52 b2be a3d2 6c3d f3a3 97bf 5ef0 28bf
00000260: 152c adbb 83f8 883d 5583 0cbd c8bd b3bd
00000270: 0e70 4f3f 3ee0 973c c4a7 733a c58a 333b
00000280: c284 d4bd 89a9 33bf 27c2 433e 594c ff3e
00000290: 02fc 56bf a08f 8ebb d677 fdbe 0635 503e
000002a0: fc63 68c0 4061 80bb 1fc7 2ebf b06e bb3c
000002b0: 76b9 9a3e f4fb b9be e14a c9bf de80 a9be
000002c0: 27b0 323d 90b0 d33d a33f 40bf 2a69 833d
000002d0: 41bd 103c 622f 553e 1f38 99bf eb00 373d
000002e0: fbaf 8b3f 6442 a1bd 22a0 093c dfbc aebf
000002f0: 9ba9 953e 1b41 febe be81 c53c f460 6bbd
00000300: b27b 5a3a d0d7 29b9 48da 523f 0f1e 333e
00000310: ed21 6d3d 9222 2c3d 67dd 73be ae43 1c3f
00000320: b45b 0ec0 be9b 943d 0c40 7a3d 3027 403b
00000330: f17d 8d3e 57aa 3b3d bf1b 423e 44ba 983d
00000340: 789b 193c 0a23 383d 3233 fdbd d942 0c3c
00000350: dabc 91c0 93f6 ccbf 0e6b 973c 84b7 aabc
00000360: ee51 92c0 4dd4 413d 98d2 1d3d 176e 3f3b
00000370: 9bc6 b23c e780 883d 55da 973c 6497 8fbf
00000380: 63a5 3f3c 1e4d 313c c5be 833e 3b8e 723e
00000390: 1a56 b93d 1f8b 123d d448 f63e efcf 30c0
000003a0: ef49 d63d 3b4d fa3c b34e 903e 9f6b 1a3d
000003b0: ceae 0c3d b6d5 08c0 d3b9 60be d491 9dbe
000003c0: f1b7 a53e a834 9bbe 4ae2 9ebc b942 333c
000003d0: 32e5 80bf 4d1a 1b3e 6550 633d 33ab 8abe
000003e0: 4b65 303d 179c 92bf f1be 29c0 81cd 423d
000003f0: 4382 0f3f f933 0ac0 7ffa b3be 6da6 2a3e

layers.1.bias f4 [64]
0.026253304 0.012183283 0.026512334 0.31073996 0.22890715 0.38571888 0.84567046 0.2717214
0.010186059 -1.502352 0.22690491 0.13978925 0.4890428 0.41840807 -0.667826 -0.05400222
-0.6366939 0.018933496 -0.22208637 0.29342508 -0.7686945 0.39625922 0.020183997 0.07261842
0.043762837 0.17292574 -0.6059846 0.14043598 0.14931606 0.24197446 -0.0055687716 0.025838416
0.064321466 0.20526522 0.4382352 -0.6600079 0.04368968 0.28756863 -0.64874494 -0.6419261
0.13079421 0.7781285 -0.94803095 0.95942104 -1.4259294 -0.9059159 -2.4004445 0.11652625
0.44310316 0.026737405 0.58474135 0.29289138 0.08710633 0.2148066 0.088499345 0.12816267
0.1972729 0.36408594 0.5686827 -1.5585251 0.3366987 0.9351267 0.3312276 -0.022440469
00000000: 2b11 d73c 659c 473c 6530 d93c 4f19 9f3e
00000010: a366 6a3e f27c c53e dc7d 583f 111f 8b3e
00000020: 6ee3 263c 124d c0bf c359 683e ea24 0f3e
00000030: d163 fa3e 9539 d63e a5f6 2abf 6f31 5dbd
00000040: 5ffe 22bf 6b1a 9b3c 9c6a 63be d03b 963e
00000050: 2ac9 44bf 7de2 ca3e e958 a53c f7b8 943d
00000060: a940 333d 7213 313e cf21 1bbf 73ce 0f3e
00000070: 4fe6 183e 27c8 773e 3e7a b6bb 16ab d33c
00000080: f9ba 833d 0c31 523e 5d60 e03e 47f6 28bf
00000090: f3f3 323d 323c 933e 2614 26bf 4555 24bf
000000a0: ebee 053e 6e33 473f 28b2 72bf 9e9c 753f
000000b0: db84 b6bf 1bea 67bf e2a0 19c0 51a5 ee3d
000000c0: 6bde e23e 6708 db3c 9cb1 153f dcf5 953e
000000d0: ce64 b23d 43f6 5b3e 253f b53d 133d 033e
000000e0: e801 4a3e 7969 ba3e 3095 113f c07d c7bf
000000f0: c663 ac3e 7764 6f3f aa96 a93e 13d5 b7bc

layers.2.weight f4 [32, 64]
-0.14395764 -0.26264164 -3.3473504 -0.11081009 0.031418335 -4.407744 0.09374319 -0.28193933
-1.1449791 0.0015308001 -0.18467963 -0.36064088 -0.03232051 -0.027890285 -0.16112278 0.046415105
-0.01124567 -3.6917388 -0.27980277 -0.6001115 -0.038623508 -0.12132752 -0.28472286 -4.9176693
-4.6884403 -0.08831152 -0.0027461255 -0.3148888 0.06685392 -5.1509414 -0.39798492 -0.98014146
0.12927523 0.024864694 -0.000566277 -0.06764046 -0.8399768 -0.023012672 -0.20275359 -0.6979731
-2.100565 0.08482662 0.033604007 0.016267464 0.033139978 -0.53151536 0.031275697 -0.11267419
-0.6838536 -0.18802418 -0.1333256 -0.024682406 -0.5958762 0.022966234 -0.2203482 -5.4056816
0.5668966 0.14500305 -0.23240629 0.0948167 -0.09602745 1.4299323e-05 0.014846405 -0.40903068
-0.14888947 0.04638559 -1.1286544 -3.3154688 0.115786955 -3.9944317 -0.028225258 0.08181942
-3.793893 -0.010424825 -4.018649 -0.30047894 0.031772982 0.017486868 -2.7945735 0.020753866
-0.09599042 -1.1687031 -1.8453466 -4.0522757 -0.9599621 -0.34174132 -4.353572 -2.3103673
-2.2367067 0.071822144 -0.009365181 0.09421559 0.014273859 -3.1015666 0.062152565 0.14089409
0.21541385 0.27219388 0.09527337 -0.5565012 0.06759703 0.006714347 -2.861035 -1.3640158
-2.6182268 0.04399659 -0.07718952 -0.09135316 0.0105611775 -2.9345906 0.012450293 0.10633141
-5.1942887 -0.95398873 -3.068327 0.020521373 -3.3222537 0.042147227 -4.265848 -2.3048222
-0.12130073 0.09357537 -4.827634 0.0040528625 0.022458298 -0.15870221 0.043478522 -5.20288
-0.055210583 0.032468487 -1.1016558 -0.07196463 0.09655494 -0.10520874 0.014565566 0.00834398
-0.22410765 0.1930808 -0.04116386 -0.0743009 0.010027179 0.024438668 -0.013636517 0.10641089
0.0013268454 -1.1914301 -0.019485163 -0.021023236 -0.0033829135 0.0029757514 -0.052603602 -0.57372105
-0.7405613 0.02955799 0.21846092 -0.008527569 0.5420006 -0.19475198 0.04500926 0.731583
0.33972868 0.23944724 0.11138123 -0.007111185 0.061124332 0.01938043 -0.028154094 -0.07186466
-0.45514902 0.037112944 0.005760647 -0.0010649213 0.13581645 -0.15681383 0.13147354 0.052544408
-0.028682662 -0.04189071 0.0063110082 0.016989786 -0.13393714 0.27126345 -0.015811574 -0.42910677
0.6747696 0.12407439 -0.016180642 0.10353098 0.061405968 -0.006616273 0.0019393015 -0.062503606
-0.07917549 0.029005382 -2.5258043 -2.8753579 0.10092809 -2.1046143 0.04521041 0.085487045
-1.2535379 0.035557088 -0.085733496 -1.5068858 0.027124371 0.016445117 -0.059152067 0.09328758
0.0043840706 -2.6805153 -0.17960122 -0.18086135 -0.0020930977 -0.06236231 -0.12244013 -4.258356
-4.152472 0.11075335 0.031016074 0.0025286712 0.19742723 -3.2092748 0.09319493 0.50344414
0.480089 0.4705928 0.107299246 -0.012651681 0.07477858 0.008860055 -0.07541742 -0.41468605
-3.7122567 0.018137762 0.020476416 0.0053283405 0.1182408 -0.9070729 0.08529271 0.15485482
-0.2499527 -0.11874849 0.036277276 0.015815316 -0.6854525 0.17071724 -0.13037208 -4.2976904
0.28467542 0.06735075 -0.08551995 0.0971918 0.09144557 0.009468246 0.047057312 -0.25074363
00000000: a269 13be f778 86be fd3a 56c0 67f0 e2bd
00000010: 83b0 003d 3d0c 8dc0 6efc bf3d 5a5a 90be
00000020: ad8e 92bf 21a5 c83a a81c 3dbe eca5 b8be
00000030: 8362 04bd 2b7a e4bc 5ffd 24be c41d 3e3d
00000040: c23f 38bc 7345 6cc0 4f42 8fbe e8a0 19bf
00000050: af33 1ebd 907a f8bd 32c7 91be 8c5d 9dc0
00000060: b407 96c0 acdc b4bd 57f8 33bb 1b39 a1be
00000070: b5ea 883d 83d4 a4c0 aec4 cbbe 8dea 7abf
00000080: ba60 043e 0bb1 cb3c 3572 14ba 1587 8abd
00000090: b808 57bf 1285 bcbc a39e 4fbe 5dae 32bf
000000a0: a86f 06c0 94b9 ad3d 5ba4 093d 5843 853c
000000b0: c9bd 073d 6411 08bf f21a 003d bac1 e6bd
000000c0: 0811 2fbf 6989 40be 8286 08be c232 cabc
000000d0: 588b 18bf af23 bc3c f5a2 61be 58fb acc0
000000e0: 2320 113f ae7b 143e eafb 6dbe 422f c23d
000000f0: 0aaa c4bd 20e7 6f37 563e 733c 786c d1be
00000100: 7b76 18be d1fe 3d3d bf77 90bf a430 54c0
00000110: b621 ed3d c5a4 7fc0 a838 e7bc f190 a73d
00000120: 25cf 72c0 e3cc 2abc c698 80c0 60d8 99be
00000130: 6324 023d 9f40 8f3c 4bda 32c0 0304 aa3c
00000140: a096 c4bd 1098 95bf 5134 ecbf 3eac 81c0
00000150: 14c0 75bf b8f8 aebe 7650 8bc0 0fdd 13c0
00000160: 3426 0fc0 7d17 933d 6b70 19bc 1af4 c03d
00000170: e7dc 693c 1180 46c0 b093 7e3d 8a46 103e
00000180: 7395 5c3e ff5c 8b3e af1e c33d dd76 0ebf
00000190: 5070 8a3d 0604 dc3b 331b 37c0 1298 aebf
000001a0: 0791 27c0 c535 343d 8a15 9ebd 5e17 bbbd
000001b0: ca08 2d3c 55d0 3bc0 50fc 4b3c 48c4 d93d
000001c0: 9d37 a6c0 9b38 74bf 785f 44c0 701c a83c
000001d0: ce9f 54c0 92a2 2c3d d481 88c0 3582 13c0
000001e0: 846c f8bd 72a4 bf3d fa7b 9ac0 e0cd 843b
000001f0: 77fa b73c d582 22be 8916 323d fe7d a6c0
00000200: 7e24 62bd adfd 043d 0f03 8dbf 3162 93bd
00000210: 99be c53d ae77 d7bd 69a4 6e3c 30b5 083c
00000220: 7a7c 65be f9b6 453e 709b 28bd 122b 98bd
00000230: 0949 243c 9a33 c83c b36b 5fbc f4ed d93d
00000240: 8be9 ad3a c880 98bf 599f 9fbc ec38 acbc
00000250: dfb3 5dbb d304 433b e076 57bd 62df 12bf
00000260: 6d95 3dbf 9923 f23c 38b4 5f3e 37b7 0bbc
00000270: 8dc0 0a3f 106d 47be a15b 383d 0649 3b3f
00000280: ebf0 ad3e a831 753e d81b e43d f204 e9bb
00000290: 825d 7a3d b5c3 9e3c 6aa3 e6bc c72d 93bd
000002a0: 4b09 e9be be03 183d cfc3 bc3b d494 8bba
000002b0: 7813 0b3e ce93 20be 00a1 063e ce38 573d
000002c0: e7f7 eabc 9895 2bbd 93cc ce3b 2a2e 8b3c
000002d0: d126 09be 0be3 8a3e 4687 81bc e2b3 dbbe
000002e0: b3bd 2c3f b71a fe3d 448d 84bc 0d08 d43d
000002f0: d384 7b3d 52cd d8bb 2930 fe3a e401 80bd
00000300: c226 a2bd b29c ed3c c7a6 21c0 dd05 38c0
00000310: 63b3 ce3d 00b2 06c0 8d2e 393d d513 af3d
00000320: ee73 a0bf 4fa4 113d 0b95 afbd a2e1 c0bf
00000330: ee33 de3c e9b7 863c 7049 72bd 8f0d bf3d
00000340: 40a8 8f3b 908d 2bc0 62e9 37be b833 39be
00000350: 5a2c 09bb 9f6f 7fbd e4c1 fabd 7444 88c0
00000360: 0de1 84c0 a7d2 e23d 6c15 fe3c 10b8 253b
00000370: 5d2a 4a3e c264 4dc0 fcdc be3d b7e1 003f
00000380: 3ace f53e 8af1 f03e b5bf db3d ff48 4fbc
00000390: 8325 993d c429 113c 7374 9abd bb51 d4be
000003a0: 9d95 6dc0 a595 943c 28be a73c 5c99 ae3b
000003b0: 3c28 f23d ee35 68bf f2ad ae3d 4392 1e3e
000003c0: 9af3 7fbe 6932 f3bd 7b97 143d 1f8f 813c
000003d0: d179 2fbf 80d0 2e3e 4280 05be ae86 89c0
000003e0: fac0 913e 31ef 893d 1525 afbd 7f0c c73d
000003f0: d147 bb3d b420 1b3c 2bbf 403d 7861 80be

layers.2.bias f4 [32]
0.54299784 0.25810108 0.22829218 0.2106792 0.29483715 0.42494038 0.30863017 0.2843193
0.27086946 0.016102975 0.14748219 0.33910832 0.30205384 0.10230234 0.21650077 0.34242094
0.40716675 0.021492649 0.17308554 0.30967194 0.26357192 0.19297674 0.10709796 0.21039447
0.25565735 0.6562896 0.59285235 0.6370778 0.2189944 0.22994684 0.19802298 0.32393402
00000000: e801 0b3f d325 843e 6dc5 693e 4abc 573e
00000010: e5f4 963e c991 d93e c604 9e3e 4d92 913e
00000020: 67af 8a3e 63ea 833c 9205 173e 9b9f ad3e
00000030: cda6 9a3e e483 d13d 61b2 5d3e cc51 af3e
00000040: 2978 d03e 5a11 b03c 563d 313e 528d 9e3e
00000050: e6f2 863e b29b 453e 2d56 db3d a671 573e
00000060: 85e5 823e 9802 283f 2cc5 173f 8817 233f
00000070: 1140 603e 2f77 6b3e 89c6 4a3e aeda a53e

layers.3.weight f4 [6, 32]
-0.0022601131 0.22326182 0.0126641095 0.18292601 0.1470121 -0.31582367 -0.28117934 0.13173701
0.07754897 0.025018102 -0.27853885 0.10981444 -0.21685277 -0.23825943 -0.2678703 -0.26877177
-0.34669298 0.1335387 -0.26599628 -0.19959357 0.15328191 -0.3241 0.08254871 0.13099107
0.16363314 -0.04896404 -0.13941379 -0.18802655 0.120742485 0.13583665 0.063098036 0.20568548
0.12775886 0.2036969 0.0051125586 0.17272583 0.12422722 -0.1721501 -0.04409297 0.12134834
0.06721253 -0.066365525 -0.15044063 0.09754375 -0.026846923 -0.11120585 -0.13523775 0.014773809
-0.16541263 0.049602807 -0.13212472 0.012662751 0.14530222 -0.1709198 0.010594534 0.12377857
0.13360308 0.087715924 0.019620346 -0.070307925 0.11359682 0.12351455 0.05390777 0.18812835
0.14927138 0.15230463 0.0020908867 0.1582931 0.06338467 0.0051619033 0.00771841 0.08917593
0.043984268 -0.12924501 -0.07949812 0.05960474 0.039053433 -0.09296376 -0.06948315 0.095319815
-0.041654546 -0.012621729 -0.06708029 0.11676256 0.1270957 -0.08915069 -0.05718853 0.120635316
0.05881062 0.117964745 0.08295009 0.05283016 0.11004858 0.0956209 0.048243593 0.1377606
0.12467158 0.0032839847 -0.0014352849 0.13646337 -0.07757311 0.14265756 0.025715224 0.003911728
-0.016229061 -0.13954963 -0.003969438 -0.048315853 0.089849 -8.457477e-05 0.013190187 0.093751796
0.028496195 -0.04108817 0.014418292 0.2040872 0.08787002 0.0064412314 -0.14383599 0.11572153
-0.1196544 0.10970111 0.10539042 0.15080364 0.106468745 0.024841137 0.041556314 0.0090770265
-0.042903602 -0.30471426 -0.04933615 -0.032105252 -0.26990134 0.13613439 0.051040504 -0.24951273
-0.28276375 -0.0813204 0.054880194 -0.24731869 0.13218713 0.1061671 0.07239224 0.08419471
0.029223284 0.0061972355 0.08326302 0.2635289 -0.12598641 0.08190082 -0.13109884 0.06540251
-0.3483776 0.01447582 0.084853545 0.109949544 0.058541663 -0.28373492 -0.029287785 -0.18480335
-0.37853342 -0.72070116 -0.6236764 -0.8030958 -0.4329799 0.20229842 0.08969253 -0.6093855
-0.82262737 0.037225742 0.077699006 -0.45836538 0.154812 0.18045135 0.085368305 0.16757046
0.094704665 0.14463183 0.105677426 0.09238806 -0.66343236 0.10996202 0.04885558 -0.5420175
-0.5994089 -0.28193057 -0.1432036 -0.120076194 -0.5257841 -0.94186294 -0.7377761 -0.3664497
00000000: 681e 14bb bf9e 643e 207d 4f3c f550 3b3e
00000010: 578a 163e a4b3 a1be bdf6 8fbe 11e6 063e
00000020: ffd1 9e3d c3f2 cc3c a59c 8ebe 65e6 e03d
00000030: a70e 5ebe 48fa 73be 4c26 89be 749c 89be
00000040: be81 b1be 5ebe 083e aa30 88be 4262 4cbe
00000050: eff5 1c3e 6ff0 a5be 4c0f a93d 8622 063e
00000060: 728f 273e 848e 48bd 7dc2 0ebe 088a 40be
00000070: d647 f73d c318 0b3e 8b39 813d 379f 523e
00000080: 38d3 023e ec95 503e 4087 a73b 0adf 303e
00000090: d76a fe3d 1e48 30be d59a 34bd 7a85 f83d
000000a0: b9a6 893d a6ea 87bd 1c0d 1abe 05c5 c73d
000000b0: 14ee dbbc e5bf e3bd c47b 0abe d90d 723c
000000c0: ee61 29be 502c 4b3d b44b 07be 6d77 4f3c
000000d0: 1bca 143e 9a05 2fbe b294 2d3c 9e7f fd3d
000000e0: 3fcf 083e 68a4 b33d d9ba a03c 9afd 8fbd
000000f0: 73a5 e83d 32f5 fc3d 65ce 5c3d b8a4 403e
00000100: 99da 183e bff5 1b3e 4207 093b 9617 223e
00000110: d2cf 813d 2f25 a93b b7ea fc3b dfa1 b63d
00000120: d928 343d ce58 04be e9cf a2bd 1a24 743d
00000130: 7ef6 1f3d c963 bebd 2f4d 8ebd 0937 c33d
00000140: f59d 2abd 5ecb 4ebc 6461 89bd 3621 ef3d
00000150: 6025 023e a394 b6bd 853e 6abd a60f f73d
00000160: 68e3 703d 8097 f13d bde1 a93d 7064 583d
00000170: 2661 e13d e4d4 c33d 139b 453d 1d11 0d3e
00000180: d053 ff3d 1f38 573b 2b20 bcba 0ebd 0b3e
00000190: a7de 9ebd d314 123e bca8 d23c f42d 803b
000001a0: cff2 84bc 19e6 0ebe 0f12 82bb d8e6 45bd
000001b0: c102 b83d bc5d b1b8 a71b 583c f100 c03d
000001c0: da70 e93c 124c 28bd b33a 6c3c 3cfc 503e
000001d0: 32f5 b33d f710 d33b be49 13be 69ff ec3d
000001e0: 5e0d f5bd faaa e03d efd6 d73d 456c 1a3e
000001f0: 490c da3d a47f cb3c f436 2a3d cfb7 143c
00000200: b0bb 2fbd 8203 9cbe b414 4abd cc80 03bd
00000210: 8230 8abe d066 0b3e d90f 513d 4480 7fbe
00000220: 69c6 90be 4f8b a6bd 0eca 603d 1c41 7dbe
00000230: 105c 073e 236e d93d 6242 943d 476e ac3d
00000240: ab65 ef3c 2e12 cb3b cd85 aa3d 43ed 863e
00000250: 9502 01be 9ebb a73d c63e 06be c0f1 853d
00000260: 8c5e b2be fd2b 6d3c b2c7 ad3d 3a2d e13d
00000270: 62c9 6f3d b445 91be f0ec efbc 173d 3dbe
00000280: 22cf c1be df7f 38bf 42a9 1fbf b097 4dbf
00000290: 8baf ddbe 5127 4f3e b8b0 b73d b000 1cbf
000002a0: b597 52bf 057a 183d a820 9f3d deae eabe
000002b0: 0987 1e3e 3dc8 383e 94d5 ae3d 9797 2b3e
000002c0: 85f4 c13d 5e1a 143e 686d d83d f435 bd3d
000002d0: b4d6 29bf c433 e13d ca1c 483d a9c1 0abf
000002e0: dd72 19bf 3459 90be f7a3 12be 82ea f5bd
000002f0: c999 06bf ee1d 71bf e5de 3cbf 4c9f bbbe

layers.3.bias f4 [6]
-0.24125145 -0.23732974 -0.16699174 -0.018244319 0.40926892 0.70389086
00000000: 9f0a 77be 9106 73be e2ff 2abe 1c75 95bc
00000010: b28b d13e 3132 343f
