saved_model3.2.pth (torch, 417306 bytes, 10 tensors)

layers.0.weight f4 [512, 52]
00000000: ecbb 2b3b 6edb ce3e 4675 8ebe 7e1b 95be
00000010: c33a 333d 2183 96bc 02b6 cfbc 20a9 56be
00000020: cd21 013d b5b6 053e b57b f63d 40a5 5a3e
00000030: 0e37 11bf 6535 5f3f 18b1 0d3f 194f f5be
00000040: 65d8 98bb 138b 5fbe ce41 25be 0ee9 583e
00000050: f6c7 803e e9eb cbbe 8ef7 8f3e b33d 223e
00000060: a648 48be 621e b8bd d6c7 d9bd 783c f43c
00000070: 0a22 7dbc 397f 3f3d 714e f2bc ff6a dbbc
00000080: 7821 1e3e 288f 46be 921a b33d 9cba a6bd
00000090: c419 dfbe 53b2 b2be afd1 56bd 3469 41be
000000a0: f77b 69be 7954 adbd 6f95 44be fe01 7d3e
000000b0: c16b 003f c231 4fbe 5130 f8be bd85 4640
000000c0: 4d92 6c3f a352 013d cedc 21be 79ee d2bd
000000d0: fab2 353e 6be3 b6bd 677c 963e 7ae1 dbbe
000000e0: 980f 72bd 91c7 b73d 200e 963c d8a8 653e
000000f0: 0420 a7bc cc41 093e 1fa3 8abd 6b4f c6be
00000100: 4a82 543f f9e0 a6bf 5543 4bbf 0df5 103f
00000110: 85e3 84bf dfb8 0ebf 0656 80bd 5449 a03e
00000120: e061 d13e 90a3 873e f6db 44be 571d 26be
00000130: ff14 913e 73ea 5abd 1494 fc3d e6c9 5b3e
00000140: 8207 fa3d 5366 cc3d 1b11 0ebe 204f 1c3e
00000150: 1c86 863e be98 14be 639c 1e3d f4f4 25be
00000160: 9b01 40be 519d 2a3f 2c15 1b3f 7abe d23e
00000170: fdcb 87bf f5b9 7c3f bf69 60bd 9a2a 49be
00000180: f1af 28bb 4869 8f3f 2d70 773e bac8 453e
00000190: 3eae 183f 9480 a0bd 9a2f 89bd 2a5b db3d
000001a0: 06ed 9cbc 596e 033e 5553 60be d605 94be
000001b0: 673c 7d3e 6d66 433e 26d2 323d daac ccbd
000001c0: 18a2 2cbf 7a14 c93e 79f7 f4be 5e6e 4ebe
000001d0: 6300 8abe 6d26 c03e 5cc6 a63d 085f 8ebd
000001e0: a4a7 253e 3ad7 92be 209b 9abe f6e1 bebd
000001f0: 89e9 403f f62d 69be a464 d63e c0b0 223f
00000200: bafc febe 10fc 5cbe cd33 483e 4b76 b8be
00000210: 1bbb 9abe 7e6e 933e d363 293e a2b3 bdbe
00000220: 1258 753e c997 4e3d 40f6 303c 0c82 18bd
00000230: 624f 333e 0574 99be 6afe d2bd 5fbb 8fbb
00000240: 478f 1e3e b01b 31be a416 92be c039 a3be
00000250: 6753 bf3f 68cf 863f c1e1 843f bb08 10bf
00000260: a0cc d3bf 1043 423b 2e90 0ebe 0237 573d
00000270: bb3a ec3d 77cc c5be 8b96 ae3d 3e60 c73d
00000280: 3ab8 d7bd 2034 b4bd 322d 173f 6ad4 b13e
00000290: 4a13 05be 62a7 36be a41a 93be ec5b c3be
000002a0: ce40 d33e dfbd 26bf 3adb d2be ec76 e73e
000002b0: 4d8f 3d3d 4c7d 86bf 0eba fa3c d68f b93d
000002c0: 8077 4d3f 8bf5 1fbe e0b2 cd3e 6b60 1e3f
000002d0: 90d2 e1be c80c 4fbd bea3 0e3e 90dd 73bd
000002e0: 7be1 03be 2480 683e ce9d 46bd a286 b8be
000002f0: d5c3 aabd b346 bcbd 0e30 67bc b62c 68bb
00000300: 2049 d4bd 2a2c 983e 8143 153e f431 bb3d
00000310: e1c5 823e 7c30 c93d 468a e93d 20ea af3c
00000320: 85de a9bd b2b0 2ebf 0a79 0b3f 4e4d 173f
00000330: a9bb a23f 3c63 f33d d338 dbbd cf09 f23c
00000340: 136c a6bd 43de 2f3e 3bc2 e4bd 44f7 0abe
00000350: 0450 853e 4947 123e 0576 42be d595 2fbe
00000360: 7dc6 8fbe a74d e03e a38c 50be 24f1 9cbe
00000370: aaf9 203e f329 86be af40 9fbe a0cf 843e
00000380: 5482 86bf 7da3 8ebe 170f 093f 8871 803e
00000390: 8445 763e c8aa 083e c950 1fbe 141f 5b3c
000003a0: 6a7e b4be 2bbc 13bf 9895 08be d72c 1f3e
000003b0: 1b1a 2fbe 25a4 2f3d c20c 1f3e 3b7e 663c
000003c0: 8fc8 9f3e 888c 71bd a7b8 383d 5c4b 993e
000003d0: 418b 29bd 2609 3ebf 9d70 5bbe ddfa 63be
000003e0: 9292 cabe 793b 143e 087d 86bd 4fb7 3abb
000003f0: 368f 8abf c12f 24c0 e140 c03e 6763 9ebf
0.002620454 0.40401787 -0.27823848 -0.29122537 0.04375721 -0.018373074 -0.025355343 -0.20962954
0.031526376 0.13057978 0.12035314 0.213521 -0.5672463 0.8719085 0.5534835 -0.4791191
-0.004664468 -0.21830396 -0.16138384 0.21182653 0.25152558 -0.39828423 0.28118557 0.15843849
-0.19558963 -0.0899017 -0.10633819 0.02981399 -0.01545001 0.04675219 -0.02957842 -0.026784418
0.15442455 -0.19390547 0.08745302 -0.08141062 -0.43574345 -0.34901676 -0.052446064 -0.18887788
-0.22801195 -0.084633775 -0.1919763 0.24707791 0.5016442 -0.20233825 -0.48474362 3.1019127
0.9241074 0.03157295 -0.15806887 -0.10299391 0.17744055 -0.08930095 0.29391786 -0.42945462
-0.059096903 0.08973611 0.018317282 0.2242769 -0.020401008 0.13404006 -0.06769394 -0.38732466
0.83011305 -1.3037406 -0.79399616 0.5662392 -1.0381933 -0.5575084 -0.06266408 0.31305945
0.40894985 0.26491976 -0.19224533 -0.1622213 0.2833633 -0.053446244 0.12332931 0.21463737
0.12208463 0.09980454 -0.13873713 0.15264559 0.26274192 -0.14511392 0.03872336 -0.16206723
-0.18750612 0.66646296 0.6057918 0.41160947 -1.0609127 0.9872125 -0.054788347 -0.19645157
-0.0025739635 1.1204004 0.24163885 0.19314852 0.5964087 -0.07837024 -0.066985324 0.107107475
-0.01915599 0.12835063 -0.21906789 -0.28910702 0.24730073 0.19082041 0.043657444 -0.09993906
-0.67434835 0.39273435 -0.47845057 -0.20159289 -0.2695342 0.37529317 0.08143303 -0.069517195
0.16177231 -0.2867983 -0.30196476 -0.093204424 0.75356346 -0.22771439 0.41873658 0.6355095
-0.4980219 -0.21580529 0.1955101 -0.3602775 -0.30220875 0.28795236 0.16541986 -0.3705111
0.23959377 0.050437722 0.010800898 -0.037233397 0.17510751 -0.29971328 -0.10302432 -0.00438635
0.15484343 -0.17295718 -0.28532898 -0.31879997 1.4947327 1.0532045 1.0381395 -0.5626332
-1.6546822 0.0029642023 -0.13922188 0.052542694 0.115346394 -0.38632557 0.085248075 0.097351536
-0.10533185 -0.087990046 0.5905334 0.34732372 -0.1299564 -0.17837289 -0.28731263 -0.38156068
0.4126038 -0.6513347 -0.41182882 0.45207918 0.04627924 -1.0506988 0.030606296 0.09060638
0.8026047 -0.15621011 0.40175533 0.6186587 -0.4410596 -0.0505493 0.1392965 -0.05953747
-0.12878983 0.22705132 -0.048490338 -0.36040217 -0.08338133 -0.09193172 -0.014110578 -0.003542704
-0.1036551 0.29721195 0.14576532 0.09140387 0.25541595 0.09823701 0.11403327 0.021473944
-0.08294395 -0.68238366 0.54481566 0.5910233 1.2713519 0.11884162 -0.10704198 0.029545693
-0.08126082 0.1717463 -0.11169859 -0.13570887 0.2603761 0.14285006 -0.18990333 -0.17147
-0.28081122 0.43809244 -0.20366149 -0.30652726 0.1572024 -0.2620388 -0.31104037 0.25939655
-1.0508523 -0.27859107 0.5353865 0.25086617 0.24049956 0.13346398 -0.15558161 0.013374109
-0.35252696 -0.57708997 -0.13338315 0.15544449 -0.17099802 0.04288115 0.1553221 0.014068182
0.31207702 -0.05897191 0.045097973 0.29940307 -0.04139257 -0.7423271 -0.21429677 -0.22263665
-0.3956495 0.14475812 -0.065668166 -0.0028490608 -1.0824955 -2.5654147 0.375495 -1.2374085

layers.0.bias f4 [512]
00000000: 39ad f8bf 575d 1abe 012c d3bf 4ea2 f2bf
00000010: b632 62bf 3bbc 97bf d4b9 93bf ad96 e0bf
00000020: 326c d3bf 915f b0bf 5c52 66bf 3ec0 d1bf
00000030: 49bd d1bf 0b29 c1bf c4c8 d3bf 10a7 b1bf
00000040: 2180 b5bf ed0b c6bf cdd3 a9bf 98cd 8fbf
00000050: 373b 92be f66c e8bf 8629 ccbf 993a 96bf
00000060: 7377 c4bf dabe d6bf 7a35 73bf c80a 6cbf
00000070: e1b4 a2bf 6f3e 36bf 93e4 eabf 4062 9fbf
00000080: a628 f1bf 78b6 d5bf 1f2a 80bf 8183 b6bf
00000090: 3a7e bebf efc9 c3bf a3f2 2fbf 4d75 88be
000000a0: 00ae 95bf f0ec 9abf cdf7 75bf 4d32 aebf
000000b0: 350c dabf 75c3 babf 5083 c6bf f6b0 9abf
000000c0: 67f8 dabf 9937 bdbf 6009 c3bf e9ab 97bf
000000d0: 124e 9bbf 59df b8bf 2503 afbf 1eb8 a3bf
000000e0: e149 88bf 2a0c 94bf 20c8 8ebf f3a3 d4bf
000000f0: 81a5 b4bf 513e cfbf e1a4 b9bf 6260 e9bf
00000100: 1a50 42bf 8d55 c1bf 229a f3bf 8904 9bbf
00000110: 8a98 ccbf 5840 c4bf 484f bfbf 7c74 9bbf
00000120: 5873 30c0 4746 d1bf 7a59 d4bf dba4 dbbf
00000130: e229 22bf 9de9 cabf 91f2 cdbf e8e6 cfbf
00000140: 9135 95bf 9055 c6bf 7bb9 91bf faee afbf
00000150: e586 d3bf 9530 bdbf 9582 c6bf 0a75 b8bf
00000160: 8480 bdbf 676b 9cbf a0c1 c2bf 27f8 afbf
00000170: 6413 87bf bfb6 8fbf ced0 c2bf ad96 d0bf
00000180: 44df 05be b52f 72bf 2a71 c6bf 4436 c3bf
00000190: b125 e0bf 91aa dbbf b288 babf 228a 8fbf
000001a0: 2748 bfbf 9523 c7bf eb41 d4bf 2505 b2bf
000001b0: 2ef5 cabf 2597 9cbf df3a c9bf d4b2 0cbf
000001c0: c581 a9bf 7161 9ebf 91c7 38bf 4fed 9cbf
000001d0: fd6d bcbf 4f66 b7bf b874 fcbf e2cc f1bf
000001e0: 76c3 d4bf 5f3d a0bf 7e1e c3bf a287 b1bf
000001f0: 231f d9bf 7136 f9bf c3d2 00be b0df ebbf
00000200: e308 60bf f41d c2bf 5e6a 81bf f092 b3bf
00000210: b96d 9dbf 579d 8bbf 7caa aebf 0c8f 93bf
00000220: 5a7d bfbf 3aef d1bf 1626 c3bf 8dc9 5cbf
00000230: a899 bcbf d1db c2bf 8337 2bbf 9628 92bf
00000240: 7507 a9bf 7a52 7cbf 93df bbbf e224 afbf
00000250: e3e1 0fc0 7d92 d3bf 5552 83bf 465e e5bf
00000260: b4d5 29be 2542 b2bf fd56 c6bf 616b d6bf
00000270: a799 91bf b1fd 76bf ebae f7bf 6e04 c6bf
00000280: 2478 c6bf cb5d 93bf dc7b 8dbf 1b88 99bf
00000290: 27ea b7bf e7cc 89bf c2d0 c5bf 6fe5 1cc0
000002a0: 555f 9abf 6886 80bf e46d 6ebf 0d15 03c0
000002b0: 65e4 5bbf c5b3 11bf 930f f7bf 8be4 74bf
000002c0: e85b c3bf 7dcf 45bf d674 adbf c96a cabf
000002d0: c615 c7bf 9325 04c0 d969 dfbf a1f0 b0bf
000002e0: 6742 c2bf 7dbf 0cc0 d403 2cbf 9bb2 29c0
000002f0: cda0 c7bf 78fa 19c0 6227 d5bf 75b7 8cbf
00000300: 9da7 e0bf 7ea0 f2bf 8c56 c4bf bdc8 01c0
00000310: 7dc3 d7bf 12c7 dabf 76bd a7bf 1594 a8bf
00000320: 9c93 bfbf ab2a c4bf 7c3f 7ebf 359e 97bf
00000330: 4961 b7bf 4523 cebf b2bc adbf 0f8d dfbf
00000340: e05f 92bf dba3 e5bf 7477 d0bf c30c a1bf
00000350: f186 c3bf 6f43 b5bf cd7c 98bf 8817 04c0
00000360: c58f 97bf f282 c0bf f6a0 37bf 31c1 f6bf
00000370: 99fb 3cbe afc4 afbf 5da0 9cbf 5db1 a3bf
00000380: 3605 d1bf 7db6 b2bf 9c81 bbbf 0a14 a2bf
00000390: f4aa 9abf 2e2a 7dbf 3ce0 cbbf c399 b3bf
000003a0: 2401 d0bf eb14 e7bf ac27 d5bf 6015 bfbf
000003b0: 022a bdbf 6c93 56bf 5c95 bdbf 474e c1bf
000003c0: 12d7 7abf a806 92bf fa14 96bf 4485 84bf
000003d0: 48de 8ebf 8ed0 92bf a92d ccbf b2e7 8ebf
000003e0: 251a 46bf 81f7 debf 6c42 aebf 87bf eebf
000003f0: c1b9 8abf 8a63 e3bf 8e61 d2bf 7551 ecbf
-1.9427863 -0.15074669 -1.6497804 -1.8955781 -0.8835863 -1.1854318 -1.1541085 -1.7545983
-1.6517394 -1.3779165 -0.8996942 -1.6386793 -1.638589 -1.509065 -1.6545644 -1.3879108
-1.4179727 -1.547239 -1.3267761 -1.1234617 -0.28560802 -1.8158252 -1.5950172 -1.1736633
-1.5348953 -1.6776993 -0.95003474 -0.9220395 -1.271145 -0.71189016 -1.8351005 -1.2451859
-1.884053 -1.669631 -1.0012854 -1.4258882 -1.4882271 -1.5296 -0.6872961 -0.26651993
-1.1693726 -1.2103558 -0.9608124 -1.36091 -1.7034975 -1.4590899 -1.5508823 -1.2085254
-1.7107056 -1.4782592 -1.5237236 -1.1849338 -1.21332 -1.444316 -1.3672835 -1.2790563
-1.0647546 -1.1566212 -1.1154823 -1.6612533 -1.4113008 -1.6190892 -1.4503442 -1.8232539
-0.75903475 -1.5104233 -1.9031413 -1.2110759 -1.5984051 -1.5332136 -1.494607 -1.2144923
-2.75704 -1.6349572 -1.6589806 -1.7159685 -0.6334516 -1.5852543 -1.608965 -1.6242342
-1.1656972 -1.5494862 -1.1384729 -1.3744805 -1.6525542 -1.4780451 -1.55086 -1.4410717
-1.4804845 -1.2220277 -1.521534 -1.3747605 -1.0552793 -1.1227645 -1.5219972 -1.6295983
-0.1307345 -0.94604045 -1.5503285 -1.5250936 -1.7511503 -1.7161428 -1.4572966 -1.121403
-1.4943894 -1.5557734 -1.6582617 -1.390782 -1.5856073 -1.2233626 -1.5721091 -0.5496037
-1.3242728 -1.2373487 -0.72179514 -1.2259921 -1.4721066 -1.4328097 -1.972312 -1.889065
-1.662215 -1.2518729 -1.524368 -1.3869517 -1.6962627 -1.9469739 -0.12580399 -1.8427639
-0.8751356 -1.5165391 -1.0110586 -1.4029217 -1.229911 -1.0907391 -1.3645778 -1.152803
-1.4960129 -1.6401131 -1.5245998 -0.8624504 -1.4734392 -1.5223333 -0.6688158 -1.1418636
-1.3205401 -0.9856335 -1.4677604 -1.3683131 -2.248162 -1.652908 -1.0259501 -1.7919395
-0.16585428 -1.3926436 -1.5495297 -1.675152 -1.1375016 -0.9648085 -1.9350256 -1.5470102
-1.5505414 -1.1512998 -1.1053424 -1.1994661 -1.4368333 -1.0765656 -1.5454333 -2.4515035
-1.2060343 -1.0041018 -0.9313643 -2.0481598 -0.8589538 -0.5691493 -1.9301628 -0.9566123
-1.5262423 -0.77269727 -1.355128 -1.5813838 -1.555352 -2.0647933 -1.7454177 -1.3823434
-1.5176514 -2.1991875 -0.6719334 -2.6515262 -1.5595948 -2.4059124 -1.6652644 -1.0993487
-1.7551152 -1.8955228 -1.5338912 -2.027877 -1.6856533 -1.7092001 -1.3104694 -1.3170191
-1.4966922 -1.5325521 -0.9931562 -1.1845156 -1.4326564 -1.6104513 -1.357321 -1.7464923
-1.1435509 -1.794063 -1.6286454 -1.258202 -1.5275556 -1.4161204 -1.1913086 -2.0639362
-1.184075 -1.5039961 -0.7172998 -1.9277707 -0.18455352 -1.3731898 -1.2236439 -1.2788502
-1.6329715 -1.3961941 -1.4648929 -1.2662365 -1.2083421 -0.98892486 -1.5927806 -1.4031299
-1.6250348 -1.8053259 -1.6652732 -1.4928398 -1.4778445 -0.838187 -1.4811206 -1.5102013
-0.9798442 -1.1408281 -1.1725152 -1.035317 -1.1161585 -1.1469896 -1.5951434 -1.1164458
-0.77383643 -1.7419282 -1.361402 -1.86522 -1.0837938 -1.7764752 -1.6436021 -1.8462359

layers.1.weight f4 [128, 512]
00000000: 3262 833c e392 9f3c f72d 743e 9210 05c0
00000010: d09b 36bc f1ef 003e a8fa 683d a9ea 2d3d
00000020: 4f6d 5cbe e737 fc3d a603 bebf 77f1 5e3e
00000030: edb4 cebd a220 903d e63e a3bf b8df 35be
00000040: ca0d 703c 0741 263e 0ac6 bebe 400b 9fbd
00000050: e5d4 933c df3b 1d3f d07a 173e 0a4e 7bbd
00000060: 3c1a 03c0 3f14 09be dddf cb3d 7de3 e1bc
00000070: b933 7cbf b572 80bf b015 16be eebd 34bd
00000080: 124d a63e bd20 1f3d 9180 bcbf b300 c7bd
00000090: 15f1 7ebe e9aa d93d 1fa1 24bf cfc5 29bf
000000a0: 1cdc 36be efd3 0abf 360e 703f 184c 253d
000000b0: 6aee b8be 2391 073e 938b a2be 71fd 8cbf
000000c0: 9a6f 65be 96de 71bf 0f7d 3a3d 0526 50bf
000000d0: 4e6c d5bd dc51 54ba 21e2 babe 4ece 603e
000000e0: 9495 94be 4e06 f73c aeb3 6dbf 7c52 c13e
000000f0: 202e 83bf 36ea 253c 70cd 623d c926 3e3e
00000100: 79ba dc3c b6b5 33bf 5528 8b3d 2236 c53d
00000110: 3ed4 b03c d52f a0bb 8eb5 bd3e 9ef0 57bf
00000120: 6e4c eabf 240e 5bbd e417 9bbe af5d e4be
00000130: 8440 51be d761 293c a8fb a23d 0410 aebd
00000140: c68b 0d3f 195e 4cbd fbd0 7dbf 93df 733e
00000150: fb9d cbbd 5fc9 89be d819 613e c615 9b3e
00000160: 34c0 e23e 3768 efbd 2ce5 a9be 1b01 a6bf
00000170: 2eed dbbe ce63 513f f139 ecbf 4898 88bc
00000180: fb91 2b3c e04c 243d e467 4c3d 4355 213e
00000190: 89aa f73d 7978 813e 5f85 1f3e 89c4 9d3d
000001a0: 4f55 553e e584 5e3c e551 17be 6d3a 883d
000001b0: bf02 003a 2e3d 8b3d 9567 353e 3473 00c0
000001c0: b9ce 53bd 626c 533e 884e c83c 9ed2 a13d
000001d0: eb44 24be 6633 ccbd 0f39 6dbe bce5 b53e
000001e0: b7e1 8b3c df65 a93d 73e7 7b3d b72d 0ebe
000001f0: 1ba6 593e 2dc9 03bf 9dac 05bd 2aab fb3e
00000200: 86c2 293e d210 27bf 3015 473d 5238 833e
00000210: 9606 a7be 7879 bcbd bd54 4f3d 80d5 d9be
00000220: e4dd 87be 7581 ca3e acdf 9f3e fdf1 593c
00000230: 6e3b 08be 1be9 a13d aeb8 7ebd eca8 163e
00000240: 17ee 083f 67b3 6a3d c7db d4bb 3f45 e2be
00000250: e89c 2abf 8fa4 723d aa7a 64bd b1fd 303d
00000260: 0aca c3bc fb20 d83d 2da0 9dbc ef58 d6be
00000270: cc5b 8e3d a37e dbbe ea04 61bf 6e1c 7a3f
00000280: cc32 e53c 0b46 bbbe 3992 26bf 0c68 a4bf
00000290: a928 cf3d 9b9d e83c 2f03 0cc0 e0b7 bfbe
000002a0: 5809 a5be 7bb5 a8bb 8a74 073c 7014 1ec0
000002b0: b888 1e3e e3e0 ddbf bb47 c4bf faba 4b3d
000002c0: d1fa bbbf dcc4 5e3c c8df a13d e962 01be
000002d0: 2d82 aebd 14a5 1f3e 44be 0f3e 6ecc b73d
000002e0: b2ac 84bf f1a5 78bf f14d b9bf 41c9 e8bf
000002f0: 360e 373e 1e93 19c0 c7b2 a33e aa91 863b
00000300: fd3f bcbf c0b0 8ebf 1b99 cc3e 703b 2d3e
00000310: 5121 b5bf 9557 7abf 7e95 0cbf 70a5 3fbf
00000320: 0531 2d3e fa59 f13d 5862 903c bde1 13c0
00000330: 1b2b f9bb f4f1 fc3d fd8e af3c 8346 2b3e
00000340: c372 7dbf 7494 7fbc 7a17 263f e84c 9abe
00000350: b840 223e 73e7 2bbd bc34 19bf 1a2a 543c
00000360: f466 6bbe 6a82 0a3e fe07 e43c 0cdf 15c0
00000370: c201 32bc 864b 46bf 43a2 463e 21df 3bbe
00000380: 19c5 303d 3179 0f3e df1b 5cbd 8938 febe
00000390: d4a1 293e 37d4 f73c 965b 733e d301 e6bf
000003a0: d5c9 6dbf b991 63bf ab10 123e f57d e4bf
000003b0: 4ba4 4fbe f3f4 3ebd d6d5 53be 53c9 fcbe
000003c0: b6c3 3bbd 6df0 19bf 7c36 963e 573e 7d3d
000003d0: 9569 c4bd 7c96 3ebc e5cb f5bf eafa 4c3d
000003e0: a65e 68bf 2270 98bf 70cd 963d e9e1 c63d
000003f0: 6c86 c23c 13f1 223f 195d 4dbf 3d9b dcbe
0.016038034 0.01947922 0.23845659 -2.0791364 -0.011145547 0.1259153 0.05687967 0.042460117
-0.21526073 0.1231535 -1.4844863 0.21771799 -0.100931026 0.07037474 -1.275357 -0.17761123
0.014651725 0.16235743 -0.37260467 -0.07765818 0.018045852 0.6141948 0.14792943 -0.06135372
-2.0484762 -0.1338663 0.09954808 -0.027574295 -0.9851642 -1.0035006 -0.1465671 -0.044126444
0.32480675 0.03884958 -1.4726735 -0.0971693 -0.24896653 0.10628302 -0.6430835 -0.66317457
-0.17857403 -0.54229635 0.93771684 0.04035577 -0.36119395 0.13238959 -0.31747112 -1.1014844
-0.22405854 -0.94480264 0.04552942 -0.81308013 -0.10421048 -0.0008099356 -0.36500648 0.21953699
-0.2902037 0.030154373 -0.92852294 0.37758243 -1.0248451 0.010126641 0.0553717 0.18569483
0.026944386 -0.70199144 0.06794802 0.09629466 0.02158558 -0.0048885145 0.37052578 -0.8435153
-1.8304574 -0.053480282 -0.30291665 -0.44602725 -0.20434767 0.010338268 0.07958156 -0.084991485
0.552914 -0.049894426 -0.99147004 0.23815756 -0.09942242 -0.26911446 0.21982515 0.3029005
0.44287264 -0.11689799 -0.33182657 -1.2969087 -0.4295439 0.81792915 -1.8455182 -0.016674176
0.010471816 0.040112376 0.049903765 0.15755181 0.12093074 0.25287226 0.15578221 0.07703502
0.20833324 0.013581489 -0.14777334 0.06651769 0.00048832217 0.067987785 0.17715295 -2.0070314
-0.051710818 0.20646814 0.02445151 0.079015 -0.16041915 -0.09970741 -0.23166297 0.35526836
0.017075403 0.082713835 0.061500024 -0.13884626 0.2125477 -0.51478845 -0.03263532 0.49154025
0.16578111 -0.6526004 0.04860419 0.25628906 -0.32622212 -0.09202856 0.050617922 -0.425457
-0.26536477 0.39551893 0.31225336 0.013302323 -0.1330392 0.079057895 -0.062187843 0.14712876
0.53488296 0.057299998 -0.006495926 -0.44193456 -0.6664567 0.059238967 -0.055781044 0.04321069
-0.02390005 0.105531655 -0.019241417 -0.41864726 0.069511026 -0.42870054 -0.87898123 0.9769963
0.027978323 -0.36576876 -0.6506687 -1.2844253 0.10115177 0.028395465 -2.1876943 -0.37444973
-0.3223369 -0.0051485873 0.008267531 -2.4699974 0.15481842 -1.7334255 -1.533439 0.04973886
-1.4685918 0.01359674 0.07904011 -0.12635387 -0.08520923 0.15590316 0.14037424 0.08974539
-1.0365202 -0.97128206 -1.4476911 -1.8186418 0.17876515 -2.3996043 0.31972334 0.00410672
-1.4707028 -1.114769 0.3996056 0.16917205 -1.4150792 -0.9778989 -0.54915607 -0.7486181
0.1691323 0.1178474 0.017625019 -2.310653 -0.0076040155 0.123508364 0.021430487 0.16726117
-0.9900324 -0.015599359 0.6487957 -0.301368 0.15845 -0.041968774 -0.5984609 0.012949491
-0.22988492 0.13526312 0.027835842 -2.3417387 -0.010864677 -0.7745899 0.19397835 -0.18346836
0.043156717 0.14011075 -0.053737517 -0.49652508 0.16565639 0.03025256 0.23765406 -1.7969307
-0.92886096 -0.8889423 0.14264171 -1.7850939 -0.20277517 -0.04662032 -0.2068704 -0.49372348
-0.04584094 -0.60132486 0.29338443 0.06182703 -0.09590451 -0.011632558 -1.9202849 0.050043978
-0.9076942 -1.190922 0.07363403 0.09711058 0.023745738 0.636491 -0.8022018 -0.43087187

layers.1.bias f4 [128]
00000000: ea1e 093d bbd5 533f 67a0 ad3e ed63 a13e
00000010: 6f7c 763e dd46 873e 40da 82bf 7f52 4dc0
00000020: 0263 b83e 11c6 e93e de2d 71bf 6e9f 653f
00000030: 8fd4 abbf 093d 94be d29d fcbf 2696 9ebe
00000040: 5809 1dbf bb13 e03e 4519 42be d540 063f
00000050: 39ce d53e 4681 8d3e fe92 ab3e 7eb1 61c0
00000060: 9168 0fbf 4b8e 3a3f 585f 663e cd2e 2bc0
00000070: bfe8 453f ea38 833e 62ce 81bf 8ba8 263e
00000080: c35a e73e 6df5 8f3f 6736 ffbc 2c17 bf3f
00000090: 2960 0dbe 85e7 903e 827e dd3e 886b e23e
000000a0: 6960 a6bf 9220 023f 2805 9d3f 65af d1bf
000000b0: 495c 88be 3769 f93e 7c3b 1bbf 3f5c cc3e
000000c0: 3204 403e 90f9 04c0 915e bc3e e1fd 4abf
000000d0: 955a d7bf a7fe e13e 867e adbf d37d 80be
000000e0: 29ae 033f 2184 98be 812d 7c3e 46f3 0b3c
000000f0: 9a91 083f 5354 05c0 3be0 aa3d bd40 e0bf
00000100: 8552 5b3f 1968 c8be 349e 4a3f fe8b e23e
00000110: b993 80bf 422f e73e ea55 2a3f 8f13 ac3e
00000120: d9e3 503e 027d 0cc0 f090 adbe d06d 98be
00000130: 6b22 f53d 613b 0ec0 b424 4c3f 16ed 4dbf
00000140: 42d3 773f 99ae 88bf d511 f4bd 1e38 d5be
00000150: 1969 533e 4119 a93e 39f2 2e3d b3e6 a53f
00000160: e328 bdbf 0136 56bf 1fea b3bf 431a b5be
00000170: b0a4 b6be 32cb 6bbe f78d 8b3f c0f8 093f
00000180: 66f5 1e3f 92fd ddbf cf78 dfbf ce9c d43e
00000190: bbe0 b23e b329 293f e74c 053f 8880 e3bd
000001a0: 7796 f03e 647a 1cbf 66f6 c63e a063 963f
000001b0: a229 15bf 4e69 0bc0 5727 a63e fedf 70bf
000001c0: 0c88 12c0 af6d 433f 2e51 efbd b56d bebe
000001d0: 9314 8f3e 59cf e53d a51a 9a3f 42e4 e33e
000001e0: f7e6 a9bf 8056 ee3e 5049 ca3d 1800 b0be
000001f0: 3781 2a3f d053 503f 1e43 3ac0 6390 3e3e
0.033476748 0.82748 0.3391144 0.3152155 0.24070905 0.26421252 -1.0222855 -3.2081602
0.36013037 0.45658925 -0.9421061 0.89696395 -1.3424243 -0.28952816 -1.9735663 -0.3097393
-0.6134238 0.43765053 -0.18954952 0.52442676 0.41758898 0.2763769 0.33510584 -3.5264583
-0.5601893 0.7287337 0.22497308 -2.6747315 0.7730827 0.2562936 -1.0141108 0.16275232
0.45186433 1.1246773 -0.03115387 1.4928946 -0.13806213 0.28301635 0.4326058 0.44222665
-1.2998172 0.5083095 1.2267199 -1.6381651 -0.26632908 0.48713085 -0.6063764 0.39914128
0.187516 -2.077732 0.36790898 -0.7929364 -1.6824518 0.44139597 -1.3554237 -0.25095996
0.5143762 -0.29788306 0.24626733 0.008541888 0.5334717 -2.0832717 0.0834355 -1.7519757
0.8567279 -0.3914192 0.7914765 0.4424743 -1.0045081 0.45153242 0.66537344 0.33608672
0.20399417 -2.1951299 -0.3389964 -0.2977128 0.11969455 -2.2223742 0.79743505 -0.8043989
0.9680673 -1.0678283 -0.11917464 -0.41644377 0.2064556 0.3302708 0.04271147 1.2961029
-1.4778103 -0.83676153 -1.4055823 -0.353716 -0.35672522 -0.23026732 1.0902699 0.5389519
0.620932 -1.7343009 -1.7458743 0.41525882 0.3493708 0.6607925 0.5207047 -0.111085
0.46989796 -0.61124253 0.38859862 1.1749153 -0.5826665 -2.1783023 0.3245189 -0.94091785
-2.2895536 0.7633924 -0.11685406 -0.37193075 0.27945384 0.11221189 1.2039381 0.44510084
-1.327361 0.4655037 0.098772645 -0.34375072 0.66603416 0.8137789 -2.9103465 0.18609767

layers.2.weight f4 [64, 128]
00000000: 1177 4a3e 1814 d9be 343f aabf dcb7 103e
00000010: c2a1 d03e 6aad 02be af60 fc3b 3621 b4be
00000020: 5f69 96bf d565 acbd f4ab fc3d 57a4 29bf
00000030: cdca 28be b2e3 f23d ed94 1ebc de18 36bc
00000040: efc4 31be a2e7 66be 5c6c c13d 1f43 87be
00000050: dc4b 87bc e53f 09bf 6e23 5ebd 91a0 483e
00000060: d1f9 9b3e e8fc 99bd d053 2abf e4c6 b03d
00000070: 55de 0bbe 04ff a1be 5af0 863e 638f 0dbf
00000080: 26e5 673d c45c 36bd 2381 97be 8e99 b63c
00000090: 83a3 603e e080 41bf cf45 08bf 6869 273e
000000a0: d57f 893e 8013 6ebf 47bd aa3e 8e2c a63d
000000b0: df31 af3d abc0 983d fb46 b93d be5f bb3d
000000c0: 9a8c 4fbd d4f8 aabf 9396 44bf 199a 093e
000000d0: a983 1f3e 2a6c 93be a02f 15be 3d26 a83e
000000e0: c6f8 a73d 077b 00be 0570 833e cd03 03bf
000000f0: 185f 94be 1878 2dbc f37c 35bf c90d 44bc
00000100: 5b6c 98be e0e7 13bf 7048 56be b03c b53e
00000110: 6750 9bbf 330a 50be 5b6a 18bf 5e4c 59bf
00000120: fbba 0cbe 3316 25be da99 2e3e 90fc 833d
00000130: b207 8abf a716 9c3d 8409 fcbd a351 ce3c
00000140: 7113 95be a9ab 5cbf 9d02 9a3d f517 713e
00000150: b1de a1be 8006 583e b2a6 bb3d fefd 32be
00000160: 2825 723d 5784 6dbf 1610 803d 2ba0 b83c
00000170: 7050 cb3d d923 bbbe 7007 13bd 12bb 04bf
00000180: b24c 65bc 331d c9bc 166c 96bd e4a7 6d3e
00000190: 6a64 39bf d6fa 393e 2d0c 86be 806e 5bbd
000001a0: c748 3abe 16d3 5cbe 2f63 9dbe 5863 a2be
000001b0: c6a1 83be 9c8a a43d 52d0 49be 4dfa efbe
000001c0: 55a4 0f3f 27a6 00be 2d05 cb3d 9372 953e
000001d0: 52eb 123f ba98 7dbe cf2a 9fbd eebf 4cbf
000001e0: 34af 503d df41 263e af20 02bf 040e 813d
000001f0: 028d 2f3f 0082 6fbe 1069 b9bc 1fc4 60bd
00000200: 494b 813e c46f c7bf 4881 8abe 5bf3 023e
00000210: 809e febb 3ccb 6cbd 1595 b4bc c959 7ac0
00000220: 7af8 4dbf 1ca7 83c0 a6e6 a53d 105b f23d
00000230: 3c79 a1be ba9f d73c db65 1cc0 e9c7 d03d
00000240: bdfe 49bf fd67 ecbe 9990 2a3e 5052 06c0
00000250: b147 9cbf 248e c6bf 28f5 fabf 703f 053e
00000260: f152 0b3d aa1a 89c0 bfdc 2bbf fb34 9f3d
00000270: 2154 a83d a685 8abe eb9e 703d a339 1ec0
00000280: 6e1e 7b3c 99d8 87c0 91d7 74bd fa89 893d
00000290: 81e2 66bc 892b 22bf a340 15c0 ef41 fa3d
000002a0: 35f1 113f e264 2dbf d1ca 493d 8d40 953d
000002b0: 8219 013e 3e4e 5a3c d79a c5bd 18c7 aabd
000002c0: 23f8 823d b2c5 1dbf acfa 55bf 467f 84bc
000002d0: 92d7 c3bb 2cbc 31c0 c3a8 0c3e ac65 2e3e
000002e0: 4eb3 9c3c bf1d 1c3d 5226 abbd 211a 61bf
000002f0: b934 70bf 2792 5fc0 24c0 f8be 65f9 59c0
00000300: a637 303d 2e55 bcbe 8afc 52c0 ad50 c33c
00000310: 6e69 1ebe 6e1b 02c0 0137 bbbf 301a febf
00000320: c518 14c0 7099 23c0 1a32 433e a2e8 c73d
00000330: b35c 6fbf db79 833d 88e5 bfbf d712 4b3c
00000340: aaf6 04c0 ced3 cbbd 26c2 913d bdf8 4a3e
00000350: 7df2 4bbe 951c e73d 652b 603e c6c3 21bd
00000360: a80f 0bbe 8b43 b4bd 6abe c13c 35a7 ad3b
00000370: f5db a83d 862a 10bf 3e70 82c0 8b37 dcbf
00000380: 1c2b 043d 781b b3bf 134a 58bf efed 1d3e
00000390: 42bb 1ac0 46ff 5c3d e54b 94bf adbd 27bd
000003a0: 5ba4 03c0 5a11 d4bf f66c 5bc0 8d0e 1ac0
000003b0: b98a c2bf bc6e 9a3d fb77 ddbe c280 bdbe
000003c0: 7798 523e fe9f 2cbd 6925 a63e 5b17 b43e
000003d0: 7c03 a53c eac7 29c0 2a07 6bc0 9824 e8be
000003e0: 8bdc ce3c ab12 293d ca41 11bf 09ca 2c3c
000003f0: 035e d83e a821 53bf 1952 38c0 79ab 183d
0.19771983 -0.42398143 -1.3300538 0.14132637 0.4074841 -0.12761465 0.0077019553 -0.35181588
-1.1750907 -0.084178604 0.12337485 -0.6626639 -0.16483612 0.11859836 -0.009679061 -0.011114327
-0.1736028 -0.22549298 0.09444496 -0.26418397 -0.016515665 -0.5361312 -0.054233007 0.19592501
0.30464032 -0.07518941 -0.6653414 0.086316854 -0.13659032 -0.31639874 0.2635525 -0.55296916
0.056615017 -0.044522062 -0.2959071 0.022290017 0.21937375 -0.7558727 -0.5323152 0.16348803
0.2685534 -0.92998505 0.33347532 0.08113967 0.08554434 0.074586235 0.090467416 0.09149121
-0.050671197 -1.3357186 -0.7679226 0.1343769 0.15577568 -0.2879346 -0.14568949 0.32841673
0.08201747 -0.12546931 0.25671402 -0.51177675 -0.289788 -0.010587715 -0.7089378 -0.011966177
-0.2977017 -0.5777569 -0.2092607 0.35397863 -1.2133912 -0.2031639 -0.59537286 -0.8488215
-0.13743202 -0.1612175 0.17050877 0.06444657 -1.0783598 0.07621508 -0.123065025 0.025185412
-0.29116395 -0.8619943 0.0752003 0.23544295 -0.31615213 0.2109623 0.09162654 -0.17479703
0.059117466 -0.9278006 0.06253068 0.022537312 0.099274516 -0.36550787 -0.035895765 -0.51847947
-0.013995336 -0.024550056 -0.073448345 0.23208576 -0.72418845 0.18162093 -0.26181164 -0.053572178
-0.18191825 -0.21564898 -0.30739734 -0.31716418 -0.2570936 0.0803425 -0.19708374 -0.46870652
0.56110126 -0.12563382 0.099130966 0.29188976 0.5739032 -0.24765292 -0.07771837 -0.7998036
0.050948337 0.16236065 -0.5083112 0.063015014 0.68574536 -0.23389435 -0.022633106 -0.054874536
0.2525275 -1.5580983 -0.2705176 0.12788145 -0.0077703595 -0.057811007 -0.022043744 -3.91173
-0.8045727 -4.114149 0.08100633 0.11833775 -0.31537807 0.02632128 -2.4437168 0.1019438
-0.78904325 -0.46173087 0.16656722 -2.098774 -1.2209378 -1.5512128 -1.9606066 0.1301248
0.034014646 -4.284505 -0.67133707 0.07773777 0.08219171 -0.2705509 0.058745306 -2.4722679
0.015327079 -4.24519 -0.059775893 0.0671577 -0.014092089 -0.6334768 -2.33207 0.12219607
0.5700868 -0.6773206 0.049265686 0.07287703 0.12607387 0.013324318 -0.09648674 -0.08338755
0.063949846 -0.61629784 -0.8358562 -0.01617397 -0.0059766257 -2.77711 0.13736252 0.17030972
0.019128468 0.038114306 -0.083569184 -0.87930495 -0.9383045 -3.4932954 -0.48584092 -3.4058468
0.04302182 -0.36783737 -3.2966638 0.02384218 -0.15469906 -2.0329242 -1.4626161 -1.9851742
-2.3140118 -2.55624 0.19062081 0.09761168 -0.9350082 0.064197265 -1.4991922 0.0123946285
-2.0775552 -0.09952508 0.07117109 0.19821449 -0.1991672 0.112847485 0.21891554 -0.039493345
-0.13580191 -0.08801945 0.023650367 0.0052994736 0.082450785 -0.56314886 -4.0762014 -1.720445
0.032267675 -1.3992758 -0.8448803 0.15422796 -2.4176793 0.053954385 -1.1585661 -0.040952373
-2.0569065 -1.6567795 -3.4285254 -2.407138 -1.5198585 0.07540652 -0.432556 -0.37012297
0.20565973 -0.042144768 0.32450417 0.3517407 0.020143263 -2.6528268 -3.6723123 -0.4534042
0.025251647 0.04127757 -0.5674101 0.010546216 0.42259225 -0.8247323 -2.8800108 0.037272904

layers.2.bias f4 [64]
00000000: 2109 a93d c03e c5bd f1a8 61bf 34da 523d
00000010: a6cd 723c fbb9 233d df93 23bf 9e32 dc3c
00000020: 968e 48be 2142 b53d 6c80 5fbe 3980 0abe
00000030: 1786 97bd 7fb8 a9bd a8cb 2b3d 4d7f 403c
00000040: 3ea7 8e3d 57ed 803d 4d8d 513d e313 f23d
00000050: 507f 223e 26d0 1dbf 2516 f13c 3ece 52bf
00000060: 70f0 913d b823 35bf 1de4 17bf 4b82 963d
00000070: 6739 9c3c 12ab 02be 64f7 493b c098 433e
00000080: 22a8 2fbe 8fb8 b83c 180a e73d 450c 7bbd
00000090: 140d 04be 1977 2cbe 7ba0 473c 439f 423e
000000a0: e129 babe abff 69bf fe2b d63c 70b3 8c3c
000000b0: a403 48be 4b2a 6d3c 9d26 253d ba66 f83c
000000c0: 2033 89bf 407e 3f3d c830 c13c 9b0f 98bf
000000d0: 3440 cd3d 44c6 02bf 3b15 b73c 245e ed3d
000000e0: 795b 2d3d 2329 37bd 6926 523d bdd1 23bf
000000f0: 451a f83c b323 a93c b1f9 a23d 13e4 86bf
0.08253694 -0.09631109 -0.8814841 0.051477626 0.014819538 0.039972287 -0.6389751 0.026879605
-0.19585642 0.08850504 -0.21826333 -0.13525476 -0.073986225 -0.08287143 0.04194227 0.011749101
0.06965493 0.06295269 0.051160146 0.11820199 0.15868878 -0.61645734 0.029429505 -0.8234595
0.07125938 -0.7075763 -0.5933245 0.0734907 0.01907034 -0.1276057 0.0030817622 0.19101238
-0.17153981 0.022548942 0.11281222 -0.061290998 -0.12895614 -0.16842307 0.012184258 0.19006066
-0.36360076 -0.91405743 0.026144024 0.017175406 -0.19532639 0.014475415 0.040320028 0.030322421
-1.0718727 0.04675126 0.023582831 -1.1879762 0.100220114 -0.5108378 0.02234899 0.115902215
0.042323563 -0.044716965 0.051306162 -0.6399191 0.030285964 0.020646906 0.07957781 -1.0538353

layers.3.weight f4 [32, 64]
00000000: 24bb 923d b753 a33d 779b b4be 24d4 ab3d
00000010: 6f23 123b c5ee e03d 1112 f7bd d8ab c93d
00000020: b6b5 4839 ace0 f43d bd5f 0f3e 2be2 dd39
00000030: edfa e13a 5b13 5abc f4b1 35bc c8c2 443e
00000040: d06a df3c 8e58 143e d6fe 05bc d2fc 863b
00000050: 3ad6 883b 9b5b 96bd 6245 63bc 91c2 cbbd
00000060: 5fdf 213c 3a0f 0ebf c694 06be db76 073d
00000070: ffcb 623b ccc9 8a3a 17ef 353e 0e88 d53c
00000080: ed52 c2bb 9985 573b 2f65 a53b afb5 44bd
00000090: 5ab3 cc3a e468 deb9 186f 043e fbe0 f83c
000000a0: d9eb 193c 92b6 c1be 9408 b43a caec d23d
000000b0: 277d 1f3a 019a 32bb c443 a3bc abb1 103b
000000c0: d2bd e2be 8498 ce3a 5fce 663b 9827 42bf
000000d0: e67f da3c 620a 9ebb a3a5 f93d e12b 543c
000000e0: a636 4fbc 8089 3dbb 9c50 81bc ba4d d1bd
000000f0: b544 4e37 a739 073e a717 ff3d 1664 11bf
00000100: a01f 233d 7acc ab3d dc84 5ebf 31a3 7e3d
00000110: 4073 873a afdc 803d bcfd bcbe c3b5 963d
00000120: f902 d93a 8572 813d 6178 0f3e b432 173b
00000130: 16e3 233c a041 c8bf ff52 9fbe 67d5 1c3e
00000140: a344 953c 9b5c b33d 650d aabe ddbf 5b3b
00000150: 29b9 a1ba 25a7 3dbf fdac 95be 76ec 83bf
00000160: d317 383c 45d9 a9be 5640 2abf dde1 053d
00000170: 5a40 a738 8d1c 063b 1c50 283e 1cff 933c
00000180: a426 99bc e47d 06bc c797 863b 1144 e5bf
00000190: 4428 513c bd1b 27ba 4f33 b93d d67c f53b
000001a0: 863f c43b 259f bdbf 7cc2 d5ba 1e9e 9a3d
000001b0: 8edd 85ba 5e66 f53b 175e f6be 5cd6 0f3b
000001c0: 4ac2 99be e461 aebb b170 a9bb f43f 10bf
000001d0: 6803 5e3c 9827 0abc 6c2c c43d 4490 f63b
000001e0: 332e b5be ae75 d9bc a147 a1be 3ce3 36bf
000001f0: 9003 84bb be99 c43d aeed 823d 0a7c 02bf
00000200: 9a17 443b e9fc 88bd 99a1 383e 3cad 443c
00000210: 40b0 12be b43a ec3b edf8 ef3d 1b28 073c
00000220: b7a6 dcbd 4299 043c c82e 76bd cb4a cebd
00000230: c0cc 08be 5ae8 533d 49de 163d f8a2 583c
00000240: ba8a 03bb dfb5 4f3c 5920 273d 0508 24bd
00000250: 600a 01bd ef75 c53d ef2f 293d 180b b93d
00000260: 5641 6a3d c274 a03d 2c51 343e 80eb 3dbb
00000270: ca87 86bd a544 11be f1c9 153c 6859 9b3a
00000280: bc2a d2bd 66d8 dcbd 4572 78bd 3d6c ad3d
00000290: 40b4 fbbd 35a0 c1bd 40fa 083c e270 413e
000002a0: 9683 aebe 8f27 593e 1ed8 49be 9311 953b
000002b0: 3353 dfbd f9fc 83bd 6d55 323d f9af fdbd
000002c0: b86f 023e 038c 88bd 21a3 c5bd 60b5 153e
000002d0: b57b b03d 7cfb 5abe 9904 4b3b 030b d33d
000002e0: 4373 1c3d 4358 b6bd 7546 803d 9f24 b73d
000002f0: 1a53 62be ae0c 3c3c 926c 5b3c 36d6 f03d
00000300: 8197 743d 1c51 cb3d 2e99 76bf f736 873d
00000310: 5a7a 97ba 5437 a23d 2d3b cfbf 293c ba3d
00000320: b144 9238 3371 9b3d 2941 213e 4da2 523b
00000330: 90a0 da3b 4192 00be f07f d5bd f60f 263e
00000340: fe12 8c3c 6d34 ba3d 0e9b a5bd ef9a 4d3b
00000350: bc17 a53b e3ee adbf 8516 e1bd 9ed8 78be
00000360: e4c0 223c a119 5cbf 85e1 0abf a869 ef3c
00000370: 28fc eb3a 62ff cc3a 237d 1f3e 03ea 9e3c
00000380: e86d a2bc cf5a f7ba c435 2b3b 397a a2bf
00000390: 9570 043c 145b 4839 cc49 cc3d a178 8d3c
000003a0: b84a 053c 1976 39bf c2e0 363a e2f3 bb3d
000003b0: f53c e43a 4da2 593a 85b7 21be 15f3 073a
000003c0: fd0e 86bf bc2e b138 d83e 14bb 455c 4cbf
000003d0: 5bbf 6b3c 9a1b 68bb f121 e23d a6ac f33b
000003e0: bb8e 10be 00db abbc 8e6d 02be c872 9cbf
000003f0: 2341 d1ba bc36 d63d 018d 983d 5420 d2bf
0.071646005 0.07974952 -0.3527486 0.08390072 0.0022298952 0.10983042 -0.12063993 0.0984723
0.00019141179 0.11956915 0.14001365 0.00042320913 0.0017240919 -0.013310279 -0.011089791 0.19214928
0.027272612 0.14486906 -0.008178433 0.004119494 0.0041759284 -0.07341691 -0.013871523 -0.0994922
0.009879916 -0.55491984 -0.1314269 0.033072334 0.0034606454 0.0010588705 0.17766987 0.026065852
-0.0059302957 0.0032886027 0.0050474624 -0.04802483 0.0015617416 -0.0004242129 0.12933004 0.030380717
0.009394609 -0.37834603 0.0013735467 0.1029907 0.0006084018 -0.0027252438 -0.019929774 0.0022078555
-0.44285446 0.0015762006 0.0035218222 -0.75841665 0.026672315 -0.004823015 0.12189796 0.012949915
-0.012647307 -0.0028921068 -0.015785508 -0.10219903 1.2294554e-05 0.13205586 0.12455683 -0.56793344
0.03982508 0.0838861 -0.8692148 0.06216735 0.001033403 0.06292092 -0.36912334 0.07358887
0.0016556672 0.06320671 0.14010765 0.0023070993 0.010002872 -1.5645027 -0.31118008 0.15315782
0.018221205 0.087578975 -0.33213344 0.0033531107 -0.0012338507 -0.7408317 -0.29233542 -1.0306537
0.011236149 -0.33173576 -0.6650442 0.032686103 7.975167e-05 0.0020463795 0.1643681 0.018065982
-0.018695183 -0.008208726 0.0041074487 -1.7911397 0.012765948 -0.0006374678 0.090429895 0.0074916882
0.005989018 -1.4814192 -0.0016308571 0.0754969 -0.0010213123 0.0074890098 -0.4811866 0.0021947837
-0.30031043 -0.005321728 -0.0051709046 -0.56347585 0.013550617 -0.008432291 0.09578785 0.007524522
-0.3538681 -0.026545372 -0.3149996 -0.7144048 -0.004028745 0.095996365 0.0639299 -0.5097052
0.0029921294 -0.06688864 0.18030395 0.012004193 -0.14325047 0.0072091464 0.11717401 0.008249308
-0.10773986 0.00809318 -0.060103208 -0.100728594 -0.13359356 0.05173526 0.03683308 0.0132224485
-0.00200717 0.012677639 0.040802334 -0.04004671 -0.031504035 0.09641635 0.04130548 0.09035319
0.057191215 0.0783477 0.1760909 -0.002897948 -0.065688685 -0.14186342 0.009142385 0.0011852207
-0.10262057 -0.10783462 -0.06065585 0.084679104 -0.12290239 -0.09454385 0.0083604455 0.18890718
-0.34084767 0.21206497 -0.19711348 0.004549214 -0.10904541 -0.06444735 0.0435385 -0.1238708
0.1273793 -0.0666733 -0.09650255 0.1461997 0.08617345 -0.21384996 0.0030978082 0.10304835
0.03819586 -0.08903553 0.062634386 0.08942532 -0.22102013 0.011477632 0.013392584 0.117596075
0.059714798 0.0992758 -0.96327484 0.066022806 -0.0011556849 0.07920709 -1.6189934 0.09093506
6.974617e-05 0.075899504 0.15747513 0.0032140196 0.0066719726 -0.12555791 -0.10424793 0.16217026
0.0170989 0.09092031 -0.08086215 0.0031372865 0.0050382297 -1.3588527 -0.109906234 -0.24301383
0.009933684 -0.85976607 -0.54250365 0.029225186 0.0018004226 0.0015640075 0.1557508 0.019398695
-0.019827798 -0.0018871668 0.0026124576 -1.2693549 0.008083482 0.00019107416 0.09975013 0.017269434
0.00813549 -0.7244583 0.00069762405 0.09177376 0.0017413186 0.0008302078 -0.15792663 0.00051860634
-1.0473324 8.448723e-05 -0.0022620466 -0.7982829 0.014388884 -0.0035416842 0.1104163 0.007436353
-0.14116947 -0.02097845 -0.12737104 -1.2222528 -0.0015964847 0.104596585 0.07448769 -1.6416116

layers.3.bias f4 [32]
00000000: deee 443e c262 7a3e b030 823f 5ac8 6e3e
00000010: 28fb 0b3f a169 7b3e d2f6 f83b 9388 4d3e
00000020: cff3 513e b105 c63e 0d00 b93e ac81 5e3c
00000030: 4448 223f 2606 273f bb0e 983f a43a 023c
00000040: 1ffa a63f d8ba a23f a95f 333f de2a 8e3e
00000050: 6f15 683e 5a6d 893f e208 823e 7df3 083f
00000060: 994a a83e 3583 8e3c e5b6 063f 92ee 9d3f
00000070: b997 8b3f 12a1 123f c811 933f 5d4e 903f
0.19231746 0.24451736 1.0171108 0.23318616 0.5468011 0.24552013 0.0075977826 0.2007163
0.20503162 0.38676217 0.3613285 0.013580721 0.6339152 0.65243757 1.1879495 0.007948551
1.3045081 1.271327 0.7006784 0.2776708 0.22664426 1.0736496 0.25397402 0.53496534
0.32869413 0.017396549 0.52622825 1.2338431 1.0905677 0.57277024 1.1489801 1.1273915

layers.4.weight f4 [6, 32]
00000000: 6d9b c73d eef0 be3d ae29 23bd 9e14 9d3d
00000010: 409d e5bd fd3d a33d 5915 0e3d c0ce 913d
00000020: 7c75 cf3d 37b6 fc3d 256b 093e c942 773d
00000030: 7ce2 2bbe 89d9 21be eb2a 11bd 6cfe ab3d
00000040: 2c63 e1bd dd3e d3bd 29bd 78be 0bfc d33d
00000050: 21ef 873d 5878 74be c175 cc3d 78a0 68be
00000060: b0ca 073e 6918 4f3d b654 1cbe c449 8cbd
00000070: b841 dfbc 7962 46be 1f5d 02be 4fd5 c4bc
00000080: b0fa c23d 1761 b83d 1a49 903d d222 973d
00000090: a25b bc3c d698 9c3d 170f 0c3c 59db 8c3d
000000a0: ac45 ca3d 3360 e13d d299 fc3d 5130 0c3d
000000b0: 34c5 9bbd 2112 93bd 8384 663d 8807 6b3d
000000c0: f43d 9abd a3b0 60bd 586b fdbd a2b8 c93d
000000d0: f349 833d c756 07be 8f54 c23d 8f3c 07be
000000e0: 9b80 fe3d 965d bf3c 7f76 06bd 694b 94bc
000000f0: 24b9 973d 3279 e7bd 162c 45bd d163 b43d
00000100: 19e1 b43d c351 a53d 4010 d23d 90a1 853d
00000110: eefa af3d 708c 893d cbb2 96bc 14fe 7c3d
00000120: f7d1 ba3d 943f bc3d faa7 da3d a16a d93b
00000130: 2e65 bbbb 1f34 5bbc e954 ba3d 6a9c fa3c
00000140: c47e 793b a7a6 b0bb 69ed 64bd c190 b33d
00000150: 5b15 693d 8ab7 a3bd 451b ab3d d2cf 7fbd
00000160: c3b7 e03d c9a6 2bbb 1999 0b3d 2002 2f3d
00000170: bbf9 063e c95a 3ebd 003e 1e3b 07d4 ed3d
00000180: 317f 883d 7729 483d b645 d93d ad73 163d
00000190: b463 043e 968b 0f3d 4b97 34bd 3b5b 233d
000001a0: 2015 8c3d c748 193d 382c 633d 3620 95bc
000001b0: ea28 aa3d 8554 9a3d 9198 cf3d 48d7 aa3b
000001c0: b1c5 8b3d 2658 933d e01e 523d 80cb 6b3d
000001d0: b657 0e3d bd58 d13c 50a3 503d fc3b a8ba
000001e0: 2436 8d3d 67a5 d2bc 040c a83d 8194 a13d
000001f0: 71c4 1c3e 9e83 023d 8f2a c13c cf49 d33d
00000200: 3945 28bd 922c bcbd b9d4 8d3d ea05 b5bd
00000210: 394c 263e 64a6 d9bd c200 2abc 2cf0 9abd
00000220: 875c 2abd 4113 56be dd78 37be 6232 8c3c
00000230: 22b9 023e c839 f83d b631 993d bf67 213d
00000240: 45c7 853d 879d e73d d445 de3d fd0a 10be
00000250: 2d22 9abd a62b 023e fe81 1ebe 28e3 023d
00000260: 222b 1bbe dd55 f83b a0d5 ea3d a690 6e3d
00000270: cb28 d03d 438e 903d 28e2 4f3a b2cf 26bd
00000280: 58e3 54bf ac99 8fbf 7d37 e63d 0e90 82bf
00000290: 6e9f 2f3e c7a8 91bf c214 503d e269 68bf
000002a0: 0733 43bf de43 fabe 2e89 d9be d4e6 9c3d
000002b0: 761f 0d3e e425 053e c9b4 09be e1a1 cc3d
000002c0: f150 dbbd 7b79 febc b1a3 ea3d adef 15bf
000002d0: a0bd 5fbf 051d 1abd f24e 3ebf 769a 2f3d
000002e0: 97f7 debe 9cb1 883d 5f7e 003e 8ca9 eabd
000002f0: 0f64 3ebe 5596 a53d cfb6 45be cc57 86be
0.09746442 0.093232974 -0.03983467 0.07669948 -0.11211634 0.07970808 0.034688327 0.071195126
0.1012983 0.12339442 0.13419779 0.060366426 -0.16785616 -0.1580564 -0.03544132 0.083981365
-0.11005244 -0.103147246 -0.24290909 0.10350808 0.06637407 -0.23874032 0.09983397 -0.22717464
0.13260913 0.05056039 -0.1526669 -0.06850007 -0.027253017 -0.19373502 -0.12730835 -0.024027495
0.09520471 0.090028934 0.07045193 0.07379688 0.022992913 0.07646339 0.00854852 0.06877775
0.0987657 0.11004677 0.123340264 0.034225766 -0.07605973 -0.07181192 0.056278717 0.05738023
-0.07531348 -0.054855954 -0.1237399 0.09849669 0.06410589 -0.13216697 0.094887845 -0.13206695
0.12426873 0.023360055 -0.03282785 -0.018102365 0.0740836 -0.11302413 -0.048137747 0.08808101
0.088319965 0.080722354 0.10257006 0.06524956 0.08592783 0.067162395 -0.018395802 0.061765745
0.09122079 0.09191814 0.1067657 0.0066350256 -0.0057188487 -0.013379126 0.090982266 0.030592162
0.0038069943 -0.0053909603 -0.055890474 0.08767844 0.05690513 -0.07993992 0.083548106 -0.062454052
0.1097255 -0.002619194 0.034081552 0.042726636 0.13181202 -0.0464733 0.0024145842 0.11612707
0.06664885 0.04886767 0.106089994 0.03673141 0.12928659 0.03504523 -0.044089597 0.039881926
0.06839967 0.03742292 0.055462092 -0.018203836 0.08308585 0.07535652 0.101365216 0.005213652
0.06824816 0.07194547 0.051298976 0.05756712 0.034751616 0.025555009 0.050936997 -0.001283526
0.06895092 -0.025713636 0.08205417 0.07889653 0.15309311 0.0318638 0.023579864 0.10316812
-0.04108164 -0.091881886 0.06925339 -0.08839019 0.16240014 -0.106274396 -0.010376157 -0.075653404
-0.041592147 -0.20905782 -0.179172 0.017113868 0.12765935 0.12120396 0.07480185 0.03940558
0.06532148 0.11309343 0.108531624 -0.14066692 -0.0752605 0.12711963 -0.15479276 0.031954914
-0.15153173 0.007578595 0.11466527 0.058243416 0.10164031 0.07058384 0.0007930123 -0.040725417
-0.831594 -1.1218772 0.11241052 -1.0200212 0.17150661 -1.1379632 0.050801046 -0.90786564
-0.76249737 -0.48879904 -0.42487472 0.076612145 0.13781533 0.13002735 -0.1344787 0.099918135
-0.10708798 -0.031063786 0.11457003 -0.5856884 -0.8739872 -0.03762533 -0.7433921 0.042871915
-0.4354827 0.06674501 0.12548207 -0.1145812 -0.18592857 0.08085314 -0.19308017 -0.2623886

layers.4.bias f4 [6]
00000000: 08f2 c0be d822 83be d561 82be bc8b 7ebe
00000010: b2c0 7e3e af60 713f
-0.37684655 -0.2561252 -0.25465265 -0.24857992 0.24878195 0.9428815
