saved_model3.pth (torch, 72636 bytes, 8 tensors)

layers.0.weight f4 [128, 52]
00000000: 9af9 5a3c adf8 01be 4b25 c7bc 13b5 e43b
00000010: 4c9f 92be 17e6 9d3e 3d4f 1dbc 50de 833d
00000020: e8a8 a33f bc15 af3f 5dad 4dbf 725a 27bf
00000030: 5924 81bd a3bc 0e3f 05ef 023d 7a85 a63e
00000040: 00b3 f4bd cac5 c2bf d267 5cbf b834 08bf
00000050: 1be0 fdbf b762 a53f 7b84 113f a70a 243f
00000060: e1ad a73e 634f 1a3c 35ad 5e3d 4e42 eb3e
00000070: ac8d 44bf 7577 ed3e 8fda 8bbd 4a8f 893e
00000080: 6916 ae3e 9780 9ebd 8cfc 45bd bb8b c0be
00000090: dd0e 75be 6664 a9bd c0c6 90be 2d79 943e
000000a0: 0c20 883e a98c 723e 1f13 37be 66ac 903f
000000b0: 2e4a 1940 6c58 2dc1 d3a0 cdc0 7039 e540
000000c0: 1769 63c1 bdf8 873c caf8 103d e144 e43d
000000d0: 975b 0e3e 17ef 0dbf c091 623e a731 303e
000000e0: 6ab6 9fbd 04e1 39be a416 4f3f 58fe 133f
000000f0: cee1 11be c29c fabc 39e2 04bf 22b8 d7be
00000100: e067 933f 3f90 e6bf 86c8 87bf 1409 683f
00000110: 0cb5 1ebf bc42 cabf 4366 1a3e 5f18 91bc
00000120: a6da 843f 3562 80be 2c29 1c3f ca7a 313f
00000130: 7159 49be 7dfe 9dbe 4d87 6a3e 5506 2ebe
00000140: 5f8b a2be 8771 b43e 4a3d debd 021c e0be
00000150: 620c 33be 7551 0a3f 6502 ac3e c427 d53d
00000160: 937b f73e 990c 0ebe 87cb cb3e c4f6 3cbf
00000170: fde1 8ebf e1ef 31be 656c 363d cc08 103d
00000180: 9188 4fbd c7a7 82c0 e8b4 823f 9fb9 c43f
00000190: b20a 3a3f 37aa b53c 2fa6 1b3d f60d bb3d
000001a0: 7733 483e 5167 f7be b1fa 9b3e d6ac a73e
000001b0: 55f9 70bd 3b64 10be 6a38 3a3f 16d1 923e
000001c0: 52f6 17bd 85df 68be 0590 05bf 1826 97be
000001d0: dfb8 813f a44b d8bf 876a b3bf 31b3 823f
000001e0: d61c c8be d8db bebf ecf4 5dbe 1302 d33e
000001f0: a84e 9f3f 9a27 63bd da7f 9a3e 7c60 453f
00000200: 6545 16bf 2267 a9bd 2038 94be 6ee4 d6be
00000210: 1868 7fbe 1d1c ee3c 1b7f 02be 0789 b5be
00000220: 31dd 663d 409c 57be 31d2 303e bbab e63b
00000230: dea6 0abf 439c fd3d 3d25 96bf 9560 86be
00000240: 55b8 2f3f bbc8 1d3e 0570 093f eeae ad3f
00000250: 6d55 b03e dd24 e9bf c7b4 15c0 de3e c0be
00000260: 7604 5340 5768 033e b0a3 14be 28bd 243d
00000270: 3c01 d03e dc27 0f3e 80ed b3bd d81b aebd
00000280: acd5 1bbe add4 91bd 4bf2 ee3e 7d27 a5be
00000290: 3ebb 093e bf21 bdbd af47 0cbf f66a 8abd
000002a0: 56d7 38be 30c6 823e 2b28 9d3d 4139 6c3e
000002b0: 5bf7 6dbf e19f b9bf a109 30bd 6742 4b3e
000002c0: d8c4 b33f 7f06 aebe d098 a43e 1f6c ae3f
000002d0: c667 9fbf 3678 5fbf cdce 5bbf ce71 02bf
000002e0: d53b 00bf 5e00 033f 0c64 83bf 3378 6dbd
000002f0: ff9f b13e 50dc 093f 4849 1d3f dc7b 9cbc
00000300: 2b4e 8fbf 3fe0 f3bf f75e 1ebf e0c1 9bbf
00000310: a867 04c0 2d13 0c3f 0c68 ba3e bf5f 4abf
00000320: a293 0bbd 209d 94c0 10fb 80c0 044f b23f
00000330: e6ec d0c0 fe3a 9abd b5ef e83e e89e fdbd
00000340: fa41 1d3e eb84 38be c105 7abd df80 25bd
00000350: c1bd 0cbe 6afb cf3e fce1 543d cb31 453d
00000360: a56a 9d3f bc21 9c3f 2d31 2cbf 3bf8 27bf
00000370: d456 1bbe 8fdf bf3e 9c53 143e 0c68 723e
00000380: a570 ff3d 7dd1 aebf 5895 26bf 222e acbe
00000390: a912 b2bf 4f6e 5c3f 201e f63e b91e f93e
000003a0: 1f3e 5d3e ce31 bfbd 7936 a5bd 8e70 653d
000003b0: b2c6 bcbe 833c 6e3e 8c8a 2abe 234b 533d
000003c0: 4723 333e ecc8 32bf f69d 613f 2481 8b3e
000003d0: 2917 723f bc39 b23f 7a2a 4dc0 ec7c a83f
000003e0: ca70 18bf eaa6 be3f 93ba e0be aec1 f33e
000003f0: d339 6840 f8fa 9ec0 eccd 6fc0 5574 7940
0.013365174 -0.12692519 -0.024309775 0.0069795935 -0.2863716 0.30839607 -0.009601411 0.06438887
1.2785921 1.3678508 -0.80342656 -0.65372384 -0.06305761 0.55756587 0.031966228 0.3252371
-0.11948204 -1.521661 -0.8609592 -0.5320544 -1.9834017 1.292075 0.56842774 0.64078754
0.32749847 0.009418341 0.0543644 0.45949024 -0.76778674 0.463802 -0.06828796 0.26867133
0.34001473 -0.0773937 -0.04833655 -0.37606606 -0.23931451 -0.082711026 -0.28276634 0.289987
0.2658695 0.2368647 -0.17878388 1.1302612 2.3951526 -10.834087 -6.425882 7.1632614
-14.213157 0.0165981 0.035393514 0.1114595 0.13902126 -0.5544295 0.22125912 0.17206441
-0.077984646 -0.18152243 0.8089392 0.5780997 -0.14246294 -0.030592326 -0.5190769 -0.4213267
1.1516075 -1.801277 -1.060807 0.9063885 -0.61995006 -1.5801616 0.15078072 -0.017711816
1.0379226 -0.25074926 0.61000323 0.69327986 -0.19663025 -0.30858222 0.22903176 -0.16994603
-0.31746957 0.35242864 -0.10851534 -0.43771368 -0.17485192 0.54030544 0.33595577 0.10407975
0.48336467 -0.13871993 0.39803717 -0.73814034 -1.1162716 -0.17376663 0.044536967 0.03516464
-0.05066735 -4.0829806 1.0211458 1.5369147 0.7267257 0.022175891 0.038000282 0.09133522
0.19550882 -0.48321012 0.304647 0.3274905 -0.05883153 -0.14100735 0.7274233 0.28675145
-0.037100144 -0.22741516 -0.5217288 -0.2952125 1.0134543 -1.6898084 -1.4016885 1.0210935
-0.390845 -1.4910841 -0.21675462 0.4121252 1.2445879 -0.05545769 0.30175668 0.7710035
-0.5869964 -0.08271624 -0.2894907 -0.41971153 -0.24942052 0.02906614 -0.127438 -0.35456106
0.05636329 -0.21055698 0.17267682 0.007039515 -0.5416087 0.1238332 -1.1730114 -0.2624556
0.68640643 0.15408604 0.53686553 1.3569009 0.34440175 -1.8214375 -2.3391588 -0.37547964
3.2971473 0.12832771 -0.14515567 0.040219456 0.40625942 0.13980049 -0.08785534 -0.085014045
-0.15218228 -0.07120643 0.4666923 -0.3225669 0.13450333 -0.09234952 -0.5479688 -0.067586824
-0.18050894 0.2554183 0.07673677 0.23068716 -0.9295556 -1.4501916 -0.042977933 0.19849549
1.4044447 -0.3398933 0.32147837 1.3626746 -1.2453544 -0.872928 -0.8586243 -0.509549
-0.50091296 0.51172435 -1.0264907 -0.05797596 0.3469238 0.53851795 0.61439943 -0.01910203
-1.119573 -1.905281 -0.61863655 -1.2168541 -2.0688267 0.5471676 0.36407506 -0.79052347
-0.03407634 -4.6441803 -4.0306473 1.3930364 -6.5289183 -0.07530783 0.45495382 -0.123838246
0.153572 -0.18019454 -0.061040644 -0.040406104 -0.1374426 0.406215 0.051973328 0.04814319
1.229817 1.2197795 -0.67262536 -0.65613145 -0.15169841 0.3747525 0.1448502 0.23672503
0.12472657 -1.3657681 -0.6507163 -0.33628947 -1.3911945 0.8610582 0.4806986 0.48656252
0.21605729 -0.09335671 -0.080670305 0.056015544 -0.36870342 0.23265271 -0.16654414 0.051585328
0.17493926 -0.6983783 0.88131654 0.27246964 0.9456659 1.3923869 -3.2057176 1.3163123
-0.595471 1.4894688 -0.43892345 0.47608703 3.6285293 -4.968136 -3.7469435 3.8977253

layers.0.bias f4 [128]
00000000: 3559 00c0 31cc 0ac0 c804 05c0 acaf 28c0
00000010: 5a52 15c0 193e 1cc0 08dc 65c0 af46 04c0
00000020: ea7e 3bc0 435b a4bf b9b9 17c0 88c6 42c0
00000030: 4858 68c0 ebf7 1bc0 2fdd 15c0 537d cf3e
00000040: 3990 7cc0 caee c9bf 9135 19c0 5014 40c0
00000050: 0f70 56c0 bc88 12c0 3095 efbf 8495 13c0
00000060: 15fe 2ec0 eaf3 1bc0 8a8a 1fc0 46c5 10c0
00000070: 1e62 2ac0 6b9e 1fc0 1ca1 04c0 512c d9bf
00000080: 1597 0fc0 ffdb c3bf fe93 26c0 b4fe 1ec0
00000090: 1711 d4bf 2359 66c0 e91e 3dc0 6e3e 17c0
000000a0: 71fa 5ec0 4167 cfbf a5ce 14c0 e005 0fbf
000000b0: 9bde 25be 668e 19c0 4175 1dc0 ffa3 07c0
000000c0: f572 d1bf af9d 01c0 8538 15c0 fe25 36c0
000000d0: cfcd 5abf 67ed 18c0 206a 16c0 b10d 1cc0
000000e0: c0c4 e9bf 0cd5 0ac0 e8c4 45c0 a197 d1bf
000000f0: 0c3b 0dc0 4d7c e0bf 0ea8 83c0 023a 2fc0
00000100: e677 6ec0 c7a6 0ec0 07c1 8bbf 42f4 02c0
00000110: 5d79 47c0 87fa 02c0 95a1 37c0 b739 1bc0
00000120: e5cd fabf ff93 b9bf 715b 1ec0 76e2 debf
00000130: e9d5 2ac0 fb3d 07c0 c407 0ebf 708b 7fc0
00000140: 9141 30be 1867 23c0 8619 10bf abe4 19c0
00000150: 041a e5be 0bb4 23c0 e2ba 07c0 c2a7 64c0
00000160: 09ec fabf a434 7fc0 0dbb 31c0 7ccb 01c0
00000170: 2955 3fc0 f78a 37c0 47eb 01c0 4a3f 25c0
00000180: 8435 35c0 f398 2fc0 38ed 01c0 3404 d0bf
00000190: 92c9 3ac0 86ff 0dbe a797 03c0 1b81 d0bf
000001a0: 1b3c 41c0 0ffb f3bf c55f 12c0 d392 1bc0
000001b0: f791 36bf f5b4 4bc0 4f59 29c0 a484 f2bf
000001c0: f926 52bf 9963 72c0 1012 5fc0 31e8 41c0
000001d0: 171d 38c0 316c d7bf cd4a 15c0 02c4 1ec0
000001e0: 94c4 edbf a77f 0ac0 2a01 46c0 d0b8 18c0
000001f0: a72b 02c0 4736 0ec0 4ea9 3dc0 e9e4 4fc0
-2.0054448 -2.1687129 -2.0784168 -2.6357222 -2.3331513 -2.4412901 -3.5915546 -2.0668142
-2.9296212 -1.2840351 -2.3707106 -3.0433674 -3.6303883 -2.4370067 -2.341625 0.40525302
-3.9463027 -1.5775998 -2.3938944 -3.0012398 -3.3505895 -2.2895956 -1.8717403 -2.3060007
-2.734258 -2.4367623 -2.4928308 -2.2620406 -2.6622386 -2.494044 -2.0723333 -1.6966649
-2.2435963 -1.5301512 -2.6027827 -2.4842958 -1.6567715 -3.5991905 -2.9550116 -2.3631854
-3.4840357 -1.6203386 -2.3251126 -0.5586834 -0.16198198 -2.3993163 -2.4602816 -2.1193845
-1.6363207 -2.0252492 -2.3315747 -2.8460689 -0.8547029 -2.38949 -2.3502274 -2.4383357
-1.8263168 -2.1692533 -3.0901432 -1.6374398 -2.206729 -1.7537934 -4.1142645 -2.7379155
-3.726068 -2.2289293 -1.0918282 -2.0461583 -3.1167824 -2.046541 -2.8692372 -2.4253976
-1.9594084 -1.449829 -2.4743311 -1.741286 -2.669306 -2.113158 -0.554806 -3.9928856
-0.17212512 -2.5531673 -0.56288946 -2.4045818 -0.4474641 -2.557864 -2.1207814 -3.5727391
-1.9603282 -3.987588 -2.7770417 -2.0280447 -2.9895728 -2.8678567 -2.0299852 -2.5819879
-2.8313913 -2.7437103 -2.0301037 -1.6251283 -2.9185529 -0.13867006 -2.0561311 -1.62894
-3.0192935 -1.9060992 -2.2870953 -2.4308364 -0.71316475 -3.1829197 -2.646076 -1.8946729
-0.8209072 -3.787329 -3.4854774 -3.0297968 -2.8767755 -1.6829892 -2.3326905 -2.4807134
-1.8575616 -2.1640413 -3.093821 -2.38628 -2.0339143 -2.2220628 -2.9634585 -3.2483466

layers.1.weight f4 [64, 128]
00000000: ca62 353e e61b c9bf 547a d3be f5fd 133e
00000010: 252a 97be 932f 8ebd 1da6 8ebe c868 813d
00000020: f85a 1dc0 f3d8 9c3d 1f16 64c0 d7c0 52bf
00000030: 4941 183e 20e7 7d3d e553 0f3e 04e2 d1bc
00000040: 2b0e 74c0 904c e03d 55b7 96bc 2206 7f3e
00000050: 149d a73e 994a abbd 9f56 193e b866 d0be
00000060: 2240 94bf 895a 9ac0 783b a7bc 0903 cfbf
00000070: 1fbc 89be 732e 2ec0 b015 38be 30fd bebf
00000080: 476c 903d 0e8f ca3d 02ae 273e 799e eebf
00000090: 0051 843d 897c 75c0 0af3 03bf 85ac a0be
000000a0: 7321 29c0 086a 20bf 49c4 8ebf 6e65 99c0
000000b0: 88db e5bf ecc4 523e 2973 c0bf f3f0 36bd
000000c0: c5b8 de3d 2f7b 8e3e 0b61 fcbe 26b2 2bbf
000000d0: 0f03 b73d 815d 7e3e f24d 023d 2e12 2f3e
000000e0: 28a0 0c3e 09d6 6ebe 41ce c7be f371 e23c
000000f0: a4bb fd3d 465c acbd a225 82c0 342b f5bf
00000100: 3bee 20c0 f922 613d c604 f7bd dbe5 cd3d
00000110: 0a72 b53d 4142 97be 39fd b4bf 9139 24c0
00000120: 4cfc 113e d587 1c3e e8f9 0e3d 771c d93d
00000130: a91a 00c0 6da7 cebc 0b3e fabf 4600 95bf
00000140: e631 03c0 06fd 19bf fb8d 96c0 fb07 703d
00000150: 1bd1 8ac0 f250 a9be e81e e63d 1d54 d4be
00000160: 41a5 103e 17b7 71bf 7729 99be 1fa5 b23d
00000170: 385e 063f 6f78 1e3f 49e1 08c0 906c cdbe
00000180: 8c21 41bf 3ba5 9b3d b95b 323d c359 d9bd
00000190: becf 4abd bc98 0cc0 d6e9 c1bf 2f2d 1c3e
000001a0: 0f19 983e 4409 d83d bb17 3fbf 727c 2dc0
000001b0: 0dd4 4a3d 8ebb 083e cebc a53e bfa3 5d3e
000001c0: 94d9 aebb c3fd e8be 2146 32c0 b435 e53d
000001d0: de31 e8bd 9258 da3d b00b 8ac0 461a 543e
000001e0: 96b7 75be 0ef3 be3d 8b96 39be 9a49 223e
000001f0: 2916 6fbf 7dd9 d4bd 76d1 cc3d e0c2 97be
00000200: bb81 03c0 520b be3d 19ea 573d f331 09c0
00000210: 013a adbf 9801 afbe 5deb 14bf 69f5 423d
00000220: 3789 8bc0 764d 0cc1 eeb0 6cc0 ea5a 87be
00000230: 9afd 85c0 88a8 02c0 ccca af3d 8a72 59bc
00000240: b060 62c0 ecfb 91bc 44af 5c3e 4bd7 123d
00000250: bb3c 6c3e 1a5e 99bf 3a65 13be 2d67 03bf
00000260: dde7 ecc0 79b9 7ec0 22a8 c3c0 1144 b13e
00000270: d290 063e 01dc 30c0 b72c 64bf f2e8 4639
00000280: ba50 fdbe e8e4 22bd 5009 80c0 7d3a 0dc0
00000290: b17b 53bf 638b 4b3f 5737 d6bf 632b 8cc0
000002a0: 82c9 513f da4b e9be 17f5 4dc0 846b 283c
000002b0: 7928 a53d 0305 813e b898 25c0 be5a 1ec0
000002c0: 41ca acc0 eaf4 003d 198c 77bf fb3c 1f3e
000002d0: b800 bfbd cb05 4f3e 6857 5c3b 05e0 87c0
000002e0: 1d26 03bf f224 13c0 81ee f9be 3e86 0b3c
000002f0: a0e9 b6c0 4ebf 423d de6f 1dbf 6eb3 4cc0
00000300: 2838 6d3e 23a7 e93d 2325 17bd 95db 05c0
00000310: d981 2cc0 8441 da3d a680 8d3c 5ae2 2dc0
00000320: 8256 b3bf 21a5 d03d 6c10 673e 6b7c 89bf
00000330: 2fd4 b23d 82ec 86bd b5d4 f73c 19da 6fc1
00000340: 8bf4 3f3d 8516 6a3e 98a1 c03d 8ad2 a9c0
00000350: 1c2f fa3c 5f78 a3be 8dd4 a7be fd53 9dc0
00000360: 61ec 0dbe 84d7 78c1 6f9b d8be a27c b4bf
00000370: 1bff 6d3e e09f 0dbf 6538 10be 40ef 63c0
00000380: de3c ea3c 9632 3e3d 112a 1ac0 c3ae b13f
00000390: 3409 d33e 254c 89bb 7ee2 a4c0 3ef8 1ac0
000003a0: bf8e 3a3f 8fb6 7bbf c17f 433d ed25 5ac0
000003b0: c20e 9b3d 5ffa 67bf 4e86 15c0 a89b 39bc
000003c0: d1ca 8b3b ac54 bec0 a711 3ac0 f9bb cbbf
000003d0: c3d7 013e 8e22 973d 625b 87c0 99df 03c0
000003e0: bb80 e63d 9159 62bc d606 c13e aace 0abe
000003f0: b626 ea3d 0bd1 91c0 f770 813d 5285 0abf
0.17713466 -1.5711639 -0.41304266 0.14452346 -0.2952434 -0.06942668 -0.2786111 0.063188136
-2.4586773 0.07658567 -3.5638502 -0.823255 0.14868654 0.061987996 0.13996847 -0.025620468
-3.8133647 0.10952103 -0.018397966 0.24904683 0.3273703 -0.08363838 0.1497445 -0.40703368
-1.1582072 -4.8235517 -0.0204141 -1.6172801 -0.26901338 -2.721585 -0.17977023 -1.4921017
0.07051902 0.09890567 0.16374972 -1.8642112 0.06460762 -3.835726 -0.51542723 -0.31381622
-2.6426666 -0.6266179 -1.1153651 -4.7936316 -1.7957621 0.20582932 -1.5035144 -0.04466338
0.10875086 0.27828357 -0.49292788 -0.6706871 0.0893613 0.24840356 0.031812616 0.17096779
0.1373297 -0.23323835 -0.39024547 0.027642226 0.12389305 -0.08416037 -4.067094 -1.915381
-2.5145404 0.054964993 -0.12061457 0.10053607 0.08859642 -0.29542735 -1.4139777 -2.5660136
0.142564 0.15286191 0.034906298 0.10601132 -2.0016272 -0.02522632 -1.9550184 -1.1640708
-2.0499206 -0.6015171 -4.7048316 0.05860136 -4.3380256 -0.3306957 0.11236364 -0.41470423
0.1412554 -0.9442 -0.29914448 0.087229006 0.52487516 0.6190252 -2.1387503 -0.4012189
-0.75441813 0.075998746 0.043544505 -0.10612824 -0.049514525 -2.1968222 -1.5149486 0.15251611
0.29706618 0.10548642 -0.74645585 -2.7107205 0.049518634 0.13352796 0.3237061 0.21644495
-0.005335996 -0.45506105 -2.7855303 0.11191884 -0.113376364 0.10661425 -4.3139267 0.20713148
-0.23995814 0.09323703 -0.18123834 0.1584839 -0.9339319 -0.10393045 0.10000889 -0.29640865
-2.0547931 0.09279503 0.052713487 -2.1436737 -1.3533326 -0.34180903 -0.58171636 0.047597323
-4.3605 -8.768911 -3.698299 -0.2643655 -4.187207 -2.0415363 0.08583602 -0.013271937
-3.5371513 -0.017820321 0.21551234 0.03584985 0.23070042 -1.1981843 -0.14394084 -0.5132931
-7.4033036 -3.9800704 -6.114274 0.34622243 0.13141182 -2.763428 -0.8913073 0.0001896953
-0.49475652 -0.039769083 -4.001137 -2.2066948 -0.82610613 0.7950956 -1.6735638 -4.380296
0.819481 -0.45565683 -3.218084 0.01027954 0.0806436 0.25199136 -2.5874462 -2.4742885
-5.399689 0.03148357 -0.9669815 0.15550606 -0.09326309 0.20217054 0.0033621434 -4.246096
-0.5123003 -2.29913 -0.48814777 0.008515893 -5.7160187 0.047545724 -0.6149882 -3.1984515
0.23165953 0.11408832 -0.03690065 -2.0915272 -2.6954253 0.10657027 0.017273258 -2.7169404
-1.4010775 0.10187746 0.22564858 -1.0741094 0.08731877 -0.06588079 0.030252794 -14.9907465
0.046864074 0.22860153 0.094058216 -5.3069506 0.030540042 -0.31927773 -0.3277935 -4.9165025
-0.13859703 -15.552616 -0.42306086 -1.4100535 0.23241846 -0.55322075 -0.14084013 -3.5614777
0.028593477 0.04643496 -2.4088175 1.3881458 0.4121796 -0.0041899853 -5.152648 -2.4214015
0.72874063 -0.9832544 0.047729257 -3.4085648 0.07571174 -0.9061641 -2.3363223 -0.011328615
0.004266121 -5.947836 -2.9073274 -1.591674 0.12679963 0.07379638 -4.229905 -2.0605223
0.11255022 -0.0138153 0.37700528 -0.13555399 0.11433165 -4.556768 0.063203745 -0.5410968

layers.1.bias f4 [64]
00000000: 37f0 ea3f 3097 adbf b3d9 b13e 2d2c 463e
00000010: 25c6 d7bf a6fd c13f 1737 323f b9cf 083e
00000020: 204b 0bc0 416d 703e 7144 963e 8a3a f93e
00000030: fa16 9b3f 9423 143e 491c 8ac0 d98f 843e
00000040: bfbd c4be 04fb 933e 2fbc 863f d469 163f
00000050: 15e4 bb3d 0d89 95c0 5353 bd3e 3290 0d3d
00000060: 9acd 983e a16b 063e 1504 02bf dd5b 2d3e
00000070: 4777 91c0 b5e3 543f 131c 6b3f a59a 1e3f
00000080: ba2e e73f 8eb5 393d fd63 96bd 111e 853f
00000090: abc1 e5bf e068 1c3f 7ac5 663e 446e d0bf
000000a0: af87 6e3e 5ee3 3a3e 3d0f 8cc0 d0a5 273f
000000b0: 7786 1c3f f083 a13e 88b2 a93e 13f7 39bf
000000c0: 1f5f c33d 453f 5dbd d918 12c0 6b3c ab3e
000000d0: f7ce e2bf 5630 023f 561c a4bf db01 8c3f
000000e0: c7cf c83e 7842 e03f 8b7a 0d40 b494 6d3e
000000f0: b71d 053f ce45 babf e912 f13e 8ff8 f0bf
1.8354558 -1.3561764 0.34736404 0.19352789 -1.6857344 1.5155532 0.6961531 0.1336049
-2.1764603 0.23479177 0.29349092 0.48677474 1.2116387 0.14466697 -4.315953 0.25890997
-0.38426015 0.28902447 1.0526179 0.5875523 0.091743626 -4.67298 0.36977634 0.034561343
0.29844362 0.13126995 -0.5078748 0.16929574 -4.54581 0.83159953 0.9183971 0.6195472
1.8061135 0.04533916 -0.0734329 1.03998 -1.7949728 0.61097527 0.22536269 -1.628365
0.23293947 0.18250796 -4.37686 0.65487385 0.6114268 0.31545973 0.3314402 -0.7264263
0.09539627 -0.054015417 -2.2827666 0.33444533 -1.7719411 0.50855005 -1.2821147 1.0938066
0.39221022 1.7520285 2.2106044 0.23201257 0.51998466 -1.4552553 0.4708474 -1.8825854

layers.2.weight f4 [32, 64]
00000000: 5264 6cbb f478 98be 3aa3 be3e 2689 dc3d
00000010: b2a2 82bf 4686 c43c f752 a13c 75d7 a03d
00000020: ba73 5fbe 96c5 89bd 3462 833e 04bb 903e
00000030: 249d ba3c 0f49 093d 95dc aabb 8612 273e
00000040: 5778 363e 651b ae3d 223c bb3d 858d 7f3c
00000050: 3516 23bf df2d f93c 1db5 4abc a4bf 66bc
00000060: 12a1 cd3d 5ba3 6e3e 8a12 81bc 06f6 0e3f
00000070: 991b 1f3d f940 573c f003 dc3d 9171 573b
00000080: 0ad9 12bd 3a3d 3d3e 1de9 cfbc 5723 593c
00000090: 9865 39bf 8b39 853d 9fc2 d23e e59b 8b3d
000000a0: 6d01 41bd 1614 103e 105c debd 816f a2bc
000000b0: 456e 00bd a02a c0bd 6eb0 34bb 0c2f 6e3d
000000c0: 3baf 113e ab63 9e3d edf9 3fbc 3ef2 32bc
000000d0: 2450 97bc d07a 15bd a1df f6bc 6d8a a4be
000000e0: 1cc1 dc3d c174 8ebc cfc0 2cbd 1eae 513d
000000f0: 8cef 86bb 4de4 11bd 0a65 503c 8b8a dd3d
00000100: 336b 07be 8267 4fbd 5f23 4dbd 78e6 26bb
00000110: 37e4 1bbe 26af cfbe 8e6a 453d 3dbd 0d3d
00000120: 4b9a 953b de63 143e cb95 cec0 0650 5dc0
00000130: 5dcd e5be 62be d73a 9f03 683c d472 ef3b
00000140: 008a 24be 83ce 953c d40b 4fc0 d4b7 8d3c
00000150: 8ce7 d23c bc55 d93c a3c0 813d 5bd2 2cbd
00000160: 2b3d 1bbf f055 8b3b f36d aa3c a259 8ac0
00000170: 8af7 393d 949f 063d 49be bbc0 c5c5 203b
00000180: ae40 0dbf cde3 5fbb 67b4 e73d 712b 253d
00000190: 21b1 cbbd 1abc cbc0 ad53 a8c0 be63 66bd
000001a0: 4dfd 7a3e b767 1b3e 9b0c 8b3b 8db5 403d
000001b0: 34dd 173e 5d0c ddbc 32db ec3c 7a04 c0bd
000001c0: d4b1 823c 490c e6bc 1d3e 783c fd19 e1bc
000001d0: b1e8 5bbd 3373 fb3d ea8e 85bc 7fc4 f6bc
000001e0: 554f 193d b8d8 89be 3372 40bd 3b37 e0bf
000001f0: 924e 0cbc fcea 84bd b646 073e 9f11 d4bd
00000200: 331a e0bc 9fbe b8be 4e4d c03e 0fc3 a73d
00000210: 3a09 76bf 6ebb e93c 416d 9ebc 3cfe f03d
00000220: 4589 4fbe becc 7ebd ea29 863e 71f3 ad3e
00000230: 6398 e7bb f3ed 063d 67a1 c33c 039c 473e
00000240: 559c 3f3e 0227 873d 2ed7 d03d a395 413c
00000250: 82c8 d5be 44aa d23c b9bb ae3b 636b 913d
00000260: 60c0 ac3c 002e 753e 77da 96bc 3d50 053f
00000270: d515 e53c c1bb a43c 79cd c93d ea6b 52bc
00000280: 3965 84bd 7bd2 493e cd2c 65bc 43fe 863d
00000290: bfd5 38bd e476 8a3d 5806 bb3e ad5e 353c
000002a0: ea31 a7bd c81a 8a3d 1e71 39bf 7c66 5abd
000002b0: 4cfa a8bd 7231 f8bc a0ce 8c3c 6e25 013e
000002c0: 6297 573e cf14 86bc 69da 1f3c 035d 72bc
000002d0: d5e4 86bc eccb 46bd 95e9 9bbb 117b b9be
000002e0: a21c f63d f383 27bc 619a 53bd 7a05 e43d
000002f0: 567d 303d 8d30 86bc 45c9 9bbc a8b4 ce3d
00000300: 8168 16bf 57a6 eebd d75e e1bc 7370 8c3d
00000310: a493 afbe 626c c7c0 e6ff b63c 34be ec3c
00000320: 59b2 79bd a97e 513d a26c bcc0 af06 20c0
00000330: c925 c7c0 f96d 593d a9bc d8bb 2d53 033d
00000340: 2ab1 26be 4493 293d 4fa0 d4c0 fa8f da3c
00000350: 4fd8 59bd 0419 f33c 1608 b13c 6543 0cbe
00000360: d8a4 d8bf 0091 513d 0b74 65be a1f9 58c0
00000370: 69cc e83c 26c7 543d 4e89 b1c0 334b 373c
00000380: 04cd 1dbe bfb2 bd3c 5aa7 8a3d 9b5b 9e3d
00000390: f6a7 95bd 4864 1fbe 4b54 8ec0 fefc 8fbe
000003a0: 8625 463e b4a7 b13d 10fc a1bc 730d 553d
000003b0: 5ddd ae3d f3c8 bbbd 3251 fe3b 9587 42be
000003c0: 9cdf 8a3d e078 0bbd 11eb fb3b 1b29 d7bd
000003d0: 5ce4 c1bd 0a11 a23d 6435 4dbd ef54 74be
000003e0: 7392 713c 320e 3bc0 55e3 4bbe 08b8 ddc0
000003f0: 127c 8fbc d57a 36be 9bc2 ce3d ce42 30be
-0.0036070538 -0.2977978 0.37233907 0.107683465 -1.0205901 0.023989808 0.019692881 0.07853595
-0.2182149 -0.0672714 0.2566086 0.28267682 0.022780009 0.03351694 -0.0052142837 0.1631566
0.17819344 0.08501319 0.09142329 0.015597706 -0.6370576 0.03041738 -0.012372282 -0.014083777
0.10040487 0.23304503 -0.01575591 0.5584415 0.03884468 0.013138049 0.107429385 0.0032874087
-0.035851516 0.18480387 -0.025379712 0.013253055 -0.72420645 0.06505116 0.4116411 0.06816844
-0.0471205 0.14070162 -0.10857403 -0.01982856 -0.03135516 -0.0938313 -0.002757098 0.058150336
0.14227001 0.07733854 -0.011717302 -0.010922013 -0.018470831 -0.036494076 -0.030135931 -0.3213686
0.1077902 -0.017389657 -0.042176064 0.05119144 -0.0041179117 -0.035618115 0.012719402 0.108174406
-0.13224487 -0.050635822 -0.05008256 -0.002546696 -0.15223776 -0.40563315 0.04819732 0.0346043
0.0045655123 0.14491221 -6.4557853 -3.4580092 -0.44883242 0.0016459937 0.01416102 0.0073073898
-0.16068268 0.018286949 -3.235097 0.01729957 0.025745176 0.02653014 0.06335571 -0.042192798
-0.6064021 0.004252188 0.020804381 -4.3234415 0.045402087 0.03286703 -5.866978 0.0024531942
-0.5517682 -0.003416288 0.11313706 0.040324632 -0.09945894 -6.3667116 -5.2602143 -0.056247465
0.24510689 0.15176283 0.004243446 0.04704814 0.14830476 -0.026983434 0.028913114 -0.09375854
0.015953936 -0.02808203 0.015151528 -0.027478212 -0.05368871 0.12277832 -0.016303498 -0.030122994
0.037429173 -0.26923156 -0.04698391 -1.7516855 -0.0085636545 -0.06490132 0.13210568 -0.103549235
-0.027356243 -0.36082932 0.3755898 0.08191501 -0.9610783 0.028531756 -0.019339206 0.11767241
-0.20267208 -0.062206976 0.26203853 0.33974794 -0.0070677265 0.03294177 0.023880674 0.19493107
0.1871198 0.06599237 0.10197292 0.011815461 -0.41754538 0.025715955 0.005332437 0.071005605
0.021087825 0.23943329 -0.018414719 0.5207556 0.027964512 0.02010906 0.09853644 -0.0128431115
-0.06464619 0.19709198 -0.013987732 0.06591465 -0.04512572 0.06760958 0.36528277 0.011069936
-0.08163817 0.06743389 -0.7243823 -0.053320393 -0.08250865 -0.030297015 0.01718837 0.12611935
0.21053842 -0.016367344 0.009756663 -0.0147926835 -0.016466537 -0.04853432 -0.0047580698 -0.36226705
0.1201718 -0.01022433 -0.0516609 0.11133857 0.04308828 -0.016380573 -0.019016871 0.10093051
-0.5875321 -0.116528206 -0.027511043 0.068573855 -0.34292328 -6.2319803 0.022338819 0.02889929
-0.0609611 0.051146183 -5.888261 -2.500408 -6.2233624 0.053083394 -0.006614287 0.032061744
-0.1627852 0.04140021 -6.644569 0.026679981 -0.053184804 0.029675014 0.021610301 -0.13697584
-1.6925306 0.051163673 -0.22407548 -3.3902361 0.028417783 0.051947735 -5.548011 0.0111873625
-0.15410239 0.023156522 0.06770201 0.07732316 -0.07307427 -0.15565598 -4.4477897 -0.28122705
0.19350252 0.08674565 -0.019773513 0.05201478 0.085383154 -0.091691874 0.007761144 -0.18997033
0.06780931 -0.034050822 0.007687934 -0.10505887 -0.09467384 0.07913406 -0.050099745 -0.23860525
0.014744389 -2.9227414 -0.19910939 -6.9287148 -0.017515216 -0.17820294 0.10095712 -0.17212984

layers.2.bias f4 [32]
00000000: 59b1 493c d236 db3e 0cdd 523b fabe eb3e
00000010: e898 e03e acf6 d13e e04c de3e e378 213f
00000020: ac99 dc3e ee18 d93e 02b8 013f 1199 61bb
00000030: 446e e73e fb2b 803f 8896 bd3e 9c76 543f
00000040: 3716 743f 2bf3 9c3f 3ee3 0e3f 3b37 f03e
00000050: 4b4e f03e 41dd 913f 95ea 983f 6d84 d23e
00000060: 2a7c 973e 5300 c63e 41df d03e 8c2d 943f
00000070: 82cc a03e e018 b23e d85b cb3e 67e6 4b3f
0.012310349 0.42815262 0.0032175211 0.4604414 0.43866658 0.41008508 0.43418026 0.63075083
0.43085992 0.42401832 0.506714 -0.003442351 0.45201313 1.0013422 0.3702891 0.82993484
0.953464 1.2261709 0.55815494 0.46917138 0.46934733 1.1395646 1.1946589 0.41116658
0.29586917 0.38672122 0.4079533 1.15764 0.31406027 0.34784603 0.3971851 0.7964844

layers.3.weight f4 [6, 32]
00000000: a7a6 2f3d 8e85 4a3e 99e0 703d 708b 503d
00000010: 1261 153e 2246 f33d 1e67 9c3d 1fd9 33be
00000020: c7d2 a83d 54ab 1abe c9ba 1c3e f7ec 263d
00000030: 01f6 e03d 0476 3ebe 961d 053e 5f8f bfbd
00000040: e3aa c33a 4bdb 3c3d 91e6 1dbe 7b1c cfbd
00000050: a32b 25be a540 a5bc 2a55 a7bd 30ac f63c
00000060: 9fe2 37be ce0c c83d c683 53be 516f b5bd
00000070: d6ff f8bd bad4 67be fe67 af3d eaa5 31be
00000080: dd69 343c 4d79 4c3e 7779 103d 5720 683d
00000090: 6451 0c3e 827b d53d 6766 893d 3f4b ebbd
000000a0: 8913 8e3d cb54 69bd 04cd 0b3e 1112 62bb
000000b0: 05c9 eb3d 8742 d3bd e88c e73d 2a0d a3bc
000000c0: 127d 753d 1ff9 eb3d 138f 42bc 227f 023d
000000d0: ab77 2bbd d842 243d 814d 0bbc 1c40 a13c
000000e0: d176 ddbd 8657 bb3d c6a2 fdbd 5fed fbbc
000000f0: 0fd1 46bd a946 1bbe 1519 863d 7a16 69bd
00000100: 5fe1 e2bc 9b9e 3d3e fa99 a1bb d41b f43c
00000110: a869 fd3d 2378 a33d a6fa b53c 4dad 15bd
00000120: 3045 793d f329 36bc a5fa f93d f946 efbc
00000130: 0afc c13d 0a8a 70bd 0feb a63d 0bd9 d13c
00000140: fadb ab3d 5c71 0e3e 1384 ad3b fafe 8a3d
00000150: 0d82 d3bb 17c5 963d a6d1 783b 51aa 563c
00000160: e84f 64bd 2bd7 8e3d ecc4 acbd 94b9 173c
00000170: 6615 94bc 18d8 a0bd 162b 4e3d f36f b5bc
00000180: e7b8 1abd b3e7 0c3e 3b77 d8bc b0f0 57bd
00000190: 8468 0f3e d2aa ef3b 3d45 5dbd 899f 813b
000001a0: 3fb2 8a3d f7f1 e53c 3b15 9f3d e81b 1fbd
000001b0: a895 3f3d b3b0 48bb 854a 92bc ac3a ed3d
000001c0: 8019 9d3d 5324 143e ef07 e43b 416a 8a3d
000001d0: b6e5 063d fee1 a03d 33ef a93c 741c 09bc
000001e0: 595a 6ebc a985 613d 3fe4 e3bc 87e0 c6b9
000001f0: 14a2 df3b 17cc 4fbd e804 ca3b 9ea6 92ba
00000200: a1a5 c2ba f89f 9c3c 6f30 4c3c b003 3fbe
00000210: 8c37 823d c1b2 0dbe 445c 31be 1a0b c23c
00000220: 62d8 7dbc ab68 873d 87c3 3fbd 4d4a 3bba
00000230: 0576 73bd b724 26bc e70e 02be 9d8f c73d
00000240: 4532 c9bc f619 033e f0dd 043d 3daf d03d
00000250: 67f6 983d 5b32 f23b 0f7a d6bb d390 f6bd
00000260: 3144 b93c 5ab6 a7bd 4bf6 0cbb ed37 27bb
00000270: 1368 3e3d 4abf b7bc 8c5d 49be e84e f73c
00000280: 43a2 673d 121c 8cbe 132a 723d 3b18 c5be
00000290: 435d 8abe 6d9b c5be 31fd b1be 36e7 583d
000002a0: 6687 b5be 4ceb b73d b5d3 8ebe 2514 373d
000002b0: ea4a b1be cdd2 afbd 3108 fbbe 05a3 f83d
000002c0: 9fa2 80be 1b4e f2bc 47af 4b3d 9ffa eb3d
000002d0: df6f 7a3d dadd 36be 2ed0 2bbe c570 10bf
000002e0: fc24 3f3d 5d45 fbbe 044f b73c 4ecd 16be
000002f0: 89e0 b53d 472b 2e3c 918c 16bf 1e48 68bd
0.04288354 0.1977751 0.058807943 0.050914228 0.1458781 0.11878611 0.076368555 -0.17563294
0.082433276 -0.15104419 0.15305628 0.04075333 0.109844215 -0.18599707 0.12999567 -0.09353518
0.0014928248 0.04610757 -0.15419985 -0.10112854 -0.16129927 -0.020172426 -0.08170541 0.030111402
-0.17957543 0.09768067 -0.20655736 -0.088591225 -0.12158172 -0.22639742 0.08564757 -0.17348447
0.011011568 0.19968148 0.035272088 0.056671467 0.13702923 0.10423948 0.06708985 -0.114889614
0.0693732 -0.05696563 0.13652426 -0.0034495632 0.11512951 -0.103154235 0.113061726 -0.019903738
0.05993373 0.115221255 -0.011874932 0.031859525 -0.04186217 0.04010281 -0.008502365 0.01968389
-0.10813678 0.09147553 -0.12384562 -0.030752836 -0.048539218 -0.15163673 0.06547753 -0.0569062
-0.027695356 0.18517534 -0.0049316855 0.029798426 0.12373668 0.07981899 0.022214245 -0.036542226
0.060856998 -0.0111184 0.1220601 -0.029208647 0.09471901 -0.058725394 0.081503026 0.02561619
0.083915666 0.1391043 0.0052952855 0.06786914 -0.0064547122 0.07361811 0.0037966757 0.01310213
-0.055740267 0.06974634 -0.08435997 0.009260554 -0.01807661 -0.078537166 0.05033406 -0.022148108
-0.037773993 0.13760261 -0.026424041 -0.05271977 0.14004713 0.0073140645 -0.05402111 0.0039557857
0.06772279 0.02806948 0.07767721 -0.038844973 0.046773583 -0.00306229 -0.0178578 0.115834564
0.07670879 0.14466982 0.0069589536 0.067585476 0.032933913 0.078556046 0.020743942 -0.0083686
-0.014547908 0.05505911 -0.027818797 -0.0003793279 0.006824741 -0.050731745 0.0061651357 -0.0011188572
-0.0014850387 0.019119248 0.012462719 -0.1865375 0.06358251 -0.1383772 -0.17320353 0.023686934
-0.015493484 0.06611761 -0.04681733 -0.00071445556 -0.059438724 -0.010140589 -0.12700997 0.09744189
-0.024560103 0.12802872 0.03243822 0.10189674 0.074688725 0.0073912567 -0.0065453122 -0.12039342
0.022615524 -0.08189078 -0.0021509107 -0.0025515512 0.04648597 -0.02243008 -0.19664592 0.030188993
0.05655123 -0.27365166 0.059122156 -0.3849505 -0.27024278 -0.38595143 -0.34763482 0.052954875
-0.35454863 0.08980426 -0.27895895 0.044696946 -0.34627467 -0.08585129 -0.49029687 0.121404685
-0.2512407 -0.02957826 0.049727704 0.115224116 0.061141845 -0.17858067 -0.16778633 -0.5642207
0.04666613 -0.49076357 0.022376545 -0.14726755 0.08880717 0.010630435 -0.5880824 -0.0567094

layers.3.bias f4 [6]
00000000: aa93 4bbe fa0a 70be 48ba 61be 67db 19be
00000010: b6d5 8e3e 5441 fe3e
-0.19880548 -0.23441687 -0.22043717 -0.15025102 0.27897424 0.49659216
