saved_model.pth (torch, 248830 bytes, 18 tensors)

fc1.weight f4 [128, 21]
0.18650898 -0.06957539 0.3276911 -0.2969582 0.2899776 0.04933373 -0.06895005 -0.32765368
0.5155117 -0.0040082266 -0.2305828 -0.08869431 -0.044563826 -0.35021162 0.2992408 0.1936367
0.2481085 0.017931152 0.16691396 0.13850702 0.14061302 -0.18905859 0.21941118 0.18729079
-0.39898324 0.55037504 0.21351555 -0.29422495 -0.04304642 0.17920785 -0.38923204 -0.2728104
-0.26784772 -0.20666866 -0.018800521 0.96209186 0.21581823 0.22173168 -0.42832097 -0.1004548
0.14882258 -0.2753295 0.0331177 -0.07232962 0.42578876 -0.106423385 0.57104105 0.4917959
-0.28142145 -0.509865 0.08000507 -0.44539186 -0.10372109 0.02944364 0.06729882 -0.15092689
0.023470258 0.120128304 -0.002813806 0.15667593 0.6677347 -0.61205554 -0.20642705 -0.10577635
0.29412445 -0.24838151 0.050091565 0.76602846 0.80492574 -0.3541884 -0.5489141 -0.15067162
-0.5984043 -0.12024194 0.14540479 0.050404955 -0.046541803 -0.107091404 0.006207746 -0.0905576
-0.07420699 0.022127816 -0.0416067 -0.0853277 -0.068377875 -0.37772158 0.12612157 0.31057575
0.10480199 0.42582855 -0.230909 0.14705 0.23718539 -0.61693686 -0.4003668 -0.0005090314
-0.114806235 0.11529244 0.4952421 -0.12405277 0.08513938 -0.046531513 0.1797219 -0.307091
-0.08840227 0.13407533 0.06892206 -0.25755605 0.2678247 -0.15828358 -0.2500244 0.2703335
0.121464014 -0.18469988 -0.051402878 0.23495944 0.3064122 0.23795266 0.17413656 -0.3931374
-0.3159795 -0.22823201 -0.15632223 1.9019284 -0.091977894 -0.080381304 0.23788264 -0.054142203
-0.021853339 0.02370601 0.0017382697 -0.21374528 0.21916747 -0.1013102 0.08133979 -0.17950584
-0.57455045 0.042668678 -0.0151216 -0.019566514 -0.007674174 0.13631478 0.069503285 -0.18933296
-0.49105823 -0.0032195179 -0.033831716 0.027794011 -0.22905928 -0.20399094 -0.65100646 0.6021072
0.4876461 -0.10895696 -0.25635225 -0.027516626 -0.73639905 0.17519736 -0.2269418 -0.11366742
-0.043741826 0.10103817 0.1871724 -0.016657755 -0.07971902 -0.4935839 -0.12683018 -0.072768256
-0.1638517 0.3130637 0.5216568 -0.30720854 0.077570744 0.2073233 0.13297592 -0.13594297
0.40415165 0.28209263 0.16684926 0.033958398 -0.082782835 -0.11460884 -0.23468852 0.18228595
0.19410075 0.05908081 -0.2060406 0.14853598 0.14616959 -0.026119977 0.5415711 0.28756624
-0.16460234 -0.16711704 -0.25269532 -0.0769433 -0.20360065 0.33744073 0.58650476 0.291426
0.06958951 -0.08541704 0.11209836 -0.077177055 -0.028625743 -0.04658101 0.09596068 -0.13127984
0.6796557 0.033621076 0.19349763 -0.19779575 0.07567502 0.07821818 -0.29844287 -0.1550592
0.29485342 0.18845153 0.047464445 0.712674 -0.01838258 -0.0882874 0.10241689 0.032865714
-0.123978846 -0.1959054 0.017908156 -0.033401784 -0.20049511 -1.171275 -0.13097122 -1.0856247
0.07383218 -0.034356616 -0.3258826 0.046806388 0.033291426 -0.30513602 -0.183129 -0.28846025
0.13668858 -0.043219097 -0.03360782 -0.013196261 0.04599622 0.21415849 0.13068758 0.009005578
-0.14353761 -0.009228276 0.06723203 0.734406 -0.06319812 -0.021041246 0.1719003 -0.08416035
00000000: 36fc 3e3e 8b7d 8ebd 21c7 a73e e80a 98be
00000010: f277 943e 2a12 4a3d af35 8dbd 39c2 a7be
00000020: 93f8 033f 7157 83bb e61d 6cbe 5da5 b5bd
00000030: 8f88 36bd f04e b3be 1736 993e b348 463e
00000040: 2810 7e3e 5ae4 923c 7eeb 2a3e c9d4 0d3e
00000050: dcfc 0f3e 9398 41be 53ad 603e 28c9 3f3e
00000060: 8847 ccbe 61e5 0c3f d2a3 5a3e a7a4 96be
00000070: 7151 30bd 4382 373e 6c49 c7be cead 8bbe
00000080: 5623 89be f3a0 53be 8d03 9abc a74b 763f
00000090: 74ff 5c3e a10d 633e e34c dbbe 3fbb cdbd
000000a0: f264 183e fdf7 8cbe 6da6 073d 8d21 94bd
000000b0: fc00 da3e 81f4 d9bd bf2f 123f accc fb3e
000000c0: 7916 90be 8386 02bf b3d9 a33d 670a e4be
000000d0: b96b d4bd ca33 f13c f7d3 893d 948c 1abe
000000e0: b344 c03c d405 f63d d567 38bb a86f 203e
000000f0: a9f0 2a3f acaf 1cbf 9d61 53be 45a1 d8bd
00000100: 7b97 963e b957 7ebe d02c 4d3d 711a 443f
00000110: 9d0f 4e3f 2f58 b5be a285 0cbf a949 1abe
00000120: 0631 19bf 6841 f6bd fee4 143e 6d75 4e3d
00000130: 9ea2 3ebd bd52 dbbd 596a cb3b 4376 b9bd
00000140: d6f9 97bd 6545 b53c c96b 2abd 4ac0 aebd
00000150: b309 8cbd b964 c1be 0326 013e c903 9f3e
00000160: 6da2 d63d 3306 da3e 6973 6cbe 4694 163e
00000170: bae0 723e 93ef 1dbf e1fc ccbe 8570 05ba
00000180: 881f ebbd 711e ec3d 5f90 fd3e 610f febd
00000190: 8e5d ae3d d497 3ebd 0509 383e 083b 9dbe
000001a0: 400c b5bd 0b4b 093e 0227 8d3d 63de 83be
000001b0: 5220 893e 1715 22be 3303 80be 2769 8a3e
000001c0: 20c2 f83d f721 3dbe d38b 52bd 3599 703e
000001d0: 0fe2 9c3e dda9 733e db50 323e 4e49 c9be
000001e0: 11c8 a1be a7b5 69be ef12 20be 6472 f33f
000001f0: e85e bcbd f49e a4bd 8297 733e 37c4 5dbd
00000200: c605 b3bc 1b33 c23c a7d6 e33a 0be0 5abe
00000210: 706d 603e b97b cfbd 7a95 a63d 61d0 37be
00000220: bd15 13bf 5ac5 2e3d 96c0 77bc f449 a0bc
00000230: a377 fbbb 1a96 0b3e bd57 8e3d 80e0 41be
00000240: fc6b fbbe 8cfe 52bb 2093 0abd 44b0 e33c
00000250: 848e 6abe 00e3 50be 5ca8 26bf b323 1a3f
00000260: c0ac f93e d424 dfbd 9a40 83be 8c6a e1bc
00000270: a684 3cbf f066 333e 6e63 68be 77ca e8bd
00000280: a12a 33bd 1aed ce3d 1faa 3f3e d875 88bc
00000290: ba43 a3bd 07b7 fcbe c5df 01be 8607 95bd
000002a0: bdc8 27be e349 a03e 4d8b 053f 704a 9dbe
000002b0: 69dd 9e3d 8f4c 543e d72a 083e a234 0bbe
000002c0: f7ec ce3e 726e 903e 88da 2a3e f617 0b3d
000002d0: 0c8a a9bd 0ab8 eabd 3052 70be 2ba9 3a3e
000002e0: 59c2 463e b8fe 713d 4ffc 52be d119 183e
000002f0: 7bad 153e 90f9 d5bc 67a4 0a3f e23b 933e
00000300: 848d 28be bb20 2bbe 4861 81be 7394 9dbd
00000310: b07c 50be 08c5 ac3e 2d25 163f ca35 953e
00000320: f284 8e3d 21ef aebd d393 e53d 010f 9ebd
00000330: 8980 eabc bbcb 3ebd 0887 c43d 396e 06be
00000340: eafd 2d3f 41b6 093d 3e24 463e f88a 4abe
00000350: 81fb 9a3d da30 a03d 81cd 98be d7c7 1ebe
00000360: 07f7 963e 70f9 403e 146a 423d ce71 363f
00000370: 1097 96bc 06d0 b4bd f2bf d13d 339e 063d
00000380: 9fe8 fdbd 6d9b 48be 20b4 923c 4fd0 08bd
00000390: 974e 4dbe 57ec 95bf 521d 06be c0f5 8abf
000003a0: 5335 973d 86b9 0cbd 16da a6be 0eb8 3f3d
000003b0: 975c 083d ca3a 9cbe 2b86 3bbe 10b1 93be
000003c0: 17f8 0b3e 8206 31bd 5aa8 09bd 2135 58bc
000003d0: 8866 3c3d 5d4c 5b3e f7d2 053e 228c 133c
000003e0: 86fb 12be 3232 17bc f2b0 893d 0802 3c3f
000003f0: 046e 81bd b15e acbc a206 303e 435c acbd

fc1.bias f4 [128]
-0.30260503 -0.74659806 -0.25230435 -0.08268709 0.72729367 -0.96442914 -0.09498004 0.0019520717
-0.6588171 -0.34596276 -0.6930448 -1.2585819 -0.32478824 -0.5941601 -0.3497581 -0.30439174
-1.4458864 0.020811692 -0.6344746 -0.39362165 -0.49167475 -0.8947546 -0.5124931 -0.52336836
0.035348322 -0.93805826 -0.29510292 -0.30175585 -0.4542254 -0.49729338 -0.020299979 0.9972364
-0.71369296 0.03611376 -0.7639504 -0.21335876 -0.9901013 -0.18960905 -0.8580466 -0.522524
-0.17997517 -0.44691023 -1.1424433 -0.8267485 0.08223021 -1.2398608 -0.57340926 -0.8013493
0.3343496 -0.34982494 -0.8118368 -0.03668215 -0.5865082 -0.07366472 -1.0080127 -0.8911276
-0.767532 -0.397333 -0.93029183 -0.5191292 -0.028974677 -0.007290317 -1.3423308 -0.6961416
-0.7633942 -0.9233548 0.46260512 -0.038335115 -0.7588692 -1.0417769 0.04922069 0.5183903
-1.203551 -0.8617722 -0.7631389 -1.1287633 0.5521191 -0.4651216 -0.8058081 -0.8823895
-0.5065187 -0.6841436 -0.48637575 -0.15835482 -1.1526308 0.22043659 -0.07738998 -0.5012892
-0.57105654 -0.6810508 0.95832646 0.6146128 -0.68566555 -1.3770778 -0.37910986 -0.75007236
-0.30742866 -1.0687762 -0.6957979 -0.71811706 -0.7543102 -1.7535056 -1.0700755 -1.1764435
-0.5043994 -1.1457101 -0.994616 0.13542686 -1.5883561 -0.029438052 0.38858587 -0.86839956
-0.6712297 1.1147327 -0.97732466 -1.0650487 -0.77986205 -0.8870758 -0.9397083 -1.1390438
-1.1775252 -1.0034252 -1.4139231 -0.3377909 0.5651689 -0.9561941 -0.34932992 -0.7627243
00000000: 0cef 9abe 0d21 3fbf 092e 81be d957 a9bd
00000010: eb2f 3a3f d4e4 76bf e584 c2bd a8dc ff3a
00000020: 3da8 28bf 0822 b1be 626b 31bf 3619 a1bf
00000030: a54a a6be e01a 18bf 7e13 b3be 3cd9 9bbe
00000040: ce12 b9bf 487d aa3c ed6c 22bf c788 c9be
00000050: cbbc fbbe a30e 65bf bf32 03bf 78fb 05bf
00000060: 67c9 103d 9624 70bf bb17 97be be7f 9abe
00000070: 3b90 e8be 3d9d febe 244c a6bc e24a 7f3f
00000080: 95b4 36bf 06ec 133d 4192 43bf b87a 5abe
00000090: 4777 7dbf e028 42be f1a8 5bbf 22c4 05bf
000000a0: 694b 38be 6bd1 e4be 953b 92bf caa5 53bf
000000b0: 5068 a83d c2b3 9ebf f3ca 12bf 3a25 4dbf
000000c0: df2f ab3e 411c b3be 89d4 4fbf 0640 16bd
000000d0: 6725 16bf 87dd 96bd 8f06 81bf f020 64bf
000000e0: fa7c 44bf 3b6f cbbe 9b27 6ebf a7e5 04bf
000000f0: 4d5c edbc 9de3 eebb 7fd1 abbf 5636 32bf
00000100: cd6d 43bf fb60 6cbf 94da ec3e 4805 1dbd
00000110: 4045 42bf f258 85bf a29b 493d 3ab5 043f
00000120: f60d 9abf 1a9d 5cbf 125d 43bf 517b 90bf
00000130: ad57 0d3f 6b24 eebe 7149 4ebf 47e4 61bf
00000140: 36ab 01bf 0924 2fbf 3e06 f9be c427 22be
00000150: 6889 93bf 21ba 613e a37e 9ebd 7d54 00bf
00000160: c330 12bf 5859 2ebf e254 753f 4457 1d3f
00000170: c787 2fbf 1644 b0bf b01a c2be be04 40bf
00000180: 4a67 9dbe a9cd 88bf d01f 32bf 85d6 37bf
00000190: 791a 41bf df72 e0bf 3cf8 88bf b395 96bf
000001a0: 5220 01bf a1a6 92bf 279f 7ebf 57ad 0a3e
000001b0: 414f cbbf 1228 f1bc baf4 c63e 6f4f 5ebf
000001c0: b6d5 2bbf 90af 8e3f f331 7abf 8453 88bf
000001d0: 0aa5 47bf 6617 63bf b990 70bf 30cc 91bf
000001e0: 25b9 96bf 3d70 80bf 6ffb b4bf eef2 acbe
000001f0: e9ae 103f 23c9 74bf 5fdb b2be e641 43bf

fc2.weight f4 [128, 128]
0.08769694 0.47709408 -0.76042855 -0.16846325 -0.47992498 -0.051615417 0.049092118 -0.24593249
-0.14266472 -0.45770103 -0.087642 0.40961617 0.4227415 -0.16253191 -0.19042355 -0.01574376
0.5715187 -0.14897019 -0.26189852 0.022700204 -0.18500793 -1.3255261 -0.31106377 -0.47141746
0.053370174 0.0025052151 -0.060359776 -0.2811086 0.47415963 -0.109277435 -0.11216445 -0.069509916
0.13918975 0.028137902 0.06456483 -0.8416054 0.08346144 -0.25908113 -0.98927534 -0.097100206
-1.7535725 -0.6745787 0.19005497 -0.48613146 -0.29454193 -0.09861862 -0.18396251 0.2232212
-0.20695944 0.13798398 0.29489377 0.16998664 -0.13366838 0.2420675 0.094475314 0.41696084
0.62631696 -0.44811893 -0.5134407 -0.32644054 0.0661153 0.25192153 -1.1491631 0.0027188736
-0.008023264 0.18426976 -0.5070682 0.18335769 0.3251179 0.119529344 0.072255164 -0.7573438
-0.034718208 -0.56132764 -0.09345651 -0.507968 -0.84200126 0.11648986 -0.5633703 -0.22646973
-1.3347533 0.17088382 0.42582193 -0.6805423 0.40285394 -0.42719984 -0.076279305 0.087839514
1.9451239 -0.41226146 -0.5668615 -0.28374428 0.16310127 0.15644284 -0.38841304 -1.4189428
0.06869524 0.21833014 -0.04139313 -1.7409164 -0.047980256 0.6527494 -0.7912725 1.0078685
-0.33085063 0.35547814 0.24989787 -0.6891839 0.6057763 -0.026873885 -0.5094869 -0.4025165
-0.85627645 -0.30514103 -0.011573861 0.47946754 0.33435625 0.37027833 0.019185908 -1.7331918
0.14740317 -0.44947538 0.63873726 0.30111113 -0.6769124 -0.5316491 0.047886472 0.06310073
-0.97454923 0.313977 -1.1618974 -0.3338038 -0.024636125 -0.53778416 0.028708303 0.16791447
0.049240652 -0.062136594 -0.16528414 -0.2805086 -0.019559458 -0.76968116 -0.75118357 -0.05562743
0.14541051 0.13854104 -0.4962416 -0.09982821 -0.041078087 -0.5789486 -0.6526995 -0.32476
0.13092986 -0.3593092 0.033225786 0.14413883 0.15464509 -0.4544631 0.09811689 0.26914725
-0.015050691 0.5235392 0.26846325 -0.22821441 -0.3089195 0.077558845 -1.1554917 0.05190338
-0.15896799 0.4669095 -0.6691406 -0.61737716 -0.44534048 -0.17954303 -0.020853605 -0.3242522
-0.3305336 -0.96830046 0.09209441 -1.5730665 -0.54477555 0.123247765 0.36503157 -0.005055894
0.07657106 -0.2787934 0.15041538 -0.41306216 0.17968783 -0.0075560915 0.8494358 0.54953694
-0.22153668 0.4662068 -0.016984316 -0.034530204 -0.38239795 0.3115231 0.296888 0.034466926
-0.73590267 -0.22242907 -0.23766372 -0.31045803 -0.21986479 -0.03652932 -0.40255484 0.32823494
-0.87832606 -0.13222529 -0.38657227 0.27167225 0.36065027 -0.1867773 -0.3431468 0.35109296
0.19437788 0.1106683 -0.20317745 0.07426987 0.16652903 -0.3486026 -0.28947663 -0.35523272
0.2226696 -0.07146844 -0.7449965 -1.1073291 -0.5044658 0.103596665 -0.33702713 -1.3009737
-0.40568903 0.378124 0.3754442 -1.1002606 0.24198276 -0.17826357 -0.33443925 0.57150936
-0.10649494 -0.11198104 0.14948653 0.622699 0.34402952 0.32394916 0.5415729 -0.011065917
0.15932544 0.18313223 0.029366734 -0.20686682 -0.14504167 -0.5823875 -0.08587072 0.15616612
00000000: 749a b33d ad45 f43e 72ab 42bf a181 2cbe
00000010: bab8 f5be b06a 53bd d114 493d bad5 7bbe
00000020: b316 12be ca57 eabe a67d b3bd 36b9 d13e
00000030: 9371 d83e c46e 26be 64fe 42be 0ff9 80bc
00000040: 0d4f 123f a48b 18be 9017 86be c7f5 b93c
00000050: b872 3dbe d7aa a9bf c043 9fbe a15d f1be
00000060: af9a 5a3d 892e 243b d03b 77bd 77ed 8fbe
00000070: 0dc5 f23e d9cc dfbd 7ab6 e5bd 375b 8ebd
00000080: c287 0e3e 7581 e63c 913a 843d 7473 57bf
00000090: d5ed aa3d 48a6 84be 2641 7dbf 79dc c6bd
000000a0: 1075 e0bf 31b1 2cbf c59d 423e 39e6 f8be
000000b0: 33ce 96be 8ff8 c9bd ab60 3cbe 1994 643e
000000c0: 2ded 53be ac4b 0d3e 51fc 963e fa10 2e3e
000000d0: 5de0 08be 8be0 773e 467c c13d e47b d53e
000000e0: 4f56 203f d86f e5be da70 03bf 3723 a7be
000000f0: 7567 873d dcfb 803e c717 93bf 212f 323b
00000100: 0274 03bc 36b1 3c3e 39cf 01bf 1ec2 3b3e
00000110: da75 a63e cdcb f43d 84fa 933d 49e1 41bf
00000120: ae34 0ebd 2bb3 0fbf 2066 bfbd 310a 02bf
00000130: 658d 57bf 3c92 ee3d 0939 10bf aee7 67be
00000140: 32d9 aabf 2bfc 2e3e 5505 da3e 0538 2ebf
00000150: df42 ce3e f0b9 dabe 5338 9cbd 34e5 b33d
00000160: d2f9 f83f ef13 d3be d61d 11bf ee46 91be
00000170: 0504 273e 8d32 203e 13de c6be eb9f b5bf
00000180: 17b0 8c3d f091 5f3e d88b 29bd 59d6 debf
00000190: f286 44bd 961a 273f d690 4abf d601 813f
000001a0: 4165 a9be 3b01 b63e 3ae5 7f3e 5b6e 30bf
000001b0: 2814 1b3f 9f26 dcbc bc6d 02bf a516 cebe
000001c0: ef34 5bbf 723b 9cbe 4ba0 3dbc c57c f53e
000001d0: be30 ab3e 1f95 bd3e c42b 9d3c 3bd9 ddbf
000001e0: dbf0 163e a321 e6be 4984 233f 3d2b 9a3e
000001f0: 224a 2dbf 281a 08bf 9b24 443d f53a 813d
00000200: 0f7c 79bf 98c1 a03e 0eb9 94bf 55e8 aabe
00000210: b3d1 c9bc 39ac 09bf ad2d eb3c c5f1 2b3e
00000220: 91b0 493d f182 7ebd 3f40 29be d39e 8fbe
00000230: 283b a0bc d309 45bf 914d 40bf 97d9 63bd
00000240: 7ee6 143e b4dd 0d3e 6113 febe bc72 ccbd
00000250: 7f41 28bd fa35 14bf 5017 27bf f146 a6be
00000260: 7a12 063e 60f7 b7be c317 083d 2199 133e
00000270: 485b 1e3e 63af e8be 82f1 c83d abcd 893e
00000280: 2c97 76bc aa06 063f 0474 893e 0ab1 69be
00000290: b22a 9ebe 2cd7 9e3d 27e7 93bf a398 543d
000002a0: 81c8 22be c30e ef3e cc4c 2bbf 6e0c 1ebf
000002b0: ab03 e4be 21da 37be 2ed5 aabc 6204 a6be
000002c0: b33b a9be 8ae2 77bf fe9b bc3d 3e5a c9bf
000002d0: 6976 0bbf 5369 fc3d 6be5 ba3e eaab a5bb
000002e0: 4ad1 9c3d 02be 8ebe 7d06 1a3e e27c d3be
000002f0: 1600 383e 1799 f7bb a074 593f 74ae 0c3f
00000300: 83da 62be a8b2 ee3e b122 8bbc 8b6f 0dbd
00000310: aac9 c3be f57f 9f3e b401 983e 312d 0d3d
00000320: 1e64 3cbf 72c4 63be 1e5e 73be 5bf4 9ebe
00000330: 3c24 61be c59f 15bd ab1b cebe 690e a83e
00000340: fad9 60bf 1166 07be cdec c5be a018 8b3e
00000350: 27a7 b83e 8c42 3fbe f0b0 afbe 75c2 b33e
00000360: ff0a 473e 10a6 e23d c00d 50be cd1a 983d
00000370: 9686 2a3e 0a7c b2be 4836 94be 10e1 b5be
00000380: 8003 643e 0c5e 92bd 17b8 3ebf f6bc 8dbf
00000390: ac24 01bf 7d2a d43d d28e acbe 4e86 a6bf
000003a0: 79b6 cfbe 7899 c13e 393a c03e 57d5 8cbf
000003b0: 54ca 773e ba8a 36be 9f3b abbe 704e 123f
000003c0: 051a dabd 5156 e5bd ff12 193e 3469 1f3f
000003d0: a324 b03e aadc a53e 86a4 0a3f d24d 35bc
000003e0: 3526 233e 0487 3b3e 8192 f03c e5d4 53be
000003f0: ce85 14be 5917 15bf fddc afbd 03ea 1f3e

fc2.bias f4 [128]
-0.74180305 -0.14910063 0.068896204 -0.17951268 0.47879246 0.2280938 -0.17210393 -0.032095913
-0.12769969 -0.25422138 -0.15091307 0.03499622 0.09415184 -0.1150337 0.27923217 0.49662036
0.049681176 -0.27331346 -0.1140703 -0.09795262 -0.06246381 -0.38675267 0.18378545 0.48968908
-0.36593914 0.55972993 0.332862 0.20936286 -0.36784402 -0.09256519 -1.335859 -0.12387013
-0.110188775 0.031857383 -0.4022645 0.00975393 -0.94933784 -0.15031596 0.6021531 -0.24343926
-1.1360673 0.3476559 -0.9172227 0.47566408 0.13711159 0.10784231 0.24353556 0.36264664
-0.15184933 -0.19023491 -0.18543395 0.60140723 -0.8201253 -1.3575072 0.096856184 -0.5457366
-0.119611554 0.04536266 -0.57835674 0.21431078 -1.0819201 -0.42613983 0.21696946 -0.024698908
-0.093741424 -0.34810466 -0.8324437 0.18781921 0.47507018 -1.2163515 -0.0629192 0.23904727
0.11440823 -0.74083996 0.21138875 -0.077564724 -0.019931769 -0.36638817 -1.2262257 -0.7734394
0.13781796 -0.28642094 -0.108034894 0.22922653 -0.013111056 0.0007993982 -0.72357786 -0.009569622
0.5100024 -0.09491926 0.14451711 0.10032963 0.4639851 -1.4500493 0.25319016 0.2902676
-0.043460757 -0.11225825 -0.21375647 -0.021972576 -0.01636042 -0.13492262 -0.041494943 0.3369335
0.037623577 0.41024324 -0.015190032 -1.0756181 0.57272863 0.5222222 -0.12048486 0.15101328
-0.118728854 0.12611488 -0.23501655 0.060164608 -0.25095263 -0.015546265 0.14199778 -0.03163187
0.27422902 -0.08956332 -0.132803 0.17352012 -0.12353928 -0.1440887 -0.14910616 -0.5628089
00000000: cee6 3dbf d6ad 18be 7419 8d3d 2cd2 37be
00000010: 4924 f53e 6c91 693e 033c 30be 0177 03bd
00000020: b5c3 02be 4e29 82be f588 1abe 3258 0f3d
00000030: aed2 c03d ca96 ebbd 85f7 8e3e 0645 fe3e
00000040: 7d7e 4b3d beef 8bbe b09d e9bd 629b c8bd
00000050: 0dda 7fbd 7204 c6be 4132 3c3e 87b8 fa3e
00000060: 605c bbbe 764a 0f3f e36c aa3e 3863 563e
00000070: 0d56 bcbe d192 bdbd 6dfd aabf 9faf fdbd
00000080: a7aa e1bd e37c 023d 9df5 cdbe f3ce 1f3c
00000090: ce07 73bf 6dec 19be b526 1a3f 2448 79be
000000a0: a76a 91bf f4ff b13e 1bcf 6abf 3e8a f33e
000000b0: fb66 0c3e 6edc dc3d 6361 793e d2ac b93e
000000c0: 647e 1bbe f1cc 42be 66e2 3dbe d3f5 193f
000000d0: bbf3 51bf ccc2 adbf 895c c63d 65b5 0bbf
000000e0: e7f6 f4bd 32ce 393d 300f 14bf 4974 5b3e
000000f0: 5c7c 8abf 002f dabe 3e2d 5e3e 5d55 cabc
00000100: 81fb bfbd c63a b2be 081b 55bf ae53 403e
00000110: 663c f33e 68b1 9bbf c8db 80bd cfc8 743e
00000120: dd4e ea3d b0a7 3dbf 4b76 583e 41da 9ebd
00000130: f347 a3bc 3b97 bbbe f7f4 9cbf 2000 46bf
00000140: 2720 0d3e c4a5 92be 6641 ddbd 5cba 6a3e
00000150: c1cf 56bc b58e 513a 663c 39bf e7c9 1cbc
00000160: 848f 023f 0765 c2bd 4bfc 133e 9f79 cd3d
00000170: 748f ed3e 379b b9bf 24a2 813e f49d 943e
00000180: e803 32bd a7e7 e5bd fae2 5abe d5ff b3bc
00000190: 4a06 86bc 2829 0abe 9af6 29bd 8c82 ac3e
000001a0: 2e1b 1a3d 670b d23e 9ddf 78bc dbad 89bf
000001b0: 589e 123f 5bb0 053f c4c0 f6bd 3aa3 1a3e
000001c0: 1d28 f3bd 4224 013e 2ea8 70be 2a6f 763d
000001d0: dd7c 80be c3b5 7ebc de67 113e 6b90 01bd
000001e0: bf67 8c3e f96c b7bd 82fd 07be 42af 313e
000001f0: 2902 fdbd fd8b 13be 49af 18be 3e14 10bf

fc3.weight f4 [6, 128]
-0.24505432 0.3205737 0.51736957 0.45308462 0.12662648 0.038183186 -0.34047586 -0.02784912
0.016643576 0.45786446 -0.056732405 -0.45024574 -0.26258418 -0.046508037 -0.6999398 0.31651482
0.14066806 -0.5824905 -0.32661024 0.15649281 -0.7149615 -0.49473497 0.3236163 0.049718063
-0.59761584 -0.76675624 0.25715718 0.2748256 0.04147242 -0.0729605 -0.72800565 -0.08535342
-0.042711336 0.3932873 -0.21173741 0.42417055 0.75004923 0.06829537 0.21972685 0.32804173
-1.0707157 -0.030857166 -0.39743236 0.0871619 0.57511085 -0.095032156 0.19250838 0.22755489
-0.86459625 0.042334415 -0.49082357 0.25186527 0.83949316 0.50707847 0.077911094 0.6500719
-0.36931288 0.007910296 -0.74059135 0.5462466 1.2111455 0.37831685 0.493629 0.3424133
0.0235444 -0.4811325 0.30186436 0.19991882 -0.07095661 -0.70574015 -0.033057705 0.41557172
-0.1873397 -0.49304855 0.3426546 0.025947966 -0.09223065 0.29490286 0.5916334 -0.69656277
0.42826352 -0.31126106 -0.050458968 0.2329926 -0.033088394 -0.026368935 0.49980685 0.3712927
0.33115047 0.011158152 0.44053656 -0.29324058 -1.2025449 -1.8306031 0.11378443 0.30925715
-0.776899 -0.014926019 -0.52575856 0.2854442 -0.34062234 0.17185308 0.007401676 -0.23362724
-0.69117266 0.21873549 -0.8076957 -0.7610339 0.15378447 0.12289946 -0.018848348 0.1978622
0.037714873 0.19675437 -0.36316 0.058009554 0.25789413 -0.040731248 -0.64071864 -0.08289828
0.43921873 0.050396055 0.074622065 -0.7221597 -0.73088497 0.015905855 0.35064697 -0.42984894
0.37659296 -0.17457919 0.18748574 0.07416085 0.07013603 -0.08727944 -0.10115984 -0.08721155
0.060604744 -0.10897731 -0.023356516 -0.061551593 -0.18961309 -0.08092508 -0.5204707 -0.0138203185
0.0394311 -0.1239885 0.02423309 -0.29082942 0.091386445 -0.17654878 -0.0721041 0.09224505
-0.10845892 -0.25242144 0.0031346385 0.07838328 -0.4063849 -0.08833275 -0.751015 -0.34204504
0.044507608 0.023731144 0.24550466 0.016825201 -0.33752033 0.16914761 0.13809574 0.18602502
-0.30692083 0.20543534 -0.13196516 0.23296171 -0.052942436 -0.12117497 0.24816431 0.276518
-0.26137263 -0.06514073 -0.179097 -0.040251475 -0.24137528 0.52007776 -0.0037106923 -0.055293158
-0.013138935 0.06683355 -0.045579825 0.2531184 0.26311523 -0.037946668 0.18087605 -0.19422016
-0.009753854 -0.39418578 0.25941408 -0.01634071 0.30376837 -0.17993161 -0.0646502 0.13920982
0.05614914 -0.036215592 0.18389979 0.07516196 -0.03882232 0.055971872 0.13944991 -0.12987296
0.22515455 -0.14659613 -0.0724668 -0.0040684296 -0.07115162 0.047699653 0.14505401 0.041999895
0.1905274 -0.018804006 0.072655566 -0.053437196 -0.55769145 -0.60546386 0.15585858 0.149103
-0.33717215 -0.050301995 0.03013837 0.031052697 -0.043520868 0.052412443 -0.011813552 -0.0035417518
-0.2518005 0.05782821 -0.08497347 0.16998985 0.05629509 0.11481051 0.029519726 0.16348538
-0.0042405208 -0.04526939 -0.5034309 0.008463368 0.031580493 -0.00709347 -0.08491212 0.070496686
-0.1695405 0.048925415 -0.46124122 -0.39953727 -0.37464878 0.006253719 0.09889982 0.13058513
00000000: 85ef 7abe 3c22 a43e 5572 043f b5fa e73e
00000010: 5faa 013e f965 1c3d da52 aebe d623 e4bc
00000020: 1c58 883c 366d ea3e 3d60 68bd 9c86 e6be
00000030: 6f71 86be 367f 3ebd 412f 33bf 3b0e a23e
00000040: 4a0b 103e 191e 15bf 7539 a7be a73f 203e
00000050: b807 37bf e74d fdbe 09b1 a53e 2ba5 4b3d
00000060: 5afd 18bf 234a 44bf 1baa 833e f1b5 8c3e
00000070: fcde 293d 516c 95bd 945e 3abf c6cd aebd
00000080: 15f2 2ebd f45c c93e b1d1 58be e22c d93e
00000090: 3a03 403f 71de 8b3d 1300 613e 16f5 a73e
000000a0: 360d 89bf 2bc8 fcbc 417c cbbe f081 b23d
000000b0: 773a 133f 38a0 c2bd eb20 453e 2604 693e
000000c0: 2e56 5dbf da66 2d3d 3a4d fbbe 7cf4 803e
000000d0: 06e9 563f e5cf 013f da8f 9f3d 1d6b 263f
000000e0: 9416 bdbe 309a 013c 6597 3dbf d1d6 0b3f
000000f0: d106 9b3f bfb2 c13e f1bc fc3e cc50 af3e
00000100: 30e0 c03c 0057 f6be f78d 9a3e 85b7 4c3e
00000110: b351 91bd 63ab 34bf 8467 07bd d1c5 d43e
00000120: fad5 3fbe dc70 fcbe 6c70 af3e d490 d43c
00000130: 6ce3 bcbd 82fd 963e 4975 173f f051 32bf
00000140: 5b45 db3e 9c5d 9fbe 10ae 4ebd 9d95 6e3e
00000150: b287 07bd aa03 d8bc afe6 ff3e 141a be3e
00000160: 8e8c a93e aed0 363c 028e e13e a123 96be
00000170: feec 99bf 3451 eabf d007 e93d f456 9e3e
00000180: dae2 46bf 438c 74bc 1d98 06bf be25 923e
00000190: 0d66 aebe 41fa 2f3e c289 f23b fb3b 6fbe
000001a0: b1f0 30bf 32fc 5f3e 25c5 4ebf 1ed3 42bf
000001b0: ad79 1d3e b6b2 fb3d da67 9abc 639c 4a3e
000001c0: e97a 1a3d fa79 493e 1cf0 b9be 6d9b 6d3d
000001d0: b30a 843e cfd5 26bd 2306 24bf 93c6 a9bd
000001e0: 47e1 e03e 186c 4e3d 74d3 983d 75df 38bf
000001f0: 471b 3bbf ff4c 823c 0088 b33e 2915 dcbe
00000200: cbd0 c03e e3c4 32be 43fc 3f3e a5e1 973d
00000210: 7ba3 8f3d 90bf b2bd e42c cfbd f89b b2bd
00000220: ae3c 783d 7f2f dfbd 2a56 bfbc 861d 7cbd
00000230: ef29 42be 0cbc a5bd 913d 05bf 9e6e 62bc
00000240: 8182 213d afed fdbd 7984 c63c 98e7 94be
00000250: d128 bb3d 34c9 34be 50ab 93bd f9ea bc3d
00000260: b61f debd 623d 81be 826e 4d3b 6a87 a03d
00000270: ae11 d0be cde7 b4bd 8542 40bf 8720 afbe
00000280: 9c4d 363d d167 c23c 9365 7b3e 01d5 893c
00000290: 77cf acbe 0835 2d3e f868 0d3e 587d 3e3e
000002a0: ba24 9dbe a45d 523e e021 07be 848d 6e3e
000002b0: 2bda 58bd 952a f8bd c91e 7e3e c493 8d3e
000002c0: a2d2 85be 8168 85bd 3465 37be bbde 24bd
000002d0: 152b 77be d123 053f 162f 73bb 147b 62bd
000002e0: b044 57bc 07e0 883d e9b1 3abd bc98 813e
000002f0: 0ab7 863e f76d 1bbd 9237 393e a6e1 46be
00000300: a1ce 1fbc b8d2 c9be ecd1 843e f4dc 85bc
00000310: 8787 9b3e fe3f 38be 5367 84bd 058d 0e3e
00000320: a4fc 653d cd56 14bd 3a50 3c3e 84ee 993d
00000330: 2704 1fbd c342 653d f5cb 0e3e 6bfd 04be
00000340: ea8e 663e 4c1d 16be 7969 94bd 7650 85bb
00000350: f1b7 91bd b660 433d 0a89 143e 1508 2c3d
00000360: 9d19 433e dc0a 9abc 71cc 943d f6e0 5abd
00000370: dec4 0ebf aeff 1abf 6499 1f3e 75ae 183e
00000380: d4a1 acbe 7709 4ebd bee4 f63c 3a62 fe3c
00000390: f042 32bd 6eae 563d a18d 41bc bc1c 68bb
000003a0: ffeb 80be 46dd 6c3d 9206 aebd d211 2e3e
000003b0: ae95 663d c621 eb3d 5ad3 f13c b668 273e
000003c0: 11f4 8abb 656c 39bd d9e0 00bf f0a9 0a3c
000003d0: 8c5a 013d 5770 e8bb 68e6 adbd 9160 903d
000003e0: 069c 2dbe 0466 483d cf27 ecbe 2690 ccbe
000003f0: f7d1 bfbe ffeb cc3b fd8b ca3d 1cb8 053e

fc3.bias f4 [6]
0.70834565 0.06439433 -0.13008723 -0.39946008 -0.73230577 -0.43138596
00000000: 2456 353f 2de1 833d 9635 05be 0886 ccbe
00000010: 6478 3bbf 9fde dcbe

exp_avg f4 [128, 21]
0.003509035 -0.0007822587 0.0025382186 0.0005005353 0.0020397978 0.0020674209 9.9103025e-05 0.0016384297
-0.004054823 0.0005029226 0.0017957599 0.0019976178 0.0035619289 0.00021873764 0.0015841296 0.0020656397
0.0033161251 -0.0005189162 -0.005421731 0.0033003478 -0.0076603256 0.0008577515 0.0013781455 -0.0009197674
-0.0008188721 -0.00041850616 -0.0006260932 -0.00022170579 -0.0017065108 0.0038847837 -0.00069653575 0.0037879955
0.0037541478 0.0028876986 0.0030683628 0.0034469443 0.0035088456 0.0023741687 0.0022984874 0.0012152427
-0.00018162694 -0.0016096188 0.007279911 0.0031073182 0.0065154936 0.0050057927 0.006618657 0.006648606
0.0043708403 0.0055192783 -0.0020134896 0.0046971818 -0.0038805616 -0.0046312655 -0.0010978946 -0.0054607806
-0.0018090704 -0.002758849 -0.00027344096 -0.0033407055 -0.0023543125 -0.0005674178 -0.0035087042 0.005292219
0.0022434467 -0.004259779 -0.0043180115 -0.003540616 -0.0036437982 -0.0039203446 -0.0043439195 0.00020289852
-0.0043783435 -0.00039931678 -0.0021338032 0.0010226008 -0.0035684593 -0.0006211188 -0.00025828765 -0.0016069344
0.0012283244 0.0011894898 -0.0007201347 0.0028427094 0.004050819 0.013707608 0.0043999595 0.00054302986
0.006841757 0.0067402436 0.0009499056 0.000730783 0.000803811 -0.00030582456 0.0039341236 -0.00035683648
0.01424834 -0.010330735 0.008302419 0.0044955853 0.013700075 -0.0074181203 0.0053575714 -0.006456874
0.010308729 0.0056238445 -0.009219274 0.0067406697 0.008069132 0.006297171 0.0064746058 0.008009935
0.008350646 0.0009791511 0.007856937 -0.0032897892 -0.0020410086 -0.0076499544 0.0025500087 -0.004057211
-0.0045694015 -0.003934977 -0.0021829605 -0.008849675 0.014551457 -0.008516462 -0.0003218048 -0.0040893345
0.007566172 0.00860181 0.007841536 0.0077356263 0.008518873 0.008156979 0.002955561 0.008310117
-0.00041605567 -8.0419704e-05 0.00028544583 -0.00030658604 2.3230095e-05 0.001296838 0.00023047515 0.0014624016
-0.004564102 0.002524781 0.0005555897 0.0007026964 -0.002070546 -0.0057950043 -0.0041766623 -0.002491487
-0.00280041 -0.0032777716 -0.0037564056 0.0005027205 -0.0046676053 -0.006703888 -0.008201976 4.498684e-05
-0.011070629 -0.0035483679 -0.0051957187 -0.0006439572 -0.0061755446 0.0030659628 -0.0033082778 0.0059082094
0.0009736184 0.00089322333 0.004508136 0.002901209 0.0027441657 0.0027800677 0.0022485964 0.004026946
-0.004178893 0.00283687 -0.0036346486 -0.0026746574 -0.00448413 -0.0005031594 -0.0047380137 -0.003616287
-0.0046615065 -0.00021632982 0.004440539 0.001569794 0.0020001004 -0.0038104681 -0.0010260557 0.001734026
0.0021872902 5.3930096e-05 8.920324e-05 0.0021855333 0.0020739923 0.0008052408 0.0022819426 0.0051055457
0.006515185 0.0013277268 0.007828517 0.004454761 0.0059741684 0.0014739861 0.0063902596 0.0066563706
-0.0039989115 -0.0004252263 0.0032964249 0.001229464 0.0034089102 -0.0015640047 0.0023368816 0.0023538717
-0.0024651696 -0.00045193103 -0.0059026335 -0.001790507 -0.0017951916 -0.0015128155 -0.0014383424 -0.001057796
-0.0011801723 -0.0021055196 0.00064534193 -0.0033784825 0.0017353744 0.00027544156 -0.009577252 -0.00024749973
0.00042220298 0.000563878 0.00028449186 0.0013095781 0.0012534586 0.0003527675 0.0002448724 0.00037094773
0.0006368899 -0.0010671834 -0.0012408368 3.423427e-05 -0.0016909656 -0.0020467245 -0.0021316016 -0.0014266181
-0.0013973897 0.0005344788 0.00039220325 0.0016790307 -0.00403445 -0.0026843862 -0.003527959 -0.0028538448
00000000: d7f7 653b 7e10 4dba 3e58 263b 5b36 033a
00000010: 21ae 053b 917d 073b 88d5 cf38 94c0 d63a
00000020: 52de 84bb 90d6 033a b45f eb3a 77ea 023b
00000030: 406f 693b f05c 6539 92a2 cf3a af5f 073b
00000040: 5953 593b e007 08ba c7a8 b1bb a64a 583b
00000050: 7803 fbbb bbda 603a e4a2 b43a 8c1c 71ba
00000060: 94a9 56ba f26a dbb9 6720 24ba b279 68b9
00000070: 00ad dfba db97 7e3b b997 36ba 0540 783b
00000080: 2608 763b 8b3f 3d3b 9616 493b 21e6 613b
00000090: a9f4 653b f197 1b3b 38a2 163b c748 9f3a
000000a0: 1c73 3eb9 d8f9 d2ba 528c ee3b 26a4 4b3b
000000b0: ec7f d53b a207 a43b 52e1 d83b 8ddc d93b
000000c0: 4439 8f3b 10db b43b c0f4 03bb d1ea 993b
000000d0: 0551 7ebb dfc1 97bb 3be7 8fba 59f0 b2bb
000000e0: 541e edba cecd 34bb a05c 8fb9 bdef 5abb
000000f0: cf4a 1abb c4be 14ba 4af2 65bb 5a6a ad3b
00000100: ca06 133b 9e95 8bbb 1b7e 8dbb ae09 68bb
00000110: cacc 6ebb 3c76 80bb 7057 8ebb 28c1 5439
00000120: 3578 8fbb 645b d1b9 47d7 0bbb ca08 863a
00000130: d0dc 69bb 94d2 22ba c86a 87b9 c59f d2ba
00000140: baff a03a a8e8 9b3a 6cc7 3cba c04c 3a3b
00000150: bcbc 843b e095 603c 892d 903b 1e5a 0e3a
00000160: d130 e03b 43dd dc3b 1603 793a 0492 3f3a
00000170: d8b6 523a 1457 a0b9 d2e9 803b c815 bbb9
00000180: df71 693c 3e42 29bc df06 083c b44f 933b
00000190: 4876 603c b413 f3bb 918e af3b 2f94 d3bb
000001a0: f1e5 283c 3a48 b83b 700c 17bc d6e0 dc3b
000001b0: 6534 043c 8058 ce3b ee28 d43b 1a3c 033c
000001c0: 26d1 083c dc56 803a 62ba 003c 8199 57bb
000001d0: 71c2 05bb 78ac fabb 0c1e 273b 5af2 84bb
000001e0: ebba 95bb fbf0 80bb 0010 0fbb 3afe 10bc
000001f0: 3c69 6e3c a188 0bbc e9b7 a8b9 d3ff 85bb
00000200: a7ed f73b 9bee 0c3c c979 003c 237b fd3b
00000210: be92 0b3c daa4 053c 16b2 413b 2827 083c
00000220: 0c22 dab9 00a7 a8b8 e4a7 9539 48bd a0b9
00000230: 40de c237 aafa a93a b4ab 7139 0eae bf3a
00000240: 768e 95bb cc76 253b fea4 113a 2835 383a
00000250: ffb1 07bb 05e4 bdbb 62dc 88bb 3748 23bb
00000260: 1587 37bb e2cf 56bb 072e 76bb 00c9 033a
00000270: b6f2 98bb 4aac dbbb 9561 06bc 40b0 3c38
00000280: 9561 35bc bc8b 68bb d940 aabb 3ccf 28ba
00000290: 395c cabb 52ee 483b b1cf 58bb a799 c13b
000002a0: 6d3a 7f3a 3427 6a3a fcb8 933b 3622 3e3b
000002b0: 76d7 333b cc31 363b 305d 133b 79f4 833b
000002c0: 18ef 88bb c8ea 393b 4933 6ebb 4e49 2fbb
000002d0: 9cef 92bb 75e6 03ba 5741 9bbb 3aff 6cbb
000002e0: 8dbf 98bb 98d6 62b9 f181 913b 8cc1 cd3a
000002f0: 1e14 033b 0cb9 79bb b77c 86ba 4248 e33a
00000300: a458 0f3b 0033 6238 a012 bb38 2a3b 0f3b
00000310: d1eb 073b cc16 533a a58c 153b 6c4c a73b
00000320: 557d d53b 1e07 ae3a 2e43 003c 3ef9 913b
00000330: f5c2 c33b c432 c13a 6265 d13b af1d da3b
00000340: 4d09 83bb e8f0 deb9 d508 583b f725 a13a
00000350: 0668 5f3b 4aff ccba 5e26 193b 6a43 1a3b
00000360: af8e 21bb 28f1 ecb9 e16a c1bb 72af eaba
00000370: a24c ebba aa49 c6ba c386 bcba bea5 8aba
00000380: 03b0 9aba c2fc 09bb 2a2c 293a 8869 5dbb
00000390: 8175 e33a 2469 9039 e8e9 1cbc dac2 81b9
000003a0: 205b dd39 36d1 133a da27 9539 26a6 ab3a
000003b0: 174b a43a a7f3 b839 3862 8039 c37b c239
000003c0: f5f4 263a bce0 8bba 93a3 a2ba c496 0f38
000003d0: 64a3 ddba 5722 06bb 57b2 0bbb 5cfd baba
000003e0: 9e28 b7ba 441c 0c3a a1a0 cd39 ec12 dc3a
000003f0: 6b33 84bb 87ec 2fbb 5535 67bb 9207 3bbb

exp_avg_sq f4 [128, 21]
0.00017156694 9.378822e-05 9.514494e-05 9.286378e-05 9.17158e-05 9.196493e-05 9.476921e-05 9.453967e-05
0.00016883617 9.378742e-05 0.00015638546 0.00014234986 0.00015902169 0.000108334505 0.00015138106 0.00014084585
0.00015530139 9.858199e-05 0.00012247768 0.00013795146 0.00013109941 0.00012709593 9.021253e-05 0.00020178243
0.00015824752 0.00019077773 0.00019162033 0.00014365508 0.00017914652 0.00015630158 0.00015501434 0.00028678574
0.00023312791 0.00030960506 0.00015872688 0.00027297315 0.00022001109 0.00031141742 0.00015474428 0.00026414677
0.00027240036 0.00018894809 0.000653685 0.00018341762 0.0003620788 0.00034968875 0.00036768927 0.00036896346
0.00032294108 0.00038384725 0.00031424416 0.00035043526 0.00037062593 0.00036773414 0.00037605304 0.00032677955
0.00035800048 0.00037677263 0.00036559167 0.0003320006 0.00057379546 0.0005416449 0.00037687115 0.0002974504
0.00016658522 0.0004419709 0.0004103011 0.00046172293 0.00045890792 0.00038822158 0.0004342923 0.00030508026
0.00039776522 0.0003419739 0.00032850212 0.00035753893 0.0003003933 0.00032602204 0.00030903294 0.00035662798
0.00030651054 0.00042700293 0.00046453235 0.00040966348 0.00060417235 0.0021819288 0.00086109305 0.0009816779
0.0009165928 0.0009113831 0.0010155501 0.00093236583 0.0011864257 0.0010280194 0.0010145908 0.0010271914
0.0010146596 0.0010489243 0.001055694 0.0010249928 0.0010708891 0.0010027364 0.0017964323 0.0008518857
0.0010285585 0.000657098 0.001222362 0.00052369625 0.000598475 0.00058301823 0.00057846453 0.0006212179
0.00056938565 0.0007891266 0.0006287707 0.00058772555 0.0006279253 0.00057663914 0.00067111343 0.0006087197
0.00064940733 0.0005968308 0.00063512905 0.00048165518 0.0006669239 0.0006801102 0.00037199567 0.0004430382
0.00030013916 0.0003197435 0.00036064666 0.00035467563 0.0003116227 0.00031581626 0.00030281127 0.00032145277
0.00019790728 0.00021263778 0.0001804091 0.00019275749 0.00022286891 0.00022130382 0.0002092263 0.00020154932
0.00024203013 0.00037173048 0.0003104515 0.0005272899 0.0006687033 0.00034070574 0.00043986007 0.00047105108
0.00046428724 0.00043324524 0.00043400165 0.0003847957 0.00043373223 0.0004008015 0.00041273818 0.000382233
0.00042644396 0.00040598057 0.00042262636 0.00040739225 0.00042426327 0.0004529952 0.00064943923 0.00040655397
7.657144e-05 6.449497e-05 0.00017275309 0.0001578681 0.00014015085 0.00014101216 0.00016320746 0.00015309836
0.00018398798 0.00016167316 0.00017658883 0.00017584354 0.00017223285 0.00015160345 0.00017792807 0.00017170297
0.0001838356 0.00013618093 0.00015253919 0.00010481532 0.00018384581 0.0001817777 0.00011784854 0.00025488075
0.00026855277 0.00023366115 0.00023398151 0.0002867629 0.00025046716 0.0003268615 0.0002740104 0.00028134912
0.00031556468 0.00021689314 0.00035822237 0.00027714687 0.0003068545 0.00024951925 0.00034595735 0.00031092268
0.0003153604 0.00031133275 0.00031013307 0.0003981996 0.00058359245 0.00041823863 0.00045497404 0.00045618045
0.00040058364 0.00042876316 0.00038603815 0.00041717547 0.00037692618 0.00039862056 0.00031387436 0.00034965394
0.00038351436 0.00040333046 0.00033225032 0.0003334852 0.0005243275 0.0002253212 0.000453174 2.415894e-05
0.0001438983 0.00014945092 0.00019414688 0.00020641519 0.00020339448 0.0001971989 0.00018588231 0.00013439648
0.00018711637 0.00018267742 0.00017054427 0.0001994002 0.0001665206 0.00017400605 0.0001604432 0.00020042078
0.00016553655 0.00014530447 0.00024684772 0.00019320671 7.9065205e-05 0.00010842829 0.00014285062 0.00012401042
00000000: a6e6 3339 2bb0 c438 8d88 c738 ddbf c238
00000010: 8c57 c038 4cdd c038 d5be c638 9943 c638
00000020: 9d09 3139 bdaf c438 67fb 2339 c043 1539
00000030: 0fbf 2639 a531 e338 0bbc 1e39 05b0 1339
00000040: 66d8 2239 cebd ce38 5a6d 0039 10a7 1039
00000050: bb77 0939 0e45 0539 7c30 bd38 8f95 5339
00000060: 3fef 2539 820b 4839 b1ed 4839 1ea2 1639
00000070: 47d9 3b39 e3e4 2339 588b 2239 bb5b 9639
00000080: cc73 7439 7d52 a239 ec6f 2639 d61d 8f39
00000090: c7b2 6639 bd45 a339 da42 2239 2e7d 8a39
000000a0: f5d0 8e39 5e20 4639 0f5c 2b3a cb53 4039
000000b0: 65d5 bd39 6e56 b739 6bc6 c039 7071 c139
000000c0: 6b50 a939 1b3f c939 23c1 a439 a0ba b739
000000d0: 9250 c239 71cc c039 fc28 c539 9c53 ab39
000000e0: 03b2 bb39 9189 c539 e2ac bf39 5e10 ae39
000000f0: c36a 163a 2dfd 0d3a ca96 c539 1ef3 9b39
00000100: 61ad 2e39 54b8 e739 ae1d d739 6713 f239
00000110: 9499 f039 388a cb39 bab1 e339 2ef3 9f39
00000120: 258b d039 f64a b339 cf3a ac39 1074 bb39
00000130: 1b7e 9d39 f0ed aa39 b305 a239 ccf9 ba39
00000140: 26b3 a039 5ddf df39 7a8c f339 1ac8 d639
00000150: 5261 1e3a b1fe 0e3b faba 613a a5ab 803a
00000160: 8047 703a e2e9 6e3a 351c 853a 036a 743a
00000170: d781 9b3a 9bbe 863a 05fc 843a d3a2 863a
00000180: 54fe 843a 0f7c 893a 365f 8a3a 0d59 863a
00000190: 135d 8c3a 406e 833a 4476 eb3a 1551 5f3a
000001a0: b2d0 863a 1a41 2c3a aa37 a03a a948 093a
000001b0: fae2 1c3a b1d5 183a 19a4 173a 3ad9 223a
000001c0: d342 153a 64dd 4e3a 16d4 243a 9811 1a3a
000001d0: 5b9b 243a 9929 173a a9ed 2f3a 7d92 1f3a
000001e0: fd3c 2a3a a374 1c3a ca7e 263a aa86 fc39
000001f0: 81d4 2e3a 6c49 323a 6a08 c339 9547 e839
00000200: ff5b 9d39 3fa3 a739 2d15 bd39 c2f3 b939
00000210: 4a61 a339 2494 a539 a4c2 9e39 a988 a839
00000220: 5585 4f39 85f7 5e39 332c 3d39 f21e 4a39
00000230: ebb1 6939 cb0d 6839 c263 5b39 fc56 5339
00000240: 78c9 7d39 d2e4 c239 18c4 a239 d439 0a3a
00000250: eb4b 2f3a c0a0 b239 059d e639 68f7 f639
00000260: 946b f339 3125 e339 b78a e339 68be c939
00000270: 8e66 e339 ab22 d239 c864 d839 7266 c839
00000280: 5794 df39 cad9 d439 f393 dd39 4397 d539
00000290: a76f de39 fd7f ed39 213f 2a3a c026 d539
000002a0: fb94 a038 7941 8738 0e25 3539 6589 2539
000002b0: 75f5 1239 aadc 1339 ab22 2b39 0789 2039
000002c0: e6ec 4039 cf86 2939 b42a 3939 a462 3839
000002d0: 6799 3439 bef7 1e39 3492 3a39 2a0b 3439
000002e0: fec3 4039 cacb 0e39 edf2 1f39 4cd0 db38
000002f0: bcc6 4039 949b 3e39 7425 f738 84a1 8539
00000300: 8bcc 8c39 f002 7539 ef58 7539 aa58 9639
00000310: 2251 8339 9c5e ab39 0ea9 8f39 0a82 9339
00000320: 6072 a539 cf6d 6339 cbcf bb39 064e 9139
00000330: 50e1 a039 e8d1 8239 9c61 b539 5603 a339
00000340: f556 a539 603a a339 5b99 a239 72c5 d039
00000350: 3afc 183a 0a47 db39 9589 ee39 812b ef39
00000360: 6d05 d239 9ecb e039 2a65 ca39 58b8 da39
00000370: 2d9e c539 f2fd d039 818f a439 c251 b739
00000380: 6d12 c939 1976 d339 e231 ae39 a0d7 ae39
00000390: 0673 093a 3344 6c39 fc97 ed39 eea8 ca37
000003a0: 68e3 1639 edb5 1c39 e893 4b39 2871 5839
000003b0: 4a46 5539 2dc7 4e39 67e9 4239 c8ec 0c39
000003c0: ab34 4439 198d 3f39 21d4 3239 1516 5139
000003d0: 089c 2e39 6575 3639 a53c 2839 0b28 5239
000003e0: e193 2d39 df5c 1839 576b 8139 8897 4a39
000003f0: cfcf a538 ff63 e338 2cca 1539 cb08 0239

exp_avg f4 [128]
-0.0029779715 0.001730181 0.0050869817 0.0012363918 0.00038004576 -0.009649288 -0.0013183728 0.008701108
-0.0016953569 0.004104724 -2.3314205e-06 0.00083769526 0.0015923441 0.006775139 -0.006264152 0.003245512
-0.0012104189 -0.00016755128 0.006445954 -4.31198e-05 -0.0011454741 -0.009112864 -0.0036761353 0.003171718
0.001985954 -0.0033606556 0.0036644181 -0.000683381 0.0012534151 -0.0002742944 0.0051681963 -0.0024025247
-0.0022693663 -0.0019638739 -0.0037144383 0.002230225 -9.758992e-05 0.001614298 -0.0053602112 0.0038805485
0.002126762 3.5927835e-05 -0.0014803787 0.0036209612 0.0019817334 0.00017829798 0.0006173692 0.0025243696
-0.00075193174 -0.0018892179 -0.0013432198 -0.0050643836 0.0051391795 -0.005720244 -0.002108574 -0.00016695312
-0.0016867098 0.0022366391 -0.0018596415 0.0045218845 0.002217348 0.0019972264 -0.004946497 0.0058447644
0.00015570619 0.0024086547 0.0075361016 0.0020304797 0.0007682034 0.005139563 -0.0010271331 0.005280831
-4.7439593e-05 0.0017024415 -0.001349595 0.0027380663 0.0028704144 0.0028051184 0.00012779614 0.0008012033
-0.0056896713 -0.0057296543 0.00046746957 0.0049354685 -0.000263052 0.0076971943 0.0003822119 -3.912777e-05
-0.004917443 0.0017001353 0.005044803 0.0057867314 0.0013566813 0.008893972 -0.0034152847 -0.004107315
-0.0014947325 -0.0012471024 -0.009415336 -0.004040681 0.0020694272 0.0001814696 0.0005911584 0.0029771312
0.0013420738 0.0007674005 -0.00080481125 -0.0024436167 -0.0031930343 -0.004890413 0.0011184437 0.0030062848
0.0007072898 -0.0007339816 -0.002568172 0.0011105648 -0.0045644552 -0.0026642825 0.004816549 -0.006725085
-0.00013473087 -0.00048144825 0.0037914063 -0.0009632491 0.0027661384 -0.001839873 0.00046559656 0.007596514
00000000: 122a 43bb 3ec7 e23a b2b0 a63b 6d0e a23a
00000010: e140 c739 0c18 1ebc 40cd acba 188f 0e3c
00000020: bd36 deba ec80 863b 8075 1cb6 c798 5b3a
00000030: 34b6 d03a fc01 de3b 8443 cdbb a8b2 543b
00000040: eba6 9eba b4b0 2fb9 9538 d33b 88db 34b8
00000050: bc23 96ba 1f4e 15bc 51eb 70bb 99dc 4f3b
00000060: c726 023b 723e 5cbb bc26 703b ec24 33ba
00000070: a249 a43a 2ccf 8fb9 f959 a93b ad73 1dbb
00000080: a6b9 14bb 56b4 00bb ef6d 73bb f728 123b
00000090: 30a9 ccb8 da96 d33a b6a4 afbb cd50 7e3b
000000a0: 2561 0b3b 38b1 1638 4409 c2ba a64d 6d3b
000000b0: f8df 013b 80f5 3a39 f2d6 213a e56f 253b
000000c0: 491d 45ba a29f f7ba fa0e b0ba 21f3 a5bb
000000d0: 9066 a83b e270 bbbb 0030 0abb 2310 2fb9
000000e0: 9714 ddba 9494 123b 37bf f3ba 512c 943b
000000f0: ed50 113b e6e3 023b 3916 a2bb 7085 bf3b
00000100: 1045 2339 85da 1d3b 67f1 f63b cc11 053b
00000110: 4261 493a c869 a83b dea0 86ba d20a ad3b
00000120: e0f9 46b8 7524 df3a e5e4 b0ba 2171 333b
00000130: 901d 3c3b 14d6 373b 0401 0639 d807 523a
00000140: 6c70 babb d3bf bbbb b416 f539 b6b9 a13b
00000150: 3eea 89b9 bf38 fc3b 9d63 c839 201d 24b8
00000160: 8022 a1bb 13d7 de3a e04e a53b 9f9e bd3b
00000170: acd2 b13a 06b8 113c f8d2 5fbb a896 86bb
00000180: e6ea c3ba d075 a3ba c842 1abc b067 84bb
00000190: 3a9f 073b e048 3e39 f8f7 1a3a f91b 433b
000001a0: 86e8 af3a 602b 493a f8f9 52ba 1625 20bb
000001b0: 3a42 51bb c23f a0bb be98 923a 1705 453b
000001c0: 6a69 393a ac68 40ba c74e 28bb 5f90 913a
000001d0: 6d91 95bb 3e9b 2ebb 24d4 9d3b 1a5e dcbb
000001e0: 8b46 0db9 e46a fcb9 3e79 783b 8e82 7cba
000001f0: 1a48 353b e527 f1ba 501b f439 2eec f83b

exp_avg_sq f4 [128]
0.00012947753 0.00020200151 0.0003746137 0.00042228668 0.0010478206 0.0006196776 0.00031884495 0.0004338006
0.00017465898 0.00029492186 0.0004434306 0.00015146978 0.00014752666 0.0007786886 0.0005444007 0.00018673677
0.002511791 0.0006088062 0.0013570033 0.00022155304 0.0003845947 0.00070263323 0.0002295229 0.00027383055
0.00022094058 0.00015969349 0.00022937352 0.00022641433 0.0012031137 0.00018238333 0.0002436711 0.007374078
0.00020421814 0.00065313844 0.0003792214 0.00021516632 0.0002701227 0.0003980825 0.00022101651 0.00013379034
0.00016136587 0.00028696086 0.00018301609 0.00016084265 0.00030508084 0.00010909056 0.00031238617 0.00019112516
0.0004101464 0.00038122124 0.00021432269 0.00035915946 0.0002922445 0.00035539173 0.00019018308 0.00018664896
0.00016582014 0.00027114598 0.00016123611 0.00019064058 0.0003012739 0.00037106097 0.00020879685 0.0003331965
0.00015490293 0.0001380276 0.00083946576 0.0003975641 0.0001529408 0.00032082244 0.0004622224 0.0007095552
9.4543335e-05 0.00035380624 0.00019741074 0.00033163148 0.0006772119 9.794303e-05 0.00022294334 0.0003726147
0.00044966995 0.00024978572 0.00024996317 0.00019948342 0.00016377919 0.00040098684 0.00020084213 0.00024561826
0.0002110826 0.0001647763 0.0017966469 0.0006248517 0.0002818423 0.002999442 0.00041888995 0.0010987594
0.00031853357 0.00014557746 0.0011619781 0.0007251256 0.00013357095 0.0006248404 0.00030493012 0.00042093024
0.00013763885 0.005103063 0.00014859806 0.00040609532 0.0014601601 0.00048333718 0.0005357711 0.00048879784
0.00015861126 0.00110183 0.0001638614 0.00036342992 0.00016513187 0.000211176 0.00031498136 0.000752711
0.0003987366 0.00044859768 0.00035453253 7.973351e-05 0.0004735864 0.00015363013 0.00030338144 0.0040877075
00000000: 5cc4 0739 5ed0 5339 cd67 c439 5c66 dd39
00000010: 0657 893a dc71 223a a52a a739 bb6f e339
00000020: aa24 3739 be9f 9a39 3f7c e839 dcd3 1e39
00000030: 63b1 1a39 e820 4c3a 1db6 0e3a c5ce 4339
00000040: dc9c 243b 4b98 1f3a 7add b13a b150 6839
00000050: 6da3 c939 eb30 383a 16ac 7039 ea90 8f39
00000060: 49ac 6739 6573 2739 fc83 7039 a269 6d39
00000070: ccb1 9d3a 273e 3f39 f681 7f39 40a2 f13b
00000080: 6423 5639 6137 2b3a 3cd2 c639 459e 6139
00000090: 419f 8d39 bbb5 d039 abc0 6739 124a 0c39
000000a0: 5234 2939 3c73 9639 02e8 3f39 dfa7 2839
000000b0: 42f3 9f39 8cc7 e438 c3c7 a339 c568 4839
000000c0: eb08 d739 a6de c739 cfbb 6039 914d bc39
000000d0: 6538 9939 df53 ba39 e26b 4739 33b7 4339
000000e0: 01e0 2d39 9928 8e39 7d11 2939 b1e6 4739
000000f0: 4cf4 9d39 f68a c239 7af0 5a39 e1b0 ae39
00000100: 706d 2239 80bb 1039 980f 5c3a 2670 d039
00000110: bc5e 2039 0f34 a839 7156 f239 7201 3a3a
00000120: 9145 c638 127f b939 0b00 4f39 d3de ad39
00000130: ec86 313a c466 cd38 e6c5 6939 805b c339
00000140: aec1 eb39 acf5 8239 7d0d 8339 6c2c 5139
00000150: 24bc 2b39 8b3b d239 2699 5239 53c6 8039
00000160: 0e56 5d39 cdc7 2c39 777d eb3a 16cd 233a
00000170: 3cc4 9339 4992 443b 759e db39 3f04 903a
00000180: da00 a739 27a6 1839 844d 983a 5b16 3e3a
00000190: 2e0f 0c39 54cc 233a 07df 9f39 4db0 dc39
000001a0: 2653 1039 9837 a73b fdd0 1b39 31e9 d439
000001b0: d862 bf3a 6b68 fd39 fd72 0c3a ab22 003a
000001c0: e350 2639 486b 903a 36d2 2b39 bd8a be39
000001d0: 4027 2d39 206f 5d39 1524 a539 9551 453a
000001e0: 850d d139 c331 eb39 8de0 b939 9a36 a738
000001f0: b14b f839 c617 2139 2b0f 9f39 2df2 853b
