saved_model2.pth (torch, 170090 bytes, 24 tensors)

input_layer.weight f4 [128, 21]
0	0x3c494cb8	0.012286358
1	0x3e755721	0.23959018
2	0xbe55697c	-0.2084102
3	0xbd8ce671	-0.06879891
4	0x3d0820ed	0.033234525
5	0x3da7b9c7	0.08189731
6	0xbdeb06f3	-0.11475935
7	0xbdf0c627	-0.117565446
8	0x3d95fc26	0.07323484
9	0x3e9dbc21	0.30807593
10	0xbf950484	-1.1642003
11	0xbed85685	-0.4225351
12	0xbe8e08ca	-0.2774108
13	0xbe624940	-0.22098255
14	0x3f4f053d	0.8086737
15	0x3da51a1b	0.0806162
16	0x3dbc22fc	0.0918636
17	0xbe32d3bf	-0.17463587
18	0xbefabfcf	-0.48974463
19	0xbc865eaf	-0.01640257
20	0x3c828f4c	0.01593747
21	0xbf0e04ca	-0.5547606
22	0x3f146793	0.5797054
23	0xbead2796	-0.33819264
24	0xbebea41a	-0.37234575
25	0x3ee0388d	0.43793145
26	0x3ebd5771	0.36980775
27	0xbc6775b9	-0.014127188
28	0xbe7c638c	-0.24647349
29	0xbedf9285	-0.43666473
30	0xbe85a1a9	-0.260999
31	0x3ed28cea	0.41123134
32	0xbe8b9200	-0.27259827
33	0x3d64590f	0.055748995
34	0xbeb59790	-0.35467196
35	0xbef3b844	-0.4760152
36	0x3ccdeb41	0.025136592
37	0xbe56d6b5	-0.20980342
38	0x3e8852fe	0.26625818
39	0xbe8bed7a	-0.27329618
40	0x3c42b187	0.011883146
41	0xbce13c0e	-0.027494457
42	0x3d1b3f99	0.03790245
43	0x3f9aff62	1.2109187
44	0xbefa1d9d	-0.48850718
45	0xbde7fa2a	-0.11327012
46	0x3d37f477	0.044910874
47	0x3e8b67c2	0.27227598
48	0xbe00b288	-0.12568104
49	0xbd872d96	-0.06600492
50	0xbda364c2	-0.079782024
51	0x3ed265ec	0.41093385
52	0xbd948126	-0.072511956
53	0x3e3611d3	0.17780237
54	0x3d8f9b5c	0.07012054
55	0x3d62ec59	0.05540118
56	0x3e4924cc	0.19642943
57	0xbd283220	-0.041063428
58	0xbb18fa9e	-0.002334274
59	0x3dd2b11c	0.10287687
60	0x3c7bdc43	0.015372339
61	0xbe33b1d7	-0.1754831
62	0xbdd8988c	-0.10575971
63	0xbea8fdbb	-0.3300608
64	0x3dfaa84e	0.12239133
65	0xbe2a36b6	-0.16622433
66	0x3d23fbfd	0.040035237
67	0xbd2cd9da	-0.042199947
68	0xbc2ad74e	-0.010427309
69	0xbc9fd995	-0.01951293
70	0xbdf57c44	-0.119865924
71	0xbeec58b3	-0.46161422
72	0xbe1aac3f	-0.15104769
73	0xbebaaa4c	-0.3645805
74	0xbe9e22f0	-0.3088603
75	0xbe84f1c9	-0.25965717
76	0x3e4c2435	0.19935687
77	0x3e316a4e	0.17325708
78	0x3e021115	0.12701829
79	0x3e0b476d	0.13601466
80	0x3e2a558a	0.16634193
81	0x3ee5ded3	0.44896564
82	0xbdff79e8	-0.12474424
83	0x3f0b5f2d	0.544421
84	0xbe8ad752	-0.271174
85	0xbeba1bd8	-0.36349368
86	0x3e8969e3	0.26838598
87	0x3e4fdbaa	0.20298639
88	0x3d0bc1cb	0.034120362
89	0xbe152cce	-0.14567873
90	0xbc075554	-0.00826009
91	0x3ea766dc	0.32695663
92	0x3e39ecae	0.18156692
93	0xbf1ce797	-0.6129088
94	0x3e4b17a3	0.19833235
95	0xbe52f8e5	-0.20602758
96	0x3d5b4b8f	0.053538855
97	0x3e24074b	0.16018407
98	0xbdbcc060	-0.0921638
99	0xbd82cda8	-0.06386882
100	0x3d71dab4	0.059046462
101	0xbb323bac	-0.0027196212
102	0xbfa460ef	-1.2842082
103	0xbe958fa5	-0.29211155
104	0x3c6da0cd	0.01450367
105	0xbbbbaf72	-0.005727702
106	0x3eec7656	0.46184033
107	0xbec904d9	-0.3926151
108	0x3ea68764	0.3252517
109	0xbd7644d4	-0.060124233
110	0xbe268c09	-0.16264357
111	0x3d9cdc1b	0.07659169
112	0x3dc5cf5d	0.09658692
113	0xbe0d9629	-0.13826813
114	0x3e5ac284	0.21363264
115	0xbf29d0c6	-0.6633419
116	0xbe8fedd2	-0.2811113
117	0xbea82014	-0.32836974
118	0xbe5aafb8	-0.21356094
119	0x3efc0053	0.49218997
120	0xbd326f8a	-0.043563403
121	0x3e7545c9	0.23952402
122	0xbd5845f3	-0.052801084
123	0x3e50e002	0.20397952
124	0xbe961176	-0.29310197
125	0xbc888a17	-0.016667409
126	0xbe1cdeb6	-0.15319332
127	0x3f6a483f	0.9151649
128	0x3dd327e8	0.10310346
129	0xbeb49c65	-0.3527557
130	0x3e4d2af7	0.20035921
131	0x3e445dc9	0.19176401
132	0xbd0eecf2	-0.034893937
133	0x3acf2bd5	0.001580591
134	0x3e123ff4	0.14282209
135	0x3f234d97	0.6379027
136	0xbdfbd9b1	-0.12297381
137	0x3db95df6	0.09051125
138	0x3dc6394d	0.09678898
139	0x3e73c819	0.238068
140	0xbd15206a	-0.036407866
141	0xbadf9649	-0.0017058338
142	0xbcab38df	-0.020901142
143	0xbc4a4662	-0.012345882
144	0x3eb52e4f	0.35386893
145	0xbf6ef900	-0.93348694
146	0xbda9cbe7	-0.082908444
147	0xbf06fe20	-0.52731514
148	0x3e544a30	0.20731425
149	0xbe4a1f88	-0.1973859
150	0xbe419466	-0.18904266
151	0x3f0b2efe	0.5436858
152	0x3e2ab4e9	0.16670574
153	0xbe8fdad1	-0.2809663
154	0xbec5e4bc	-0.38651073
155	0x3e281689	0.16414846
156	0xbe397c5a	-0.18113843
157	0x3de02e9a	0.109463885
158	0xbdb7e43e	-0.089790806
159	0xbe15929b	-0.14606707
160	0x3e8f4e24	0.27989304
161	0xbde5cd2b	-0.11220773
162	0xbe114410	-0.1418612
163	0x3df1a1fd	0.11798475
164	0xbe58fe68	-0.21190798
165	0x3f6f9b5b	0.9359643
166	0xbf00db84	-0.50334954
167	0x3df666f4	0.120313555
168	0xbdc16a60	-0.094441175
169	0x3e9ec47c	0.3100928
170	0xbd6feb3b	-0.058573943
171	0xbe594aec	-0.21219987
172	0xbe767608	-0.24068463
173	0xbe83f6e3	-0.25774297
174	0xbe2a8328	-0.16651595
175	0x3de6c7d9	0.11268587
176	0xbd21362f	-0.039358314
177	0xbe023e2e	-0.12719032
178	0x3f02ee2e	0.51144683
179	0xbc32ad2b	-0.010905544
180	0x3e8a44ba	0.2700556
181	0xbdc8f143	-0.09811642
182	0xbd597077	-0.05308577
183	0x3e853cbe	0.26022905
184	0xbe3cb570	-0.18428588
185	0x3cce4f8c	0.025184415
186	0x3eb1f066	0.34753722
187	0xbdd93047	-0.10604911
188	0xbdf84346	-0.121222064
189	0xbd1dfd2c	-0.03857152
190	0x3f7edabf	0.9955253
191	0xbe5a3a19	-0.21311225
192	0xb9335c4e	-0.00017105156
193	0xbde655ec	-0.11246857
194	0x3dee2eb8	0.11630005
195	0xbe1b7669	-0.15181889
196	0x3e045782	0.12924007
197	0xbf5bd304	-0.8586886
198	0x3eea1fa5	0.45727268
199	0xbc4113d2	-0.011784511
200	0xbda46aef	-0.080282085
201	0x3e56ddf9	0.20983113
202	0xbe13d404	-0.14436346
203	0x3d9bfd00	0.07616615
204	0x3cd7b020	0.0263291
205	0xbe5dd54b	-0.21663396
206	0x3d6f6f4f	0.05845576
207	0xbe47e4d5	-0.19520886
208	0x3e8c259a	0.27372438
209	0x3d6b0e88	0.057386905
210	0x3caae358	0.02086036
211	0x3f18ca27	0.5968346
212	0x3f52d0c5	0.8234981
213	0xbd22f517	-0.039784517
214	0x3caada4e	0.020856049
215	0x3e7c44d0	0.24635625
216	0xbeb257aa	-0.34832507
217	0xbedb4c38	-0.42831588
218	0x3eb44a3d	0.3521289
219	0xbec48b3d	-0.3838748
220	0xbdca83ab	-0.09888395
221	0x3e0b5c84	0.1360951
222	0xbdb0a3d3	-0.08624997
223	0xbe1b870d	-0.15188237
224	0xbe88e55e	-0.26737493
225	0xbd4a8d24	-0.04945101
226	0x3e95512a	0.29163486
227	0xbd9a29bd	-0.07527492
228	0x3eb5e476	0.35525864
229	0xbd8bc02c	-0.06823763
230	0x3b3b4629	0.0028575754
231	0xbc227daf	-0.009917661
232	0xbd3494f8	-0.04408738
233	0x3d07e49f	0.033177014
234	0xbd4021eb	-0.046907347
235	0xbbc87308	-0.0061172284
236	0xbb9df83b	-0.004820851
237	0xbe686f88	-0.22698796
238	0x3daefe0a	0.08544548
239	0x3d30a502	0.043126114
240	0x3e4eba62	0.20188287
241	0xbd01ee89	-0.031721625
242	0x3c6747f9	0.014116281
243	0xbd903852	-0.07041992
244	0xbd209a19	-0.03920946
245	0x3ccd4905	0.025059232
246	0xbdc15679	-0.094403215
247	0x3e132ffb	0.14373772
248	0x3de10382	0.10986997
249	0x40560f07	3.3446672
250	0xbc33f532	-0.010983752
251	0xbd03a53e	-0.03214001
252	0x3d5797e4	0.05263509
253	0xbdceb18d	-0.10092459
254	0x3e1f4a9a	0.15555802
255	0xbdaaf202	-0.083469406

input_layer.bias f4 [128]
0	0xbf5ae1e6	-0.85500944
1	0xbf343031	-0.70386034
2	0x3c269f24	0.010169778
3	0xbf94fc11	-1.1639425
4	0xbf37a63b	-0.7173802
5	0xbee9a5ed	-0.45634404
6	0xbf181d61	-0.5941983
7	0xbf7b218d	-0.9809807
8	0xbf0d253c	-0.5513494
9	0xbf90da55	-1.131663
10	0xbefffb3c	-0.49996364
11	0xbe6c2443	-0.23060708
12	0xbfd69f43	-1.6767353
13	0x3f528406	0.822327
14	0xbf3f582d	-0.7474392
15	0xbf1cec5b	-0.6129815
16	0xbf1811d7	-0.5940222
17	0xbe9eda51	-0.31025937
18	0xbf88d637	-1.0690373
19	0xbf69e6a0	-0.9136753
20	0x3cfa8fc0	0.030586123
21	0xbf291666	-0.660498
22	0xbe1c8ce2	-0.15288118
23	0xbf44a358	-0.7681174
24	0xbf2959c2	-0.66152585
25	0xbf84e842	-1.038338
26	0xbd767a63	-0.06017531
27	0xbf47a4c9	-0.7798582
28	0x3ed8bd66	0.42332
29	0xbf8221fb	-1.016662
30	0xbf7be193	-0.98391074
31	0xbf4f5c53	-0.8100025
32	0xbf4173fe	-0.75567615
33	0xbf3fa99c	-0.7486818
34	0xbf083ad0	-0.5321474
35	0xbf15b788	-0.5848317
36	0xbf59eea4	-0.8512976
37	0x3f8eeab7	1.1165379
38	0xbf5f68e8	-0.8726945
39	0xbedf50e1	-0.43616393
40	0xbeb69df2	-0.35667378
41	0xbf51f3f3	-0.8201286
42	0xbf949b11	-1.1609823
43	0xbf3f2b94	-0.7467587
44	0xbf64824f	-0.89261335
45	0xbf3c6e4e	-0.7360581
46	0xbe9b4daf	-0.30332705
47	0xbc8340be	-0.016022082
48	0xbf5c440b	-0.86041325
49	0xbd3be609	-0.045873675
50	0xbf36277e	-0.7115401
51	0xbf2b6635	-0.6695283
52	0xbf5f0282	-0.871132
53	0xbe54dc2e	-0.20787117
54	0xbf52fad6	-0.82413995
55	0xbfa072c9	-1.253503
56	0xbef74c41	-0.48300365
57	0xbf23bb6d	-0.63957864
58	0xbeda67ac	-0.4265722
59	0x3f137b83	0.5761034
60	0xbfc0447a	-1.5020897
61	0x3f4afb5a	0.7928978
62	0x3d9ecc0f	0.07753765
63	0xbfa223f5	-1.2667223
64	0xbf1163c9	-0.56792885
65	0xbf05783a	-0.52136576
66	0xbf3c54e7	-0.7356705
67	0xbf019046	-0.5061077
68	0xbf4d9fb3	-0.80321807
69	0xbef1afd7	-0.47204468
70	0xbe6bb87b	-0.23019592
71	0xbf061394	-0.52373624
72	0x3f28c5fc	0.659271
73	0x3ee30108	0.44336724
74	0xbf6b5ddc	-0.91940093
75	0x3f656ad2	0.8961612
76	0xbe99cb2c	-0.3003782
77	0xbf74eab7	-0.95670646
78	0xbee525b8	-0.4475534
79	0xbea2e8e3	-0.31818303
80	0xbf3aeedb	-0.73020715
81	0xbee40556	-0.4453532
82	0xbf7631e2	-0.96169865
83	0xbf6e7709	-0.93150383
84	0xbea963b1	-0.3308387
85	0xbf7c5e8b	-0.9858176
86	0xbfc20c1b	-1.5159944
87	0xbf3d3f03	-0.73924273
88	0xbf9d6aab	-1.2298177
89	0xbf5ba295	-0.85794955
90	0xbf20bfc0	-0.6279259
91	0xbf5b6e97	-0.8571562
92	0xbf2ba5c1	-0.67049795
93	0xbda02a2b	-0.07820543
94	0xbdd567b5	-0.10420171
95	0xbf5ed049	-0.8703657
96	0xbf0f4c0c	-0.55975413
97	0xbedec584	-0.43510067
98	0xbf3f6a12	-0.74771225
99	0x3f1a90d2	0.6037723
100	0xbe41eba5	-0.18937548
101	0x3e4c4762	0.19949105
102	0xbf22d99b	-0.6361329
103	0xbe57453b	-0.21022503
104	0xbf8e8938	-1.1135626
105	0xbf7b2204	-0.9809878
106	0xbf7257e5	-0.94665366
107	0x3f402a30	0.75064373
108	0xbe206db2	-0.15666845
109	0xbfb2a099	-1.395526
110	0xbf3be2d9	-0.7339302
111	0xbf127739	-0.5721317
112	0xbe8ef31a	-0.27919847
113	0xbf82de35	-1.0224062
114	0xbf473695	-0.7781766
115	0xbf60bb98	-0.87786245
116	0xbf0f7d9e	-0.5605105
117	0xbeab645b	-0.33475003
118	0xbf864405	-1.0489508
119	0x3f22dece	0.6362122
120	0xbf181f46	-0.5942272
121	0x3d500ee7	0.050795462
122	0xbf6cb369	-0.9246126
123	0xbeb20dde	-0.34776205
124	0xbf4f4886	-0.80970037
125	0xbd9ab60f	-0.07554256
126	0xbf54a709	-0.83067375
127	0xbf1c297e	-0.6100081

hidden_layers.0.weight f4 [64, 128]
0	0x3ef26280	0.47340775
1	0x3ec68b7f	0.38778302
2	0xbe1d8ec3	-0.1538649
3	0x3eea1b4f	0.4572396
4	0xbf5dd381	-0.86650854
5	0xbc465958	-0.012106262
6	0xbf0b6155	-0.5444539
7	0x3ea970e1	0.33093932
8	0x3e20f0fa	0.15716925
9	0x3eb7d797	0.3590667
10	0xbeddecd2	-0.43344742
11	0xbe60397b	-0.21896927
12	0xbf12f86c	-0.5741031
13	0x3e1e8826	0.15481624
14	0x3f005db6	0.5014299
15	0x3e5bbecd	0.21459503
16	0xbd33d042	-0.043899782
17	0x3e5bb8af	0.2145717
18	0xbe26c613	-0.16286497
19	0xbe691178	-0.2276057
20	0xbf263ac6	-0.6493343
21	0x3ddbd5b6	0.107341215
22	0x3f1aa85b	0.6041314
23	0xbcf9862c	-0.030459486
24	0x3e4953ca	0.19660869
25	0x3e26d7d6	0.16293272
26	0x3e83e6d0	0.25762033
27	0xbe5eb076	-0.21747002
28	0xbe22aaf9	-0.15885533
29	0x3e4a8eef	0.19781087
30	0x3eb4c562	0.3530684
31	0x3e4868d0	0.19571233
32	0xbef26bae	-0.47347778
33	0xbd8f7d03	-0.07006266
34	0x3ebca82a	0.3684705
35	0x3f2cce03	0.6750185
36	0xbe3787e8	-0.17922938
37	0xbe5b2df7	-0.21404253
38	0x3e105067	0.14093171
39	0xbe548c5d	-0.2075667
40	0x3c9648e6	0.018345308
41	0x3da5cacf	0.08095323
42	0xbeede640	-0.4646473
43	0x3cbacff8	0.022804245
44	0xbf95555f	-1.1666678
45	0xbe0e4edc	-0.1389727
46	0x3e099a31	0.13437726
47	0xbc09e84e	-0.008417202
48	0xbf3ca7b8	-0.7369342
49	0x3ddd6c9c	0.10811731
50	0xbe1bd9ec	-0.1521985
51	0xbf0fa13d	-0.56105405
52	0x3f1e0401	0.6172486
53	0x3e18b65b	0.14913313
54	0x3de0c4ce	0.109750375
55	0x3ddc412a	0.107546166
56	0xbe56bb61	-0.20969917
57	0xbd85576b	-0.06510814
58	0xbdfc19e9	-0.123096295
59	0xbe5cf50a	-0.2157785
60	0xbf54bbc7	-0.83099025
61	0x3f17f8e3	0.59364146
62	0x3e329bc3	0.17442231
63	0x3e964126	0.2934658
64	0xbdb54f01	-0.088529594
65	0x3e748048	0.2387706
66	0x3ef9d056	0.4879176
67	0xbe0abcc2	-0.13548568
68	0x3e29944b	0.16560476
69	0xbe085b65	-0.13316114
70	0xbf25badf	-0.6473827
71	0x3b160a6f	0.0022894403
72	0xbdb65b70	-0.08904159
73	0xbc9931be	-0.018700477
74	0xbee9ff0e	-0.45702404
75	0xbde05524	-0.10953739
76	0xbc057086	-0.008144503
77	0x3ef6b50b	0.48185
78	0xbe0c39f6	-0.13693985
79	0x3ea28d79	0.3174856
80	0x3e1e788e	0.15475675
81	0x3cd59d3f	0.026075957
82	0x3e9808b3	0.29694137
83	0xbe071059	-0.1318983
84	0xbcb2619f	-0.021775065
85	0x3e897142	0.2684422
86	0x3f0abe57	0.54196686
87	0x3ec030a8	0.37537122
88	0x3ed6e840	0.41974068
89	0x3d5be20f	0.053682383
90	0x3d04e35a	0.03244338
91	0x3dcf1871	0.10112084
92	0xbba7ddd3	-0.005122879
93	0xbe728c1a	-0.23686257
94	0x3ea3d641	0.319994
95	0x3f0be61f	0.5464801
96	0xbf7e54dd	-0.9934824
97	0xbe74d23b	-0.23908322
98	0x3ed156bd	0.4088649
99	0x3e0d15a9	0.13777794
100	0x3eed884a	0.46393043
101	0xbe4b19ac	-0.19834012
102	0x3ecf96d6	0.40544766
103	0xbcb636c1	-0.022242906
104	0x3d4d9c6f	0.050198015
105	0xbe85bc93	-0.26120433
106	0xbd0661f6	-0.032808267
107	0x3e4f6741	0.20254232
108	0xbe99cb73	-0.30038032
109	0x3ebfbd35	0.3744904
110	0xbf83e067	-1.0302857
111	0xbe5e7a70	-0.21726394
112	0x3d0928dc	0.033486232
113	0xbd95d814	-0.07316604
114	0x3eb5b866	0.35492247
115	0xbd4f9e6d	-0.050688196
116	0xbe3d0478	-0.18458736
117	0x3e05f2cb	0.130809
118	0xbefe96e2	-0.4972449
119	0x3b907d1f	0.004409447
120	0xbed2a5f1	-0.41142228
121	0x3e8583f3	0.26077232
122	0xbcaf3432	-0.021387193
123	0x3c554242	0.013016285
124	0x3e47d0e9	0.19513287
125	0xbe8ca13b	-0.2746676
126	0xbf2b8452	-0.6699878
127	0xbec628d3	-0.3870302
128	0xbf04dacf	-0.51896375
129	0xbe383c15	-0.1799167
130	0xbe7dc4ad	-0.24782057
131	0xbed82194	-0.42213118
132	0x3c8df26e	0.017327514
133	0xbf611cf5	-0.8793481
134	0x3ec7567d	0.38933173
135	0x3e39e0aa	0.18152109
136	0xbd6235ee	-0.055227213
137	0xbeb6ed8b	-0.35728106
138	0xbec3eb82	-0.38265616
139	0xbe9f1435	-0.31070104
140	0xbf377d64	-0.71675706
141	0xbe49314e	-0.19647714
142	0x3e1b03c4	0.15138155
143	0xbf0382a7	-0.51371235
144	0xbe290ef3	-0.16509609
145	0x3e1b3d46	0.15160093
146	0xbf0057bd	-0.5013388
147	0x3d8aa0be	0.067689404
148	0xbf00b996	-0.5028318
149	0xbe8f00b7	-0.27930233
150	0xbeeb5acc	-0.4596771
151	0x3e753730	0.23946834
152	0x3e5177b9	0.20455827
153	0xbe567e2d	-0.2094657
154	0xbe12e704	-0.14345938
155	0xbea5a1be	-0.32349962
156	0xbd760014	-0.06005867
157	0x3d201ce5	0.039090056
158	0xbe8da79e	-0.27666944
159	0xbf7fbdf8	-0.99899244
160	0xbc7c561a	-0.015401388
161	0x3dfd661c	0.123729914
162	0x3d46e8b2	0.04856176
163	0x3e26cde1	0.16289474
164	0x3cc00262	0.023438636
165	0x3d3422c1	0.043978456
166	0x3dd528af	0.104081504
167	0xbe250886	-0.16116533
168	0xbf07c3bc	-0.5303304
169	0xbec77bd2	-0.38961655
170	0x3e3e4893	0.18582372
171	0xbf129aaf	-0.5726728
172	0x3e7371a8	0.23773825
173	0x3e3748a2	0.17898801
174	0x3c79e073	0.015251267
175	0x3e5f559f	0.21810006
176	0xbbefe204	-0.0073206443
177	0x3eaff48c	0.34366262
178	0xbf3284a8	-0.6973367
179	0xbd5e4ebb	-0.054274302
180	0xbe0bbfdd	-0.13647409
181	0xbed2281b	-0.41046223
182	0x3e52a155	0.20569356
183	0xbef3b986	-0.4760248
184	0x3ef02887	0.4690592
185	0xbcfccb90	-0.030858785
186	0xbc3525cd	-0.011056376
187	0x3aa7c488	0.001279966
188	0xbed94690	-0.42436647
189	0x3de56493	0.11200824
190	0x3ccca316	0.02498011
191	0xbf0e2f76	-0.5554117
192	0xbed90523	-0.42386732
193	0xbee13e29	-0.43992737
194	0xbec0ac4c	-0.37631452
195	0xbf1f899a	-0.6231934
196	0xbed475d2	-0.4149614
197	0x3c837bca	0.016050238
198	0x3d920bc6	0.07131152
199	0xbea539e7	-0.32270738
200	0xbdb484c2	-0.08814384
201	0x3e4a3e62	0.1975036
202	0xbf0086e3	-0.5020582
203	0xbb717ed0	-0.0036849268
204	0xbf0f2879	-0.5592113
205	0xbea06a7a	-0.31331235
206	0x3de9c67c	0.11414811
207	0xbc39a07e	-0.011329768
208	0x3e6eca82	0.23319438
209	0xbecc4b9b	-0.39901432
210	0xbeb90dc2	-0.3614331
211	0xbead8c5d	-0.3389615
212	0xbe20d1e1	-0.15705062
213	0x3e3e7e65	0.18602903
214	0xbf218f69	-0.6310945
215	0x3ea4e441	0.32205394
216	0xbe90362d	-0.28166333
217	0xbe989ee3	-0.2980872
218	0x3eb70656	0.3574702
219	0xbe1f1e9f	-0.15539025
220	0x3da678d1	0.08128513
221	0xbe49e4bf	-0.19716166
222	0x3d82205e	0.0635383
223	0xbe899e67	-0.26878664
224	0xbda2d708	-0.0795117
225	0x3e494ea8	0.19658911
226	0x3e988744	0.297907
227	0xbe10442f	-0.1408851
228	0xbd8cf6ed	-0.06883035
229	0xbef549ef	-0.4790797
230	0x3efea987	0.49738714
231	0xbe0971cd	-0.13422318
232	0xbe2d91f6	-0.16950211
233	0xbe10d735	-0.14144595
234	0xbd2525a2	-0.040319093
235	0xbdab1327	-0.083532624
236	0xbf4ff69a	-0.8123566
237	0xbed0079f	-0.40630814
238	0xbd994060	-0.07482982
239	0xbee7e705	-0.4529344
240	0xbe62d1f4	-0.22150403
241	0x3bc2f729	0.005949874
242	0xbe375c20	-0.17906237
243	0x3ec1b6fc	0.37834918
244	0x3e7c23f1	0.24623086
245	0x39e80c09	0.00044259455
246	0x3de5ce73	0.11221018
247	0xbe20b0da	-0.15692464
248	0x3def8a02	0.11696245
249	0xbdcfa9ab	-0.101397835
250	0xbc946fe3	-0.018119758
251	0x3bcfbad0	0.0063394085
252	0x3e936cce	0.2879395
253	0xbed373aa	-0.41299182
254	0x3cb32dd4	0.021872438
255	0x3abd157a	0.0014425956

hidden_layers.0.bias f4 [64]
0	0x3ebfa8d2	0.37433487
1	0xbd852e1d	-0.06502936
2	0x3e110012	0.14160183
3	0xbd913b34	-0.0709137
4	0x3fafbe78	1.3730001
5	0xbca9777b	-0.020686856
6	0xbd66632a	-0.056246914
7	0x3ea86c6d	0.32895222
8	0x3e6d922c	0.23200291
9	0x3eeff34c	0.46865308
10	0x3f339dde	0.7016276
11	0x3f141f38	0.57860136
12	0x3ef59b6a	0.47970134
13	0xbfbf3008	-1.4936533
14	0xbf5b8e82	-0.85764325
15	0x3ea2d03f	0.31799504
16	0xbcb918ba	-0.022594798
17	0x3eb708a0	0.35748768
18	0xbf8a6a05	-1.0813605
19	0x3ed56eac	0.41685998
20	0x3ef321d9	0.4748676
21	0x3d073267	0.03300705
22	0xbef46336	-0.47731942
23	0x3cabc64e	0.020968582
24	0xbd80a3fc	-0.062812775
25	0x3e48220e	0.19544241
26	0x3c9b4e20	0.018958151
27	0x3e56b77f	0.20968436
28	0x3ead942e	0.33902115
29	0xbd92ea73	-0.07173624
30	0x3b34af01	0.002757013
31	0xbd3cdd8b	-0.046109717
32	0x3e18b77b	0.14913742
33	0x3e0fa53a	0.14027873
34	0x3f812449	1.0089198
35	0xbf1c7d18	-0.6112838
36	0xbd9cdffa	-0.07659908
37	0x3eeedf37	0.46654674
38	0xbf111a25	-0.5668052
39	0xbdb6fcd8	-0.08934945
40	0xbd2da549	-0.042393956
41	0x3ea510cf	0.32239386
42	0x3f24ca2f	0.6437101
43	0x3e98fa7d	0.29878607
44	0x3f1d2e28	0.61398554
45	0x3eee9a39	0.46602038
46	0x3c3a5ec7	0.011375136
47	0xbbcd855d	-0.0062720017
48	0x3eca80ae	0.395513
49	0x3c32c67e	0.010911582
50	0xbf6f1de5	-0.9340499
51	0x3f43da71	0.7650519
52	0x3e982bb2	0.29720837
53	0xbe01f547	-0.12691222
54	0x3eee98a0	0.4660082
55	0xbd0b1888	-0.03395894
56	0x3c843be0	0.016141832
57	0xbe2258c9	-0.15854181
58	0xbd8e8eaf	-0.069608085
59	0x3ec30c9b	0.38095555
60	0xbdd43d86	-0.10363297
61	0x3de9e96d	0.114214756
62	0x3d22d87c	0.039757237
63	0xbe209dec	-0.15685242

hidden_layers.1.weight f4 [32, 64]
0	0xbe4265ee	-0.18984196
1	0x3d6ba1e8	0.057527453
2	0xbdf6e3a7	-0.1205514
3	0x3d886bee	0.06661211
4	0xbd313cb9	-0.0432708
5	0xbd77f1c7	-0.06053331
6	0xbde31ac6	-0.11089091
7	0xbdb6024d	-0.088871576
8	0xbd134871	-0.035957757
9	0xbe0cd75c	-0.13754028
10	0xbe0436f5	-0.1291159
11	0x3d24fab6	0.04027816
12	0x3c28a050	0.010292128
13	0xbdb097aa	-0.086226776
14	0x3c831f40	0.016006112
15	0xbc8c2cfc	-0.017111294
16	0xbe0506d7	-0.1299089
17	0xbd52a84e	-0.05143004
18	0x3d605e3d	0.054777373
19	0xbbede346	-0.007259759
20	0xbb45baeb	-0.0030171226
21	0xbcc8c233	-0.024506664
22	0xbdff0772	-0.12452592
23	0x3d5a2805	0.05326082
24	0x3d024fd4	0.03181441
25	0xbda1020c	-0.078617185
26	0xbd90277a	-0.070387796
27	0xbd903f7a	-0.07043357
28	0xbd06d122	-0.03291429
29	0xbdcdd06d	-0.1004952
30	0x3c8fc186	0.017548334
31	0x3c86c44a	0.01645102
32	0x3ca96875	0.020679692
33	0xbdae76eb	-0.085187756
34	0xbd671428	-0.056415707
35	0xbd1c8467	-0.038212206
36	0xbbae335d	-0.0053161816
37	0xbd48c494	-0.049015597
38	0xbd8fb326	-0.07016592
39	0x3db0f2a9	0.08640034
40	0x3c3c8118	0.011505388
41	0xbdc601f4	-0.09668341
42	0x3cc3c961	0.023899736
43	0x3d26f67e	0.040762417
44	0xbdc5472c	-0.096327156
45	0xbe0aa76e	-0.13540432
46	0xbc92aec3	-0.017905599
47	0xbd834c4a	-0.06411035
48	0x3ce58753	0.02801863
49	0xbdcfc653	-0.10145249
50	0xbdc78388	-0.097418845
51	0xbe1b68ef	-0.15176748
52	0xbbeeb0bc	-0.007284252
53	0xbcd1b240	-0.025597692
54	0xbdae8bc1	-0.0852275
55	0xbd389944	-0.04506804
56	0x3dc9389a	0.09825249
57	0xbcd4c22e	-0.025971498
58	0x3dc62dd5	0.096767105
59	0x3b41f4cd	0.0029595376
60	0x3a9ff8d4	0.0012204894
61	0xbd1ebe99	-0.038755987
62	0x3d3803a1	0.044925336
63	0xbcd43123	-0.025902336
64	0x3e4e3158	0.2013601
65	0xbef469d7	-0.47737
66	0x3ee440d2	0.44580704
67	0xbd09d4f1	-0.033650342
68	0x3e439c4c	0.19102591
69	0x3d25bf9d	0.04046594
70	0xbd1aec8f	-0.037823256
71	0xbe591f20	-0.2120328
72	0x3df4b04e	0.1194769
73	0x3e7f54aa	0.2493464
74	0xbf585d17	-0.84517044
75	0x3e27dcf1	0.16392876
76	0x3f1e5800	0.6185303
77	0xbdc843eb	-0.09778579
78	0x3cc9e8a7	0.02464707
79	0x3de11926	0.10991125
80	0x3e0a81c6	0.13526067
81	0xbcb56a7c	-0.022145502
82	0xbf0871f5	-0.53298885
83	0xbe89d24d	-0.2691826
84	0x3e29b4b7	0.16572843
85	0xbf00166b	-0.5003421
86	0x3d8219a3	0.06352546
87	0x3da784e1	0.081796415
88	0xbd0dacb1	-0.03458852
89	0xbeef2d26	-0.46714133
90	0xbd913ed0	-0.07092059
91	0x3f060b09	0.5236059
92	0x3f11c190	0.5693598
93	0xbc048ac5	-0.008089726
94	0x3dbfd9a2	0.09367682
95	0x3d181897	0.037132826
96	0xbdaff885	-0.08592323
97	0x3dde1376	0.10843556
98	0xbbd16404	-0.0063900966
99	0x3ead5c8b	0.33859667
100	0x3dd5a703	0.104322456
101	0x3e9dd69d	0.308278
102	0x3e59c810	0.21267724
103	0x3e061f45	0.13097866
104	0x3e6bfac6	0.23044881
105	0xbe2c8ba6	-0.16850147
106	0xbcfe209d	-0.03102141
107	0xbe8bf98d	-0.2733883
108	0xbd475c13	-0.048671793
109	0xbe659060	-0.22418356
110	0xbe9f3fb9	-0.31103304
111	0x3c83030b	0.015992662
112	0xbc5b5439	-0.013386779
113	0xbda78528	-0.081796944
114	0x3e8d8bce	0.27645725
115	0xbeb74942	-0.3579808
116	0x3e24ab77	0.16081034
117	0x3df52563	0.119700216
118	0x3da10404	0.07862094
119	0xbe2d3aff	-0.16917036
120	0xbd58dd50	-0.052945435
121	0xbef93b8a	-0.48678237
122	0xbdbc1367	-0.09183388
123	0xbe1e6459	-0.15467967
124	0xbdba851c	-0.0910742
125	0xbea8d10e	-0.32971996
126	0x3c341ec4	0.010993663
127	0x3c9bf1f0	0.019036263
128	0xbf346569	-0.7046724
129	0x3de3346d	0.11093984
130	0xbed519c2	-0.41621214
131	0x3f3053df	0.6887798
132	0xbe66dc61	-0.22545005
133	0x3d8e98a1	0.069627054
134	0x3d06906a	0.032852568
135	0xbdec0b8f	-0.11525642
136	0x3ee77f82	0.45214468
137	0xbf648c90	-0.8927698
138	0x3db33de6	0.087520406
139	0xbe227e7b	-0.15868561
140	0xbf04a4bd	-0.5181387
141	0x3e10309f	0.14081047
142	0xbf1c1c1c	-0.6098039
143	0xbe23fa36	-0.16013417
144	0xbd9cdedd	-0.07659695
145	0xbe7ecb5a	-0.2488226
146	0xbf2b8b27	-0.67009205
147	0x3e8fa26d	0.2805361
148	0xbd610c49	-0.054943357
149	0xbd0535d7	-0.03252205
150	0xbf5c3b38	-0.8602786
151	0xbdb87ed0	-0.090085626
152	0xbd812522	-0.06305911
153	0x3e0e1aa2	0.13877347
154	0x3cad0b00	0.02112341
155	0xbe3550ca	-0.177066
156	0xbea1642a	-0.31521732
157	0xbdbd69c6	-0.0924869
158	0xbdb0c8d9	-0.08632059
159	0xbb7956e7	-0.0038046183
160	0xbe885438	-0.26626754
161	0xbed9736b	-0.4247087
162	0x3e25ba32	0.16184309
163	0x3ea67f03	0.32518777
164	0xbd2ad47c	-0.041706547
165	0x3d5bfd5b	0.053708415
166	0x3e6b37f1	0.22970559
167	0x3bee3e08	0.0072705783
168	0xbe2e6f12	-0.17034557
169	0x3e334f3e	0.17510697
170	0xbe337116	-0.17523608
171	0x3e31984d	0.17343254
172	0xbc904010	-0.017608672
173	0x3ee70c16	0.45126408
174	0x3dd2f04b	0.102997385
175	0xbd391fa0	-0.045196176
176	0xbea82c7b	-0.32846436
177	0xbcf8f440	-0.030389905
178	0xbe7db55c	-0.24776214
179	0x3f0c7b0c	0.54875255
180	0x3f3776e2	0.71665776
181	0xbc8d0516	-0.01721434
182	0xbd41774a	-0.047232904
183	0xbe2934c0	-0.16524029
184	0xbd1782ba	-0.036989905
185	0x3ecf2ad2	0.40462357
186	0xbef6ae64	-0.48179924
187	0x3d423c59	0.047420833
188	0x3d652157	0.05594
189	0xbd0025da	-0.031286098
190	0x3dde5bfc	0.108573884
191	0x3ed2a621	0.4114237
192	0x3e5a18b0	0.2129848
193	0x3bcf5dfd	0.006328343
194	0x3cf9ef30	0.030509561
195	0xbe0c58f5	-0.1370581
196	0xbda3ed4d	-0.08004246
197	0x3e25b294	0.16181403
198	0x3d18a5c0	0.037267447
199	0xbe88ac0d	-0.26693764
200	0x3e20cabc	0.15702337
201	0x3ea51e13	0.32249507
202	0x3efdf271	0.4959903
203	0x3e5bcf71	0.21465851
204	0x3db94175	0.09045688
205	0x3e6c7189	0.23090185
206	0x3e28f05c	0.1649794
207	0x3c019d50	0.007911041
208	0xbdb74614	-0.08948913
209	0xbf16e64d	-0.5894516
210	0xbe36871b	-0.17824976
211	0x3d96a01f	0.073547594
212	0x3dcb8499	0.099374
213	0xbe08c499	-0.13356246
214	0x3f44fc8e	0.7694787
215	0xbc195a06	-0.009359842
216	0x3b886d79	0.004163441
217	0x3ccd7cca	0.025083918
218	0x3c0e642d	0.008690876
219	0xbef4170a	-0.47673827
220	0x3c8e8d88	0.017401472
221	0x3d39c523	0.04535402
222	0x3cbccd57	0.023047132
223	0x3d0dacf6	0.034588777
224	0xbf0b4346	-0.54399526
225	0x3e684174	0.22681218
226	0x3d183ae1	0.037165526
227	0xbd88564e	-0.06657086
228	0x3da4d410	0.0804826
229	0x3eff2d19	0.49839094
230	0x3ea70786	0.32622927
231	0x3d416530	0.04721564
232	0x3e1c7093	0.15277319
233	0x3dcac594	0.09900966
234	0xbd4baa30	-0.04972285
235	0x3e13b54b	0.14424627
236	0x3ef32034	0.47485507
237	0x3ec5d63a	0.38640004
238	0xbedca515	-0.43094698
239	0x3de5c9da	0.11220141
240	0x3ef0d4f7	0.4703748
241	0x3dbec385	0.09314636
242	0x3ec7e4fd	0.39041892
243	0xbd07448b	-0.033024352
244	0x3f10d77a	0.5657879
245	0xbdd94b5e	-0.10610078
246	0x3dcda82c	0.10041842
247	0x3ccd269c	0.025042824
248	0x3d3e96f1	0.046530668
249	0xbd98e30c	-0.07465181
250	0xbf50912f	-0.8147153
251	0x3d05cdc2	0.03266693
252	0x3d77abaa	0.060466446
253	0x3e43c5bc	0.19118398
254	0x3efb9a96	0.49141377
255	0x3e354d50	0.17705274

hidden_layers.1.bias f4 [32]
0	0xbde5ee6d	-0.11227117
1	0xbd8723ba	-0.06598611
2	0x3e90d71e	0.2828912
3	0xbe72eaab	-0.23722331
4	0x3f3025f4	0.6880791
5	0xbe840f89	-0.25793102
6	0xbf0ccdba	-0.55001414
7	0x3da32ae5	0.07967166
8	0xbe9cec8d	-0.30649224
9	0xbeaf209a	-0.3420456
10	0xbe35765b	-0.1772093
11	0x3ced6ce7	0.028982593
12	0x3f007287	0.50174755
13	0xbe0cb9b1	-0.1374271
14	0x3d83dd87	0.06438737
15	0xbeeb53df	-0.45962426
16	0x3e2b09c6	0.16702947
17	0xbeae73ad	-0.3407263
18	0x3f04ad66	0.51827085
19	0x3f255bb4	0.6459305
20	0xbe7fe4b1	-0.24989583
21	0x3efe2ffe	0.4964599
22	0xbe2dbb3a	-0.16965953
23	0x3f4aad78	0.7917094
24	0x3da4c656	0.08045642
25	0x3f27070b	0.6524512
26	0xbf860399	-1.0469848
27	0x3ea9818b	0.33106646
28	0x3cce37f4	0.025173165
29	0xbda934ce	-0.08262025
30	0x3c6f8e6b	0.014621357
31	0x3f120a04	0.5704653

output_layer.weight f4 [6, 32]
0	0xbd2da575	-0.04239412
1	0x3e3bb3d5	0.18330319
2	0x3caafa7c	0.020871393
3	0x3e5437e1	0.20724441
4	0x3ed18534	0.40921938
5	0xbec5f96f	-0.38666865
6	0xbed2e18f	-0.41187713
7	0x3e5e7bb0	0.2172687
8	0x3e1ae8c2	0.15127853
9	0xbeb7da8a	-0.3590892
10	0x3c92604f	0.01786819
11	0x3ef8f862	0.48627
12	0x3e9a979d	0.30193797
13	0x3e1d9f2b	0.15392749
14	0xbed3a8a5	-0.41339603
15	0xbe978287	-0.29591772
16	0xbf5f80c9	-0.87305886
17	0xbf292cbe	-0.66083896
18	0x3df39c14	0.11895004
19	0x3e009b0f	0.1255915
20	0xbd99e954	-0.07515207
21	0x3decafe4	0.11556986
22	0x3e3b3e2c	0.18285435
23	0xbecf6cc8	-0.4051268
24	0x3e21d5bf	0.15804194
25	0x3e0d3f15	0.13793595
26	0xbf488a6b	-0.7833621
27	0x3e709a72	0.23496416
28	0xbec2f873	-0.38080177
29	0x3e4cf48b	0.2001516
30	0xbf0adfcb	-0.5424773
31	0xbf60663e	-0.8765601
32	0xbd80f373	-0.06296434
33	0x3db23a4b	0.08702525
34	0x3e2aafa7	0.16668569
35	0x3e15411b	0.14575617
36	0xbd1e50eb	-0.03865139
37	0xbd86c8bb	-0.06581255
38	0x3e33ea9e	0.17569968
39	0x3e22f3f0	0.15913367
40	0xbda24223	-0.07922771
41	0x3d3f80a1	0.04675353
42	0x3d02a00b	0.03189091
43	0xbd5fb6b4	-0.0546176
44	0x3e629df6	0.2213057
45	0xbdb744ac	-0.08948645
46	0x3ddad152	0.10684456
47	0x3d6a79cc	0.05724506
48	0xbf08d873	-0.53455275
49	0xbdda817f	-0.10669231
50	0xbe2ada76	-0.16684899
51	0x3e253788	0.16134465
52	0xbdf510bb	-0.11966082
53	0x3dc16dbb	0.094447576
54	0x3e4fb4ef	0.20283864
55	0xbf011aba	-0.50431406
56	0xbc488c9f	-0.012240558
57	0x3e01533c	0.12629408
58	0xbf34026f	-0.70316213
59	0x3d9e9b87	0.07744508
60	0xbe1a423b	-0.15064327
61	0xbe0050a1	-0.12530757
62	0xbdd86820	-0.10566735
63	0xbea5ecce	-0.3240723
64	0x3aac6048	0.0013151253
65	0x3d8a9dce	0.0676838
66	0x3dac8de4	0.08425501
67	0x3de06ceb	0.109582745
68	0xbe9c0e63	-0.30479726
69	0x3e406d8b	0.18791787
70	0x3d5d0b6c	0.05396597
71	0x3d21e485	0.039524574
72	0xbeab4a50	-0.33455133
73	0x3d83ff21	0.06445146
74	0xbd1b62c1	-0.037935976
75	0xbe3a12fc	-0.18171304
76	0xbd195036	-0.03743001
77	0xbeb472be	-0.3524379
78	0x3e8ffbe1	0.28121856
79	0x3ea61f51	0.32445768
80	0xbdb14649	-0.08655984
81	0x3e40297a	0.18765822
82	0xbdf1599b	-0.11784669
83	0x3e6cb1a2	0.23114637
84	0x3db79e18	0.08965701
85	0xbd4f7222	-0.050645955
86	0x3c763296	0.015026709
87	0xbe4cd768	-0.20004046
88	0xbea19319	-0.3155754
89	0x3d88be9c	0.06676981
90	0xbe926607	-0.28593466
91	0xbd5731f5	-0.052537877
92	0x3d8d4491	0.06897844
93	0xbe2a2769	-0.16616596
94	0x3e05f336	0.13081059
95	0x3d69a0f5	0.057038266
96	0x3cd497f5	0.025951365
97	0xbbd10acb	-0.0063794605
98	0xbdcec018	-0.10095233
99	0xbcb9cdcd	-0.022681141
100	0xbec50232	-0.38478237
101	0x3eb4c3a8	0.35305524
102	0xbd78e8a6	-0.060768746
103	0xbdabe474	-0.08393183
104	0xbeac8582	-0.33695608
105	0x3e0e26d6	0.13882002
106	0xbd798ce3	-0.060925376
107	0xbe83ec60	-0.25766277
108	0xbeb2ab7e	-0.34896463
109	0xbed3f436	-0.41397256
110	0x3e7096cf	0.23495029
111	0x3ea26406	0.31716937
112	0x3e6ca59e	0.23110053
113	0x3eb7c5f0	0.35893202
114	0xbe32a24f	-0.17444728
115	0x3c9c3974	0.019070365
116	0xbdaaabd4	-0.08333555
117	0xbe5fb1a7	-0.21845113
118	0xbe1d5e7b	-0.15368073
119	0x3e440036	0.19140705
120	0xbf02bbfb	-0.51068085
121	0xbdbf2568	-0.093333066
122	0x3e631831	0.22177197
123	0xbe44bb8b	-0.19212167
124	0x3e5ff748	0.21871674
125	0xbc5817e5	-0.013189291
126	0x3ecd647c	0.40115726
127	0x3e9ee22c	0.3103193
128	0x3df9a951	0.12190498
129	0xbe511645	-0.20418651
130	0xbe92b077	-0.28650257
131	0xbeac2f56	-0.33629864
132	0xbe8c44c1	-0.27396205
133	0x3e9bc409	0.30423
134	0xbeb0f52b	-0.34562048
135	0xbe95cfa1	-0.2925997
136	0xbe3bd4e0	-0.18342924
137	0x3e876b51	0.26449063
138	0x3d62fc7b	0.055416565
139	0xbefa7448	-0.4891684
140	0xbf17d2e2	-0.59306157
141	0xbe5080f7	-0.20361696
142	0xbd70e6ed	-0.058813978
143	0x3c4b551d	0.012410429
144	0x3f443788	0.76647234
145	0x3ed0cb83	0.40780267
146	0xbe6d774b	-0.23190038
147	0xbeb3624d	-0.35035935
148	0xbdb02627	-0.08601027
149	0xbe9c8267	-0.3056824
150	0xbdea56a6	-0.11442308
151	0x3f095fc3	0.53661746
152	0xbf1586d0	-0.5840883
153	0xbececd13	-0.40390834
154	0x3f4480ab	0.7675883
155	0xbe9aff90	-0.30273104
156	0x3e9845f1	0.2974086
157	0x3dd59e10	0.10430539
158	0x3f099e1d	0.53756887
159	0x3eeac426	0.45852774
160	0xbde54bf5	-0.11196128
161	0xbf11e26a	-0.56986105
162	0xbf44c0e9	-0.7685686
163	0xbf8107f0	-1.0080547
164	0xbd5328f7	-0.05155274
165	0xbd4f012d	-0.05053823
166	0xbed7c534	-0.42142642
167	0xbec5e7ef	-0.38653514
168	0x3e90567a	0.28190976
169	0x3e252a3f	0.16129397
170	0xbdef1679	-0.11674208
171	0xbf5a195f	-0.85194963
172	0xbf1d3561	-0.61409575
173	0x3e4065db	0.18788855
174	0xbf18abce	-0.59637153
175	0xbf819f92	-1.0126822
176	0x3f235640	0.6380348
177	0x3ee75a2e	0.4518599
178	0xbf0c6159	-0.5483604
179	0xbf0c8b54	-0.549001
180	0xbdabe3d0	-0.08393061
181	0xbf1ebbcc	-0.62005305
182	0xbdfc6468	-0.123238385
183	0x3f6e5d5c	0.93111205
184	0xbf372793	-0.7154476
185	0xbea2694f	-0.3172097
186	0x3f918e09	1.1371471
187	0xbec0e522	-0.37674814
188	0x3ebe34a7	0.37149546
189	0x3e08e9d3	0.13370447
190	0x3eb54e09	0.354111
191	0x3ee38834	0.44439852

output_layer.bias f4 [6]
0	0x3ea04dc4	0.3130933
1	0xbe2a0693	-0.1660407
2	0xbe18ba64	-0.14914852
3	0xbdacdea6	-0.08440904
4	0x3d03a7ba	0.03214238
5	0xbce3c60b	-0.027804395

exp_avg f4 [128, 21]
0	0x3aa6f42a	0.0012737561
1	0xbb90e463	-0.004421757
2	0x3ba96161	0.005169079
3	0x3b495e58	0.00307264
4	0x3b1eeddf	0.002425067
5	0x3b204e54	0.002446075
6	0x3b6fdb98	0.0036599394
7	0x3b1a2d99	0.0023525713
8	0x3b8d6f35	0.0043162354
9	0x3b2e18b4	0.0026565017
10	0xbbe41a1a	-0.0069611194
11	0xbbea23c1	-0.0071453755
12	0xbbd9519e	-0.006632044
13	0xbba421c8	-0.00500891
14	0xbbbbbe52	-0.005729475
15	0xbb46fc82	-0.0030362909
16	0xbbaa6196	-0.0051996214
17	0x3a8d8a4f	0.0010798665
18	0x3b20681a	0.0024476112
19	0x3c1186a9	0.008882203
20	0xbb88cdb8	-0.004174914
21	0x3a347db7	0.0006885188
22	0xbb2c92e1	-0.0026332664
23	0xbaeedaf2	-0.001822321
24	0xbb0dcd2e	-0.002163719
25	0xbb38e2a0	-0.002821125
26	0xbb385c60	-0.0028131232
27	0xbad00674	-0.0015871064
28	0xbb2e49ad	-0.0026594207
29	0x3b21dae3	0.0024697117
30	0xbaf1e448	-0.0018454874
31	0x3a6077aa	0.0008562753
32	0x3a892851	0.0010464286
33	0x3b10c86a	0.0022092112
34	0xb9024ac8	-0.00012425624
35	0x3aa68774	0.0012705163
36	0x3b4c5dae	0.0031183767
37	0x3ad8cae3	0.0016539957
38	0x3b2288c8	0.0024800766
39	0x3b0c91ac	0.0021449132
40	0xb984c118	-0.00025320868
41	0xbab78fe2	-0.0014004672
42	0xbb528718	-0.003212398
43	0x3992f27e	0.0002802796
44	0x3ba1dc4c	0.0049395915
45	0x3badc8b8	0.0053034686
46	0x3b9734ac	0.0046144333
47	0x3b930f3e	0.004487901
48	0x3bbef7b8	0.00582787
49	0x3b942186	0.004520598
50	0x3b9e299c	0.0048267376
51	0x3bb5bf55	0.00554649
52	0xbbd71466	-0.006563711
53	0xbbc7fa73	-0.006102854
54	0xbb41b8ca	-0.0029559606
55	0xbbca9254	-0.0061819945
56	0xbbaba7d4	-0.0052385125
57	0xbb74ed48	-0.0037372876
58	0xbb1272fd	-0.002234637
59	0xbb31ea53	-0.0027147725
60	0xb96cfe20	-0.00022601383
61	0x3b54551c	0.0032399362
62	0xbbd7c3ff	-0.006584644
63	0x3a063072	0.0005118913
64	0x3abe72a0	0.001453001
65	0x3ae20ae1	0.0017245674
66	0x3ae5c08e	0.0017528699
67	0x3b1064d2	0.002203275
68	0x3b1420f6	0.0022602654
69	0x3ad6fc07	0.0016402014
70	0x3ad292bf	0.0016065462
71	0x39f51c7e	0.0004675127
72	0x3acca364	0.0015612659
73	0xbaa3871c	-0.0012476179
74	0xba794aff	-0.00095097715
75	0x3a050648	0.00050744833
76	0xbad63682	-0.0016343149
77	0xba5e1e54	-0.0008473147
78	0xba876578	-0.0010329923
79	0x3a692d9c	0.0008895041
80	0xbb105f28	-0.0022029374
81	0x3b1c96a5	0.0023893502
82	0xbb7c11fd	-0.003846287
83	0xbb466c36	-0.00302769
84	0xbb36cfd6	-0.0027894876
85	0x3a1a03d9	0.0005875207
86	0x3b3854b4	0.002812666
87	0x3b8556de	0.0040691933
88	0x3b7708bd	0.0037694417
89	0x3b7443a1	0.0037271755
90	0x3b9db85e	0.004813238
91	0x3b5bd3b7	0.003354294
92	0x3ba3b641	0.0049960916
93	0x3b7f9f94	0.0039005028
94	0x3ab77c15	0.0013998771
95	0xbac6fa33	-0.0015180766
96	0x3b8f5040	0.00437358
97	0xbba698e6	-0.005084145
98	0x3b698aa7	0.0035635622
99	0xb97c311e	-0.0002405089
100	0x3bbe9c7d	0.0058169947
101	0xbbc37c7b	-0.005965767
102	0xbc066c99	-0.008204603
103	0x3aa01eb3	0.001221618
104	0x3bef6d5e	0.0073067388
105	0x3b00d4ab	0.001965801
106	0xba32b83c	-0.0006817614
107	0x3a0cbe26	0.00053689105
108	0xba2a41a1	-0.0006494765
109	0xb85991d0	-5.187263e-05
110	0x35f4a700	1.822802e-06
111	0xba681a82	-0.00088540476
112	0xb9a76003	-0.00031924256
113	0xbae0aaa8	-0.0017140703
114	0xba1d3d01	-0.0005998165
115	0xb9a14750	-0.00030761445
116	0x39d5d454	0.00040784723
117	0xba2ab814	-0.0006512415
118	0x3a83c981	0.001005456
119	0xba809d37	-0.0009812479
120	0xba7b60c2	-0.0009589308
121	0xba3f2e17	-0.00072929397
122	0xba126680	-0.00055847317
123	0xba22c5ab	-0.00062092644
124	0xb8251320	-3.9356877e-05
125	0xbabef014	-0.0014567398
126	0x3b725c0e	0.0036981138
127	0xbafc1387	-0.0019231894
128	0x3b695dcd	0.0035608888
129	0x391c5c6c	0.00014911749
130	0x39e46ef2	0.0004357021
131	0x3a1fcb71	0.0006095684
132	0xba3846da	-0.00070296007
133	0x3a8ba3d2	0.0010653681
134	0xbb9efccc	-0.004851913
135	0x393b5288	0.00017864455
136	0x3a95684c	0.0011398881
137	0x3a2b07d0	0.00065242965
138	0x3a0c7747	0.000535835
139	0x3a081720	0.0005191434
140	0x392af6b0	0.00016304362
141	0x3a2afec8	0.0006522951
142	0x3b065097	0.0020494813
143	0xba9426f8	-0.0011303117
144	0x3af827ed	0.0018932797
145	0xba6f234c	-0.0009122386
146	0xbb9413d2	-0.0045189643
147	0xbab656eb	-0.0013911402
148	0x3b15b952	0.0022846055
149	0xbab589e0	-0.0013850294
150	0x39bed3ca	0.0003639742
151	0xb89ca79c	-7.469879e-05
152	0xb8d0eb26	-9.962013e-05
153	0x3a464fe2	0.0007565004
154	0xb8002040	-3.0547613e-05
155	0x3b13f018	0.0022573527
156	0x39974957	0.00028855607
157	0xba80fd93	-0.0009841196
158	0xba0b56c9	-0.0005315361
159	0xb9981a48	-0.0002901128
160	0xba06d062	-0.0005142746
161	0xbaacccd1	-0.0013183599
162	0xba05271d	-0.00050793757
163	0xbaaa5148	-0.0012994194
164	0x3a1d0cbe	0.00059909734
165	0x3b880a09	0.004151587
166	0xbbcdee9a	-0.006284547
167	0x3bca262e	0.006169102
168	0x3a29567a	0.00064597244
169	0x39264eac	0.00015860301
170	0x3afb10b2	0.0019154756
171	0x3a8acc48	0.0010589445
172	0x3a8af11b	0.001060042
173	0x3a848655	0.0010110835
174	0x3ab9d96d	0.0014179178
175	0x3a67605c	0.00088263093
176	0x3ae51194	0.0017476552
177	0x3a8128f4	0.0009854124
178	0xb7c6f2a0	-2.371642e-05
179	0x39d03d9a	0.00039718748
180	0x3ac3bc4d	0.0014933437
181	0xba029027	-0.0004980587
182	0x39d81c60	0.00041219871
183	0xba21c2ee	-0.00061707094
184	0x3b078535	0.0020678763
185	0xbb38598e	-0.002812955
186	0xbbcda7ea	-0.0062761204
187	0x3a9fbc26	0.001218681
188	0x3b515edb	0.0031947407
189	0xbb5094a6	-0.0031826883
190	0x3a623449	0.0008629007
191	0x3a7b70c8	0.0009591696
192	0x393eb6fe	0.00018187982
193	0x3a109fbf	0.0005516968
194	0x3a10ceec	0.0005523998
195	0x39af4a0d	0.00033433773
196	0x392cfd7c	0.00016497629
197	0x3a09f429	0.0005262518
198	0x38f6d4f4	0.0001176986
199	0xbacc87e0	-0.0015604459
200	0xbb16f9e0	-0.002303712
201	0xba47304a	-0.0007598443
202	0xbb296f78	-0.0025853794
203	0xbacfac5b	-0.0015844213
204	0xbae9e01e	-0.0017843281
205	0xbaef3deb	-0.0018252706
206	0xba135582	-0.00056203466
207	0xb985b525	-0.000255027
208	0x3b6562d4	0.0035001533
209	0x3a4d0590	0.0007820958
210	0x3ade55d9	0.001696284
211	0xba65fde0	-0.0008773487
212	0xbb72c4ef	-0.003704365
213	0xbb8ab3f8	-0.0042328797
214	0xbb7c56a0	-0.003850378
215	0xbb79b370	-0.0038101338
216	0xbb93a5a6	-0.004505831
217	0xbb8e997c	-0.004351793
218	0xbac143f6	-0.0014744985
219	0xbb877f4e	-0.004135049
220	0x3b18771f	0.002326436
221	0x3b24b98f	0.0025135016
222	0x3acc4860	0.0015585534
223	0x3b16de46	0.002302067
224	0x3ab0c6a4	0.0013486934
225	0x38a65f20	7.933215e-05
226	0x3a31a2fc	0.0006776301
227	0xba0f9e1c	-0.0005478577
228	0x37b59ac0	2.1648942e-05
229	0x39d6a5de	0.0004094084
230	0x3bb86e74	0.0056284014
231	0xbbb5a453	-0.0055432706
232	0xbc419f6d	-0.011817795
233	0xbb7fd4c3	-0.0039036728
234	0x3a991724	0.001167987
235	0xbb900e17	-0.004396211
236	0xbb8f5d1c	-0.004375113
237	0xba16bb08	-0.0005749916
238	0x3a647ed8	0.0008716411
239	0xbb826822	-0.0039796988
240	0x3afafda8	0.0019149082
241	0x3c017fc7	0.007904
242	0x3c4d7eff	0.012542485
243	0x3b294df1	0.002583381
244	0x3c769cfc	0.015052076
245	0x3bb6886a	0.005570461
246	0x3c8f1774	0.017467238
247	0xbb847d74	-0.0040432755
248	0x3cdb875b	0.026797941
249	0x3bc1d0bd	0.005914776
250	0xbcb2b0a1	-0.021812739
251	0x3bc14df8	0.005899187
252	0xba457bd0	-0.0007533403
253	0xbc20e745	-0.009820764
254	0xbba139c2	-0.0049202153
255	0x3bd70efa	0.0065630646

exp_avg_sq f4 [128, 21]
0	0x39763215	0.00023479045
1	0x3962c81d	0.00021627588
2	0x39e2505c	0.00043165952
3	0x39e85edb	0.0004432116
4	0x39c56e25	0.00037656832
5	0x39c6f099	0.00037944762
6	0x39f2fb4e	0.00046345073
7	0x39dc29fd	0.00041992954
8	0x39e49aae	0.00043602794
9	0x39e757ed	0.00044125263
10	0x39cbeeea	0.00038897182
11	0x39dec8db	0.0004249279
12	0x398dba2d	0.00027032327
13	0x39b86ba7	0.00035175422
14	0x39d65792	0.00040882506
15	0x39d8debd	0.00041364683
16	0x399fa754	0.00030451512
17	0x399b4127	0.00029612446
18	0x39c72799	0.0003798574
19	0x39c84575	0.00038198722
20	0x3a02f487	0.0004995544
21	0x38106f0e	3.4435703e-05
22	0x388c0235	6.676131e-05
23	0x392547c9	0.00015762368
24	0x395020cf	0.00019848648
25	0x394b8ed4	0.00019412796
26	0x39487ba0	0.0001911954
27	0x395244c5	0.0002005278
28	0x39498286	0.00019217478
29	0x391b74df	0.0001482549
30	0x394a7877	0.00019309098
31	0x38ee041e	0.00011349491
32	0x38f5ee94	0.00011726949
33	0x3900d07f	0.00012284702
34	0x38e2f839	0.00010822755
35	0x3900672f	0.0001224547
36	0x38f2ad8d	0.000115717856
37	0x390306ca	0.00012495663
38	0x38e1033e	0.0001072944
39	0x3957a240	0.0002056444
40	0x3986c9e4	0.00025708892
41	0x3928157c	0.00016029732
42	0x39873140	0.000257859
43	0x38a259b6	7.741472e-05
44	0x398abde0	0.0002646288
45	0x39a1f91c	0.00030893914
46	0x39962969	0.00028641082
47	0x3995a0a4	0.0002853918
48	0x39a3ca6c	0.000312406
49	0x39a38286	0.0003118703
50	0x39863515	0.0002559802
51	0x39a16ee4	0.00030790933
52	0x39b5a4b9	0.00034645738
53	0x39a9ceae	0.0003238818
54	0x39a8e713	0.0003221562
55	0x39a7087d	0.00031859046
56	0x39aa5e0d	0.00032495
57	0x39a36da2	0.00031171466
58	0x39a71659	0.00031869372
59	0x399ce7b7	0.0002992728
60	0x39a2a433	0.00031021386
61	0x398b5825	0.0002657782
62	0x398ddbb7	0.00027057316
63	0x379fbd91	1.904255e-05
64	0x38550c03	5.0794344e-05
65	0x389fe73a	7.62478e-05
66	0x38eb7537	0.00011227506
67	0x38e1960d	0.00010756785
68	0x38e05405	0.00010696802
69	0x38f47719	0.0001165701
70	0x38dad4e8	0.00010434707
71	0x38971879	7.2047995e-05
72	0x38eacac1	0.00011195755
73	0x389a1416	7.3470335e-05
74	0x38d6cd9e	0.000102426144
75	0x385a8bda	5.2105497e-05
76	0x3930c0d0	0.00016856496
77	0x389f8709	7.606863e-05
78	0x38de53ca	0.00010601392
79	0x3887a41e	6.467871e-05
80	0x39422315	0.00018514351
81	0x38846860	6.313692e-05
82	0x39039bb6	0.0001255114
83	0x38d1283f	9.973393e-05
84	0x391be9da	0.00014869068
85	0x3a688d37	0.00088711403
86	0x39f29fa3	0.00046276776
87	0x3a1772c9	0.0005777297
88	0x3a054100	0.0005083233
89	0x3a0592d4	0.00050954265
90	0x3a1d8b77	0.00060098566
91	0x3a0fc325	0.0005484096
92	0x3a21f785	0.0006178546
93	0x3a1c7811	0.0005968819
94	0x3a0ba9c0	0.0005327724
95	0x3a087785	0.0005205798
96	0x3a093a6b	0.000523484
97	0x3a06033b	0.0005112176
98	0x3a0fdb51	0.0005487698
99	0x3a095265	0.0005238413
100	0x3a0e89dc	0.0005437413
101	0x3a02a4b1	0.00049836474
102	0x3a0e5856	0.0005430033
103	0x39fd1049	0.00048268054
104	0x3a105b99	0.0005506813
105	0x390a538f	0.00013191834
106	0x389db4fe	7.520056e-05
107	0x39533919	0.00020143799
108	0x3947486e	0.00019005101
109	0x39300352	0.00016785905
110	0x3930b290	0.00016851188
111	0x394e1027	0.00019651708
112	0x3942204e	0.00018513316
113	0x393527cc	0.0001727633
114	0x394857c1	0.00019106177
115	0x39205911	0.00015291969
116	0x392a3a84	0.00016234262
117	0x38fda881	0.000120953664
118	0x39094312	0.00013090324
119	0x39309106	0.00016838693
120	0x392e8341	0.00016642829
121	0x391504c5	0.00014211524
122	0x38fe9270	0.0001213894
123	0x39448f8c	0.00018745492
124	0x39272541	0.00015940239
125	0x394f5128	0.00019771291
126	0x39478ac5	0.00019029815
127	0x3899cdbc	7.3339295e-05
128	0x399b193b	0.00029582702
129	0x3988fe83	0.00026129567
130	0x3972ab9e	0.00023142851
131	0x3973bc74	0.0002324449
132	0x3988f629	0.00026123345
133	0x398ab36d	0.00026455094
134	0x39860e10	0.0002556895
135	0x398d1ff3	0.0002691742
136	0x3990b17e	0.00027598062
137	0x398b05ad	0.00026516375
138	0x3991f7df	0.00027841234
139	0x398c2176	0.0002672781
140	0x398ec0fb	0.00027228132
141	0x398f43d8	0.00027325633
142	0x399058e6	0.00027532055
143	0x39946be0	0.00028309133
144	0x395bb029	0.00020951092
145	0x392a6f02	0.00016253817
146	0x3982bd42	0.0002493654
147	0x38345193	4.2991316e-05
148	0x3916efe6	0.00014394484
149	0x392d5aa0	0.00016532326
150	0x3952eba0	0.00020114938
151	0x395effec	0.00021266908
152	0x395d0a47	0.00021080031
153	0x395128c6	0.00019946983
154	0x3956f9e8	0.00020501728
155	0x39642198	0.00021756289
156	0x3951e19f	0.00020015844
157	0x397b02d0	0.00023938273
158	0x398714c3	0.00025764675
159	0x39504a23	0.00019864044
160	0x39922756	0.00027876598
161	0x3971bde0	0.00023054285
162	0x39838876	0.00025087938
163	0x396529c5	0.00021854702
164	0x3988561b	0.00026004095
165	0x3982912a	0.00024903688
166	0x3990db76	0.0002762933
167	0x39853c6b	0.00025412752
168	0x38ab9f72	8.1836144e-05
169	0x38f6672b	0.000117494106
170	0x390b9e65	0.0001331508
171	0x392757b3	0.00015959032
172	0x3935bac1	0.00017331076
173	0x393442b6	0.0001719099
174	0x3924d38d	0.00015719068
175	0x3925f770	0.00015827804
176	0x39127ece	0.00013970883
177	0x3923653e	0.00015582607
178	0x39705656	0.00022920346
179	0x39634882	0.00021675418
180	0x3969fcf4	0.00022314844
181	0x39584ec0	0.00020628702
182	0x396c3f88	0.00022530381
183	0x3963337a	0.00021667583
184	0x39631975	0.0002165789
185	0x3949d9bd	0.00019249968
186	0x38cd35f6	9.785213e-05
187	0x39736760	0.00023212796
188	0x39146e1f	0.00014155403
189	0x39566384	0.00020445703
190	0x384d7091	4.8980644e-05
191	0x3973ee83	0.00023263138
192	0x391cbebf	0.00014948378
193	0x39416cbf	0.00018446425
194	0x39425028	0.00018531142
195	0x390c35bc	0.00013371458
196	0x39361317	0.00017363984
197	0x393a20b8	0.00017750531
198	0x39190a70	0.00014595105
199	0x39150208	0.00014210504
200	0x38ecb9b3	0.00011287946
201	0x39475a90	0.00019011856
202	0x38bce750	9.007624e-05
203	0x390ecc70	0.00013618334
204	0x390017f3	0.00012215953
205	0x392734b4	0.00015945995
206	0x38fe3006	0.00012120609
207	0x390c242b	0.00013364914
208	0x38ed473f	0.00011314311
209	0x39148a62	0.00014165931
210	0x393a0ae4	0.000177424
211	0x388dc0d4	6.759321e-05
212	0x398331c1	0.00025023337
213	0x395835cc	0.00020619406
214	0x3966b277	0.00022000993
215	0x3966f2e3	0.00022024992
216	0x394b7a94	0.00019405253
217	0x396a0182	0.0002231654
218	0x3936efe2	0.00017446236
219	0x39547901	0.00020262973
220	0x390e3a32	0.00013563855
221	0x3917d144	0.0001447844
222	0x38f3eab5	0.000116308605
223	0x390ba0f6	0.00013316036
224	0x3912c975	0.00013998694
225	0x39141d21	0.00014125231
226	0x390da70c	0.00013509038
227	0x390e2426	0.00013555642
228	0x391f9a08	0.00015220803
229	0x39484e38	0.00019102625
230	0x394f67ca	0.00019779723
231	0x3b0db19f	0.0021620763
232	0x3ba2a272	0.0049632126
233	0x3b75f201	0.0037528279
234	0x3b8c1ff7	0.0042762714
235	0x3b6da807	0.0036263482
236	0x3b6dfb16	0.003631299
237	0x3b9042e6	0.004402506
238	0x3b8465b9	0.0040404466
239	0x3b775ca3	0.0037744425
240	0x3b92a036	0.004474665
241	0x3b6c7c50	0.0036084838
242	0x3b735a00	0.0037132502
243	0x3b74c244	0.0037347237
244	0x3b76f70b	0.003768387
245	0x3b7647ca	0.003757941
246	0x3b76cade	0.003765754
247	0x3b80c81a	0.003930104
248	0x3b7c4772	0.0038494733
249	0x3a3a5d6b	0.0007109257
250	0x3b67185b	0.003526232
251	0x3b6e4c4c	0.0036361394
252	0x3b133760	0.0022463426
253	0x3bb166ad	0.0054138512
254	0x3b29e6f1	0.0025925005
255	0x3b4639d5	0.0030246873

exp_avg f4 [128]
0	0x3ba2bd6e	0.0049664294
1	0xbb338752	-0.002739389
2	0xbb918f09	-0.0044421
3	0xbaa9e854	-0.0012962916
4	0x3c03333f	0.0080078235
5	0xba93c870	-0.0011274945
6	0x39f180e0	0.0004606312
7	0x3b8dacf7	0.0043235975
8	0xbb76a286	-0.0037633493
9	0x3b220840	0.0024724156
10	0xba8533e0	-0.0010162555
11	0x3c2de8d7	0.010614595
12	0x3c3b3909	0.011427172
13	0xbc5b4001	-0.013381959
14	0xba798da4	-0.0009519702
15	0xbb9d66b0	-0.004803501
16	0x393fca30	0.000182905
17	0xbbe4c2ec	-0.0069812443
18	0xbb1728a2	-0.002306499
19	0xbaa80503	-0.0012818876
20	0x3c3cce5e	0.011523811
21	0xb93b59a8	-0.0001786711
22	0xbc14048e	-0.009034289
23	0x369a0700	4.5903726e-06
24	0x3b9d4120	0.0047990233
25	0xbb900f61	-0.0043963646
26	0x3bb2f79e	0.005461647
27	0x3c76a9d4	0.015055139
28	0xbc0a4219	-0.0084386105
29	0xbc1eaf0c	-0.009685289
30	0x3b20986a	0.0024504908
31	0x3b44c817	0.003002649
32	0x3a862806	0.0010235317
33	0x3b9bcdc4	0.004754754
34	0xbb99bff3	-0.0046920716
35	0xbb6f236f	-0.0036489626
36	0x3b151814	0.0022749947
37	0xb9d96df0	-0.00041471375
38	0x3a594259	0.00082877796
39	0x3a606a82	0.0008560793
40	0x3b566096	0.0032711378
41	0x3b60238e	0.003420088
42	0xbaf6a525	-0.0018817527
43	0x3bc81332	0.006105804
44	0x387461e0	5.8265286e-05
45	0x3c0ceded	0.008601648
46	0xbbcb4076	-0.0062027527
47	0xbb954a2e	-0.004555962
48	0x3b9b548a	0.0047403025
49	0xba9d5c99	-0.0012005746
50	0x3b1632a9	0.002291838
51	0x3bffa356	0.0078014536
52	0xb89ba860	-7.422338e-05
53	0x391d0040	0.0001497278
54	0x3bea45ce	0.0071494346
55	0xb9daa128	-0.0004170027
56	0x3be73f38	0.007057097
57	0xbae659bd	-0.0017574352
58	0x399eeac8	0.00030311034
59	0xbc1cb354	-0.0095642395
60	0x3a685040	0.0008862056
61	0xbc57a60a	-0.013162145
62	0xbbbdcd15	-0.00579227
63	0xbb863cb8	-0.0040965937
64	0xbbaa3171	-0.005193882
65	0x3bd204a8	0.0064092465
66	0x3ac6f544	0.0015179296
67	0xbbd91268	-0.0066245086
68	0x3ac13f94	0.0014743679
69	0xba382bbe	-0.0007025561
70	0x3b86173a	0.0040921243
71	0x3bba7078	0.005689677
72	0xbbf2d71d	-0.0074108974
73	0xbbe57a31	-0.0070030917
74	0x3bf3db97	0.0074419486
75	0xbb993537	-0.004675533
76	0x3bc2582b	0.0059309206
77	0xba6bf2a4	-0.0009000695
78	0x3c07455e	0.0082562845
79	0x3aed08a6	0.0018084242
80	0x3a84b82d	0.001012569
81	0x3b8dec12	0.0043311203
82	0xbb41f53b	-0.0029595632
83	0x3b2bf888	0.0026240665
84	0x3c022d57	0.00794538
85	0xbb913dda	-0.004432422
86	0x3b09bfbc	0.0021018824
87	0xbac90332	-0.0015336035
88	0xbb80ca3c	-0.003930358
89	0x3a4d1f44	0.00078247883
90	0x3b9424ba	0.0045209797
91	0x3bec491c	0.0072108638
92	0x3a35554a	0.0006917311
93	0xbb537b08	-0.0032269377
94	0xbbb41164	-0.005495237
95	0xb9e0f8fa	-0.0004291011
96	0x3aeafd14	0.0017928206
97	0x3b916286	0.0044367937
98	0xbbe07f1a	-0.006851089
99	0xbbf41ab0	-0.0074494705
100	0xbbfb37ed	-0.007666579
101	0xbc0f352c	-0.0087407045
102	0xbb31ba98	-0.0027119275
103	0x3adcd039	0.0016846723
104	0x3b6cb18c	0.0036116568
105	0x3babf674	0.0052478854
106	0xbaafa554	-0.0013400712
107	0xbc349c6a	-0.01102362
108	0xbc147d80	-0.009063125
109	0x3bad24c2	0.005283923
110	0x3b11115a	0.0022135586
111	0x3bb65a36	0.005564953
112	0xba8f51ec	-0.0010934449
113	0xbbd7850d	-0.00657714
114	0x3936ced8	0.00017433928
115	0x3be9cee6	0.00713526
116	0x3c1d9324	0.009617601
117	0xbb057462	-0.002036356
118	0xbb399b1d	-0.0028321214
119	0xbb996fb3	-0.004682505
120	0x3af4ae43	0.0018667657
121	0xbb648d54	-0.0034874277
122	0xba5d6c63	-0.0008446632
123	0x3bc41d36	0.0059849275
124	0xba1b2668	-0.0005918504
125	0xbbf5d0bf	-0.007501691
126	0xbbadc9d2	-0.0053036
127	0x3a93a018	0.0011262922
