saved_model3.1.pth (torch, 417306 bytes, 10 tensors)

layers.0.weight f4 [512, 52]
0	0xbe26a2e0	-0.1627307
1	0x3ecea4da	0.40360147
2	0xbe3d7ce5	-0.18504675
3	0xbe5309dc	-0.2060923
4	0x3e932deb	0.2874597
5	0x3e934323	0.2876216
6	0xbf1dcea7	-0.6164345
7	0xbe4b26db	-0.19839041
8	0x3de5a1e0	0.11212516
9	0x3ede4669	0.43413094
10	0x3da9900c	0.08279428
11	0x3d316591	0.043309752
12	0x3f658b08	0.8966527
13	0xbfb32552	-1.3995764
14	0xbf55f433	-0.83575743
15	0x3eeb7e06	0.45994586
16	0xbf934aa2	-1.1507151
17	0x3f3a2ec8	0.7272763
18	0x3e00ae1d	0.12566419
19	0xbe8a56b4	-0.27019274
20	0xbf2b0986	-0.66811407
21	0x3e8959c3	0.26826295
22	0xbefd8692	-0.49516732
23	0xbf28646b	-0.65778226
24	0x3f0fc918	0.5616622
25	0xbbf02e05	-0.0073297047
26	0x3d0e2ea8	0.034712464
27	0x3e10af39	0.14129342
28	0x3ec8cb4a	0.39217597
29	0xbea1a468	-0.31570745
30	0xbd0d3066	-0.034469984
31	0x3e0d2da1	0.13786937
32	0x3dffc3e8	0.12488538
33	0x3e9e0fe6	0.30871505
34	0x3d63b929	0.055596504
35	0xbd2fd956	-0.042931877
36	0xbedf635a	-0.43630487
37	0xbdacc63a	-0.08436246
38	0xbe2e5f96	-0.1702865
39	0x3e3e58e2	0.18588594
40	0x3e091d23	0.13390021
41	0x3ec4f45c	0.3846768
42	0x3e17f154	0.14838153
43	0x3dc1e384	0.09467223
44	0xbfa6d720	-1.3034401
45	0x4094b5e8	4.6472054
46	0x4021673b	2.5219257
47	0x400096fb	2.009215
48	0xc053a46f	-3.3069112
49	0xbd2a6d03	-0.041607868
50	0x3e1f5ca5	0.15562685
51	0xbde02094	-0.10943714
52	0x3eab313b	0.33435997
53	0x3c974d22	0.018469397
54	0x3ee92c70	0.45541716
55	0xbeb11b99	-0.34591368
56	0xbe6a5f23	-0.22887854
57	0x3dc10c85	0.09426216
58	0xbdffd797	-0.124922924
59	0xbe0b3658	-0.13594949
60	0x3e50e46b	0.20399635
61	0x3b8b7c6c	0.0042567756
62	0xbd41778b	-0.047233146
63	0x3ee5fb0a	0.4491809
64	0x3c2cf525	0.010556494
65	0x3da5c482	0.080941215
66	0xbc18c266	-0.009323692
67	0x3d7b93f2	0.06142039
68	0xbf1de1dc	-0.6167276
69	0x3e2e0edf	0.1699786
70	0x3f262e21	0.6491414
71	0xbe90b96b	-0.28266463
72	0xbeae1b95	-0.34005418
73	0x3de914ef	0.11380946
74	0xbd9cd2e6	-0.07657413
75	0x3ea19d64	0.31565392
76	0xbf23c4ef	-0.6397237
77	0x3e35c0fc	0.17749399
78	0xbf86895f	-1.0510672
79	0xbecdc3e4	-0.40188515
80	0xbed27557	-0.41105148
81	0xbf3e3d82	-0.74312603
82	0x3efb0c98	0.49033046
83	0x3efe3828	0.4965222
84	0x3f559866	0.83435667
85	0x3f3c6552	0.735921
86	0x3ee1a52a	0.44071323
87	0x3d088880	0.0333333
88	0x3db3994b	0.08769473
89	0xbfe996eb	-1.8249182
90	0x3ecd0bcb	0.4004806
91	0x3f918ad2	1.137049
92	0x3e878efa	0.2647627
93	0x3f63ebbb	0.8903157
94	0x3f0238bd	0.50867826
95	0xbf3dfb9e	-0.7421206
96	0xc099033f	-4.7816463
97	0xc0b975c3	-5.795625
98	0x404b3abc	3.1754599
99	0x403ab0f0	2.9170494
100	0xbdb081a4	-0.08618477
101	0xbe07ecb7	-0.13273893
102	0x3d552f54	0.05204709
103	0xbd93367a	-0.07188125
104	0x3c312d8d	0.010814083
105	0x3e3c8ecc	0.18413848
106	0x3ea82255	0.32838693
107	0x3e7b7bcc	0.24558944
108	0xbda796df	-0.08183073
109	0xbcda627d	-0.026658291
110	0xbf008a12	-0.5021068
111	0xbe8343b0	-0.2563758
112	0x3ec5828d	0.38576165
113	0xbd3fcf9b	-0.046828847
114	0x3eee0ce7	0.4649422
115	0x3f2dc259	0.67874676
116	0xbf90f260	-1.1323967
117	0x3fd98d2d	1.6996208
118	0x3f7fab52	0.9987079
119	0xbf312306	-0.69194067
120	0xbe76b86a	-0.24093786
121	0x3f2a36c7	0.66489834
122	0x3e5706b2	0.20998648
123	0x3f01ee13	0.507539
124	0xbe87f496	-0.26553792
125	0x3ea55a6c	0.3229555
126	0xbf2809d8	-0.6564002
127	0xbe1d6f9b	-0.15374605
128	0xbf3ca7c9	-0.7369352
129	0xbe9fa1f8	-0.3117826
130	0xbec5a229	-0.3860028
131	0x3dc7505d	0.09732125
132	0xbeab43e6	-0.3345024
133	0x3e1c5561	0.15266944
134	0x3e89b933	0.26899108
135	0xbd121509	-0.035664592
136	0xbc834fbb	-0.01602923
137	0xbe53f65c	-0.20699447
138	0x3e1df34f	0.15424846
139	0x3d17cc1c	0.03705989
140	0x3e92ab5d	0.28646365
141	0xbc3dff7f	-0.01159656
142	0x3d439da8	0.047757775
143	0x3e0b4357	0.13599907
144	0xbeac85ab	-0.3369573
145	0x3db14d71	0.08657349
146	0xbe2f7392	-0.1713393
147	0x3d883020	0.06649804
148	0xbfeec232	-1.8653014
149	0xbf5502d4	-0.8320744
150	0xbfb2e018	-1.3974638
151	0x3f277d24	0.65425324
152	0x3e273cb9	0.16331758
153	0xbd386db9	-0.045026515
154	0xbdf0c7c2	-0.11756851
155	0xbde2f262	-0.11081387
156	0xbe8de488	-0.27713418
157	0x3e7ac1b9	0.24487962
158	0xbdd1621d	-0.10223792
159	0xbdebc6a3	-0.11512496
160	0x3a3310f9	0.0006830837
161	0xbeb2a5cc	-0.34892118
162	0x3e2d9970	0.16953063
163	0x3e8ef9aa	0.27924854
164	0x3d1f9c43	0.038967382
165	0xbebf2dab	-0.3733953
166	0xbe8303ad	-0.25588742
167	0xbd5fa3ea	-0.05459968
168	0xbeccb075	-0.39978376
169	0x3ea68fbb	0.32531533
170	0xbe5bca5b	-0.21463911
171	0xbd49fbda	-0.04931245
172	0x3f3e395d	0.7430628
173	0xbce6f4a9	-0.028192835
174	0xbdc8ee2c	-0.09811053
175	0xbeadf6ae	-0.33977264
176	0x3f0059ba	0.5013691
177	0xbe09e276	-0.13465294
178	0x3ea25a2d	0.31709424
179	0x3cd6c616	0.026217502
180	0x3db6b1f8	0.089206636
181	0x3e78d31f	0.24299286
182	0x3ef0bbb9	0.4701822
183	0x3fb1ca2f	1.3889827
184	0xbfee056f	-1.8595408
185	0x3f940e07	1.1566781
186	0x3ed84146	0.422373
187	0x3f2f5cb7	0.68500847
188	0xbf29a2b6	-0.662639
189	0x3f0c7d80	0.54879
190	0xbeaac2c6	-0.33351725
191	0x3eb90f7a	0.3614462
192	0xbf25ada6	-0.6471809
193	0x3e91a1ec	0.2844385
194	0x3d3e6454	0.0464824
195	0xbc4fd9c2	-0.012686195
196	0x3e5dbc43	0.21653847
197	0xbef29a26	-0.4738323
198	0x3fb27b03	1.394379
199	0xbf84d73e	-1.0378187
200	0xbf3a0a64	-0.72672105
201	0x4123636d	10.211774
202	0xbfc19778	-1.512435
203	0xc01b4f89	-2.4267294
204	0x3ff84031	1.939459
205	0xbd0a511f	-0.03376877
206	0x3dd6be87	0.10485559
207	0x3d283d44	0.041074052
208	0x3e37a752	0.17934921
209	0x3cb0c8ea	0.021580178
210	0xbeb8f05c	-0.3612088
211	0xbe951533	-0.29117736
212	0x3de5b1c6	0.11215548
213	0xbe5a8e5a	-0.21343365
214	0x3ea91c96	0.33029622
215	0xbe0b3b38	-0.13596809
216	0xbe813b85	-0.25240722
217	0x3d96916a	0.07351954
218	0xbe802ea2	-0.25035578
219	0x3e040cdf	0.12895535
220	0xbe007d62	-0.1254783
221	0x3e9b578e	0.30340236
222	0x3e94e5d4	0.29081595
223	0x3c531d69	0.01288543
224	0xbc7a1860	-0.0152646005
225	0xbe9b54b7	-0.3033807
226	0xbf067577	-0.5252299
227	0xbf563cb3	-0.8368637
228	0x3f5c0536	0.8594545
229	0x3d6b8cc3	0.057507288
230	0x3ef908e9	0.4863961
231	0xbf0bfe09	-0.546845
232	0x3f93f972	1.15605
233	0x3ef8c18a	0.4858516
234	0xbe2e8fb7	-0.1704701
235	0x3f20753b	0.6267888
236	0x3ec4986b	0.38397536
237	0xbf21e00f	-0.6323251
238	0x3e2d6b1d	0.16935392
239	0x3fefc72a	1.8732655
240	0x3fe0bb5a	1.7557175
241	0x3f0a7246	0.5408062
242	0x3f4510dd	0.76978856
243	0x3ed24a47	0.41072294
244	0x3fb70fe0	1.430172
245	0x3ec46da3	0.38364896
246	0xbf0c309f	-0.5476169
247	0x3f4eadb0	0.80733776
248	0x3f10d30d	0.5657204
249	0x4023b15b	2.5577
250	0xbe1183c7	-0.14210425
251	0xbf12a325	-0.5728019
252	0x3eee31a7	0.46522257
253	0x40b2be06	5.585696
254	0x4054ab85	3.3229687
255	0xc009aec8	-2.1512928

layers.0.bias f4 [512]
0	0xc035f7da	-2.8432527
1	0xc002e831	-2.0454218
2	0xc01ae657	-2.4203088
3	0xc01e4dc4	-2.4734964
4	0xc01c2663	-2.439843
5	0xc009ae5b	-2.1512668
6	0xbfe1225d	-1.7588612
7	0xc0373a85	-2.8629467
8	0xc005c063	-2.0898674
9	0xc0851525	-4.158831
10	0xc01c0e41	-2.43837
11	0xc02523a9	-2.5803015
12	0xc02e29a5	-2.7212918
13	0xc0068414	-2.1018114
14	0xbf8f7994	-1.1208978
15	0xc06242d3	-3.5353286
16	0xc0008c87	-2.008577
17	0xc0211753	-2.5170486
18	0xc0298353	-2.6486404
19	0xbfc10fa6	-1.50829
20	0xbfd4b4dd	-1.6617695
21	0xc044a618	-3.0726376
22	0xc02417c9	-2.5639517
23	0xbf831610	-1.0241108
24	0xc0161dba	-2.3455644
25	0xc02da637	-2.71327
26	0xc0562cf7	-3.3464944
27	0xc01191b0	-2.274517
28	0xc00a5dcb	-2.1619747
29	0xc03f152b	-2.985667
30	0xc03806d6	-2.8754172
31	0xc0615f35	-3.521436
32	0xc0187ae6	-2.3825011
33	0xc01467d4	-2.3188372
34	0xc0204301	-2.5040896
35	0xc01d0cc3	-2.453904
36	0xc01c144d	-2.438739
37	0xbef8d91a	-0.48603135
38	0xc04b0e72	-3.1727567
39	0xc00b4f5d	-2.176719
40	0xbff0a142	-1.8799212
41	0xbfa192a1	-1.2622873
42	0xc02219b1	-2.532818
43	0xc0178e36	-2.3680549
44	0xc02ce47b	-2.7014453
45	0xc05de081	-3.4668276
46	0xc0249493	-2.5715683
47	0xc015592d	-2.3335679
48	0xc0348c88	-2.8210773
49	0xc0152342	-2.330277
50	0xc02775e5	-2.6165707
51	0xc03b4318	-2.92597
52	0xc04bc0c8	-3.1836414
53	0xbfceb01b	-1.6147493
54	0xbf53c07a	-0.8271557
55	0xc02fd307	-2.747255
56	0xbfe93ed0	-1.8222294
57	0xc01af93d	-2.4214623
58	0xc03663a9	-2.8498328
59	0xc0163178	-2.3467693
60	0xc010be31	-2.2616084
61	0xc040ac60	-3.010521
62	0xbffc0895	-1.9690119
63	0xbfcf9bca	-1.6219418
64	0xbfe40a79	-1.7815696
65	0xc01ce613	-2.4515426
66	0xc01c472d	-2.4418442
67	0xbfdfe586	-1.749192
68	0xbfccf6a7	-1.6012772
69	0xc02e5d49	-2.7244437
70	0xc040c905	-3.0122693
71	0xc0198ce3	-2.399224
72	0xc019ecb5	-2.4050725
73	0xbf9b8ab6	-1.2151706
74	0xc0234a6c	-2.5514174
75	0xc021d430	-2.528576
76	0xc011fd23	-2.2810752
77	0xc01dec70	-2.467556
78	0xbfea23d9	-1.829219
79	0xc04778b0	-3.1167412
80	0xc025603e	-2.5839992
81	0xc0091be9	-2.1423285
82	0xc02fbc8a	-2.7458825
83	0xc00c1bb1	-2.1891901
84	0xc08994c9	-4.2994123
85	0xc0684561	-3.6292346
86	0xc030f0e0	-2.7647018
87	0xc00fdfa5	-2.2480252
88	0xc047567f	-3.1146543
89	0xc0158b53	-2.3366287
90	0xc00d8c37	-2.211683
91	0xc00b1902	-2.1734014
92	0xc05b381c	-3.4252996
93	0xc052ad79	-3.291838
94	0xc035870a	-2.8363671
95	0xbffcca3a	-1.9749215
96	0xc02e57b5	-2.7241032
97	0xc02567c7	-2.584459
98	0xc00d96e5	-2.2123349
99	0xc0364144	-2.8477335
100	0xbfe2a24f	-1.7705783
101	0xc0068a48	-2.10219
102	0xc023d275	-2.5597203
103	0xc0322bd1	-2.7839243
104	0xc0080fed	-2.125972
105	0xc04692b1	-3.1027033
106	0xbf9797dc	-1.1843219
107	0xc01999a5	-2.4000027
108	0xbfe8c700	-1.818573
109	0xc02f00b8	-2.7344189
110	0xc00ece73	-2.2313507
111	0xc01a5e8f	-2.4120214
112	0xc0341e89	-2.8143637
113	0xbf9b008c	-1.2109542
114	0xc03121b0	-2.7676811
115	0xbeefb445	-0.46817222
116	0xbfc6c9be	-1.5530317
117	0xbfdd0d3c	-1.7269664
118	0xc037fb92	-2.8747296
119	0xbfd9f472	-1.7027724
120	0xc01aecfb	-2.4207141
121	0xc021fd43	-2.5310829
122	0xc021b5cf	-2.5267217
123	0xbfb3bda7	-1.4042252
124	0xbf95387b	-1.1657861
125	0xc0286c90	-2.6316261
126	0xc01a867e	-2.4144588
127	0xc00a0aaa	-2.156901
128	0xbf09e136	-0.5385927
129	0xbffb330e	-1.9624956
130	0xc009a461	-2.150658
131	0xc01467dd	-2.3188393
132	0xc0305d7e	-2.7557063
133	0xc01c2ad4	-2.440114
134	0xbfc27734	-1.5192628
135	0xc0363b0e	-2.8473544
136	0xc026f262	-2.6085439
137	0xc04a27a7	-3.1586702
138	0xbfeba458	-1.8409529
139	0xc033f15f	-2.8116071
140	0xc0687bf3	-3.6325653
141	0xc08745bf	-4.227264
142	0xc041248a	-3.0178552
143	0xc03a5b26	-2.9118133
144	0xbfe6dedf	-1.8036765
145	0xc03b8791	-2.9301493
146	0xc04a5108	-3.1611958
147	0xc02749c8	-2.6138783
148	0xc04abe4a	-3.1678643
149	0xc00d7baf	-2.210674
150	0xc010cb1e	-2.2623973
151	0xc00fb482	-2.2453923
152	0xc02ee28e	-2.7325778
153	0xc017c5a3	-2.3714378
154	0xc027ec0e	-2.6237826
155	0xc02a7762	-2.6635365
156	0xc03dbc84	-2.964631
157	0xc034b772	-2.8236966
158	0xbfa69b27	-1.3016099
159	0xc00a43ac	-2.1603804
160	0xc01e2731	-2.471142
161	0xc04b736c	-3.1789198
162	0xc057f891	-3.3745463
163	0xc012e8ea	-2.295466
164	0xc0292c86	-2.6433425
165	0xbfeabd09	-1.8338939
166	0xc02aac65	-2.6667721
167	0xc0373036	-2.8623176
168	0xc08308bd	-4.0948167
169	0xbfb61817	-1.4226102
170	0xc0213bd1	-2.519276
171	0xc038f3bf	-2.889877
172	0xc04493f0	-3.0715294
173	0xc016b558	-2.3548183
174	0xbfe63d4a	-1.7987454
175	0xc01cef87	-2.4521196
176	0xc02707d3	-2.6098526
177	0xc023a96f	-2.5572164
178	0xc0197228	-2.3975925
179	0xc03ad442	-2.9192052
180	0xc02fe436	-2.748304
181	0xc01f8392	-2.4924054
182	0xc0408c5b	-3.0085666
183	0xbfbfe3e1	-1.4991418
184	0xbfe7f3c9	-1.8121272
185	0xbfd8f71c	-1.6950412
186	0xc01f437d	-2.4884942
187	0xbe2174b0	-0.15767169
188	0xbffc7fbf	-1.9726485
189	0xc03e6775	-2.9750645
190	0xbfbc4cb6	-1.471091
191	0xc006e4c5	-2.107713
192	0xc0270830	-2.6098747
193	0xc011f5d8	-2.28063
194	0xc011a28f	-2.2755468
195	0xc04b7ea5	-3.1796048
196	0xc0012206	-2.0177016
197	0xc00f4e61	-2.2391589
198	0xbfb395a4	-1.4030042
199	0xc04b65dc	-3.178092
200	0xc0088914	-2.1333666
201	0xc01247dc	-2.285636
202	0xc01955f3	-2.395871
203	0xbfe21832	-1.7663634
204	0xc0246be9	-2.5690863
205	0xc0256f42	-2.5849156
206	0xc04967c9	-3.1469595
207	0xbfbf5d11	-1.4950277
208	0xc0023c4c	-2.0349302
209	0xc030d77f	-2.7631528
210	0xbfc96b3e	-1.5735853
211	0xc0423da2	-3.0350118
212	0xc0194230	-2.3946648
213	0xc00ed064	-2.2314692
214	0xc0024781	-2.0356143
215	0xc026a583	-2.603852
216	0xbf2ad7e0	-0.6673565
217	0xc05d6c47	-3.4597337
218	0xc036c377	-2.8556802
219	0xc04e492c	-3.223216
220	0xc039f847	-2.9057786
221	0xc01ae1f6	-2.4200416
222	0xc0277260	-2.616356
223	0xc0030809	-2.0473654
224	0xbfffe5d0	-1.9992008
225	0xc0390aae	-2.8912768
226	0xc002cf5c	-2.0439062
227	0xc0033c90	-2.0505714
228	0xbfad9405	-1.3560797
229	0xc01cea10	-2.451786
230	0xbfd84456	-1.6895854
231	0xc0202e2a	-2.5028176
232	0xc0235910	-2.552311
233	0xc00edb73	-2.232144
234	0xbfd4fee0	-1.6640282
235	0xc00669ff	-2.1002195
236	0xc035ebf1	-2.8425257
237	0xc00e34b0	-2.2219658
238	0xc0158bbc	-2.3366537
239	0xc01a972e	-2.4154773
240	0xc00a3b3f	-2.159866
241	0xc0180fa6	-2.375955
242	0xc042a719	-3.0414488
243	0xc03359cc	-2.8023558
244	0xc02582c9	-2.5861075
245	0xc04b9c19	-3.1814024
246	0xbfc138b0	-1.5095425
247	0xc04faf82	-3.2450871
248	0xc02a0648	-2.6566334
249	0xc01920cc	-2.3926268
250	0xc0298a6c	-2.6490736
251	0xc0523981	-3.2847598
252	0xc0140d98	-2.3133297
253	0xc00a2cec	-2.1589918
254	0xc01c077b	-2.4379566
255	0xc03c0660	-2.937889

layers.1.weight f4 [128, 512]
0	0x3df52963	0.119707845
1	0x3cf58786	0.02997185
2	0xbf3cd70e	-0.7376565
3	0x3e412454	0.18861514
4	0x3e944a3c	0.28962886
5	0x3da0074a	0.0781389
6	0xbdc3f701	-0.09568597
7	0x3ee7e19f	0.45289323
8	0xbe97765d	-0.29582492
9	0xbfc2d105	-1.5220038
10	0xbedbcfe0	-0.42932034
11	0x3e181cc9	0.1485473
12	0x3e02bb2f	0.12766717
13	0x3e0349ba	0.12821093
14	0x39f0cc54	0.00045928604
15	0xbf567f88	-0.8378835
16	0xbe2961cd	-0.16541214
17	0xbde9c9e5	-0.114154615
18	0xbdd144f6	-0.102182314
19	0x3be408db	0.0069590635
20	0xbead3e4e	-0.33836597
21	0xbf6409b0	-0.8907728
22	0xc0382c1e	-2.8776927
23	0xbd293bcb	-0.04131679
24	0x40019e65	2.0252926
25	0xbe485361	-0.19563057
26	0xc072a680	-3.7914124
27	0xbee5f541	-0.44913676
28	0xbe743e32	-0.2385185
29	0xbf4eb5ea	-0.8074633
30	0x3f1109ef	0.5665578
31	0xbef34aed	-0.475181
32	0x3de71000	0.11282349
33	0x3f3ff078	0.749763
34	0xbf143675	-0.57895595
35	0x3f0740b7	0.5283312
36	0xbeabf367	-0.3358414
37	0xbd2f665e	-0.042822234
38	0xbf8f4caf	-1.1195277
39	0x3e7de838	0.24795616
40	0x3e6938e3	0.22775607
41	0xbf20c897	-0.62806076
42	0xbffd6894	-1.979754
43	0x3e70688c	0.23477381
44	0xbec8c555	-0.39213052
45	0xc030244c	-2.7522154
46	0xbfbc8205	-1.4727179
47	0x3f3bd4ca	0.73371565
48	0xbe865da1	-0.26243308
49	0x3f53b50f	0.8269815
50	0x3edb1556	0.42789716
51	0xbe8218b0	-0.2540946
52	0xbf013c81	-0.50482947
53	0xbe40b3cb	-0.18818586
54	0x3d268607	0.040655162
55	0x3e8ef0f6	0.27918214
56	0x3dde16ba	0.108441785
57	0x3e29f523	0.16597418
58	0xbf0f14e9	-0.5589128
59	0x3df21a92	0.11821474
60	0xbfbdb758	-1.4821577
61	0x3e441ec4	0.19152361
62	0xbe0ffe38	-0.1406182
63	0xbed72694	-0.4202162
64	0x3e34cf8f	0.17657302
65	0xbf1593f0	-0.5842886
66	0xbd3a4e47	-0.045484807
67	0xbd2e715f	-0.042588588
68	0x3bac352d	0.0052553625
69	0xbf1522a5	-0.5825599
70	0xbf18570d	-0.5950783
71	0x3f02222b	0.50833386
72	0xbd2e55f7	-0.04256245
73	0xc03aa5da	-2.9163728
74	0xbcb6f977	-0.022335751
75	0x404f51d8	3.2393703
76	0x3c361dad	0.011115474
77	0x3da79fdb	0.08184787
78	0x3ec48fc6	0.3839094
79	0xbf0a9942	-0.541401
80	0xbf0fe805	-0.5621341
81	0xbe29e87b	-0.1659259
82	0x3f6205d6	0.88290155
83	0xbf0dc735	-0.5538209
84	0xc03162aa	-2.771647
85	0xbfa82d3e	-1.3138807
86	0x3ef57bd2	0.4794603
87	0x3f0d9a49	0.55313545
88	0x3e572a5e	0.21012256
89	0xbd09a9b4	-0.033609107
90	0x3d193458	0.037403435
91	0x3f2d04ec	0.67585635
92	0x3d677e23	0.056516778
93	0xbcac38f7	-0.021023257
94	0xbf1cd519	-0.6126266
95	0xbf1d39ef	-0.61416525
96	0xc01f853a	-2.4925065
97	0xbf29ce62	-0.6633054
98	0x3e854641	0.26030162
99	0x3f309c03	0.68988055
100	0x3d854f05	0.065092124
101	0xbdbd2f59	-0.092375465
102	0xbe0a9378	-0.13532817
103	0xbe9cfecd	-0.30663148
104	0xbe8c6504	-0.2742082
105	0xbfa4cee4	-1.2875638
106	0x3e107b79	0.14109601
107	0x3ea2011a	0.31641465
108	0x3d9b4751	0.07581962
109	0x3dab4efd	0.08364675
110	0xbf0f81e5	-0.5605758
111	0x3c36a94a	0.01114876
112	0xbf3fe0b0	-0.7495222
113	0xc0517c58	-3.2732143
114	0x3df6591e	0.120287165
115	0xbd5efc21	-0.054439668
116	0x3d60b04c	0.05485563
117	0x3d19ce72	0.037550397
118	0xbe4f704d	-0.20257683
119	0x3de964a0	0.11396146
120	0x3e3d94e3	0.18513827
121	0xbe44b64f	-0.1921017
122	0xbb162ed9	-0.0022916107
123	0xc0ad4bce	-5.4155035
124	0x3d9842e5	0.07434634
125	0xbd7fa3cf	-0.06241208
126	0xbfb23805	-1.3923346
127	0xbe1ec9a6	-0.1550661
128	0x39ee88b2	0.00045496743
129	0xbe39c3b2	-0.18141058
130	0xbf33494a	-0.70033705
131	0x3ddeda45	0.10881475
132	0xbe743133	-0.23846893
133	0xbf60c99b	-0.87807626
134	0x3f47a8eb	0.77992123
135	0xbfb4b59c	-1.4117923
136	0xbe88877e	-0.26665872
137	0xbe26f59a	-0.16304627
138	0x3edf548f	0.436192
139	0x3f3332b1	0.69999224
140	0xbfe7479e	-1.8068731
141	0xc094ae7c	-4.6462994
142	0xbfd36623	-1.6515545
143	0xbfbc346e	-1.47035
144	0x3be7954e	0.007067359
145	0x3fdb7ce7	1.7147492
146	0x3ef79a04	0.48359692
147	0x3eb8eaa4	0.36116517
148	0x3d109e60	0.03530729
149	0x3ebdbc58	0.37057757
150	0xbf10ad80	-0.5651474
151	0x3d1ded84	0.03855659
152	0x3f2dc3af	0.67876714
153	0xbe28436f	-0.16431974
154	0xbeea88f0	-0.458076
155	0x3d4bf039	0.04978964
156	0x3dae0cf3	0.084985636
157	0xbf00c27d	-0.50296766
158	0x3d450a01	0.048105244
159	0xbe7bb6f2	-0.24581507
160	0xbf2f0a7b	-0.68375367
161	0x3ed857da	0.42254525
162	0x3e8dd5a4	0.27702057
163	0x3b0973b6	0.002097351
164	0xbd150a30	-0.03638667
165	0xbd909548	-0.07059723
166	0x3e75cc69	0.24003758
167	0x3ea7af03	0.3275071
168	0xbfb03ab2	-1.3767912
169	0xbd8e2dd7	-0.06942337
170	0xbecfa6c9	-0.40556934
171	0xbd3d70a2	-0.046249993
172	0xbf495117	-0.7863936
173	0x3d8c77f9	0.068588205
174	0xbd183788	-0.037162334
175	0xbe2cb6b5	-0.16866572
176	0xbf46a7cc	-0.7759979
177	0xbc31f1a1	-0.0108608315
178	0x3ebeef12	0.3729177
179	0xbdc313ab	-0.09525236
180	0x3e4a404e	0.19751093
181	0xbee64fab	-0.44982657
182	0x3f32913f	0.6975288
183	0xbd3d0372	-0.046145864
184	0xbfc6432e	-1.5489252
185	0xbe37c10e	-0.17944738
186	0x3f8ae576	1.0851276
187	0x3cb42bfa	0.021993626
188	0x3d9d76e2	0.07688691
189	0x4003c01c	2.0586004
190	0xbe795462	-0.24348596
191	0xbe891a53	-0.26777896
192	0xbf1f73ca	-0.62286055
193	0xbdd724de	-0.10505079
194	0xbdff2ac7	-0.12459331
195	0xbd462c16	-0.048381887
196	0x3eaf5081	0.34241107
197	0x3d523eb7	0.05132934
198	0xc01581f4	-2.3360567
199	0xbf213908	-0.6297765
200	0x3e58ec13	0.21183805
201	0xbf6efd5c	-0.93355346
202	0x3e6d4688	0.23171437
203	0x3f10deab	0.56589764
204	0x3cc6058f	0.024172572
205	0x3e94851c	0.29007804
206	0x3e859aa3	0.2609454
207	0x3ddf0317	0.10889261
208	0x3f3a7a58	0.7284293
209	0xbefac843	-0.48980913
210	0x3ed814e2	0.42203432
211	0xbf0144c3	-0.5049555
212	0x3d6509ad	0.05591743
213	0xbebca527	-0.3684475
214	0xbecff901	-0.40619662
215	0x3f4c8295	0.7988675
216	0xbd7f8200	-0.062379837
217	0xbfaabb6e	-1.3338449
218	0x3f2255b8	0.63412046
219	0xbf97a550	-1.1847324
220	0x3f7ec78a	0.9952322
221	0xbd1cd3c3	-0.03828789
222	0x3f632b3f	0.88737863
223	0xbf2e65a0	-0.6812382
224	0x3e39521f	0.18097733
225	0xbec9ef07	-0.39440176
226	0xbd85085b	-0.06495734
227	0x3e64fa9e	0.22361228
228	0x3d966c69	0.07344896
229	0xbfcfef07	-1.624482
230	0x3e07c7ca	0.13259807
231	0x3de24d20	0.11049867
232	0x3e92f94f	0.28705832
233	0xbfef450e	-1.8692949
234	0x3e4d11b6	0.20026287
235	0xbf40ad33	-0.7526428
236	0xbf4e781d	-0.8065203
237	0x3e976916	0.29572362
238	0x3e5905ee	0.21193668
239	0xbe669bbf	-0.2252035
240	0x3ee1aff0	0.44079542
241	0xbd687934	-0.056756213
242	0xbeed3523	-0.46329603
243	0xbf33b96f	-0.70204824
244	0x3e76cb51	0.24100997
245	0xbf925ba6	-1.1434219
246	0xbf091af0	-0.5355673
247	0x3d98970e	0.074506864
248	0xbf65d63e	-0.8978003
249	0xbce83559	-0.02834575
250	0x3e18ea15	0.14933045
251	0xbeec03f6	-0.46096772
252	0xbf7b403b	-0.9814488
253	0x3cd47434	0.025934316
254	0xbe492dd6	-0.19646391
255	0xbd8e2d02	-0.06942178

layers.1.bias f4 [128]
0	0x3f537c0e	0.8261117
1	0x3e9fc80a	0.31207305
2	0x3fe8f643	1.8200153
3	0xc0102204	-2.2520761
4	0x3db75d89	0.08953387
5	0x3db89b51	0.09013999
6	0x3f55f05b	0.8356988
7	0x3f24acdf	0.6432628
8	0xc0054591	-2.082371
9	0x3fa37432	1.2769835
10	0xbfc91c5d	-1.5711781
11	0x3fb47d8f	1.4100817
12	0xc0c2c90f	-6.0870433
13	0xbf00392b	-0.5008723
14	0xc05720e2	-3.361382
15	0xc0046a80	-2.0690002
16	0xc05fda22	-3.4976888
17	0xbeec8f7a	-0.46203214
18	0xbec70955	-0.38874307
19	0xc057add9	-3.3699858
20	0x401f76a8	2.4916172
21	0x4006c72b	2.1059062
22	0x3f84a1f1	1.036192
23	0xbf932245	-1.1494833
24	0x3eb0a913	0.34503993
25	0x3f30c0a4	0.69043946
26	0x3daacbf8	0.08339685
27	0x3faf9676	1.3717792
28	0xbfb11de1	-1.3837243
29	0x3f180df5	0.59396297
30	0x4054ca88	3.3248615
31	0x3f9ecb41	1.2405778
32	0x3f92db87	1.1473244
33	0xbe0128a7	-0.12613164
34	0xbe861948	-0.26191163
35	0x3f2f4f2d	0.6848019
36	0x3ec4518e	0.3834347
37	0x3e15469b	0.14577715
38	0x400be130	2.1856194
39	0x3ac6bec5	0.0015163055
40	0x3fc9a61c	1.5753818
41	0xc0274195	-2.6133778
42	0xbe753e35	-0.23949511
43	0xbf849a9c	-1.0359683
44	0x3fd779a4	1.6833997
45	0x401afd53	2.4217117
46	0x3ef80be3	0.4844657
47	0xc0b04ee2	-5.5096292
48	0x3e3e4f66	0.18584976
49	0x3ff5ce8a	1.9203656
50	0xbfdee8dc	-1.7414813
51	0xc01eb3ee	-2.479732
52	0xbf9223c6	-1.1417167
53	0x3f084d58	0.5324302
54	0x3f101766	0.56285703
55	0x3f986f2b	1.1908926
56	0xc014c878	-2.3247356
57	0xc0ccd7be	-6.4013357
58	0xc00400bb	-2.0625446
59	0xc004b46c	-2.073512
60	0xbdb4e2e3	-0.08832338
61	0xbff70945	-1.9299704
62	0x3e34f666	0.17672119
63	0x40507bc8	3.257555
64	0xbee82a14	-0.45344603
65	0x3ee6eb39	0.45101336
66	0x4016ecd7	2.3582056
67	0xbf70a988	-0.94008684
68	0xc0ad839c	-5.4223156
69	0xbe5e9fa9	-0.21740593
70	0xc0baaead	-5.8338227
71	0x3f4c09eb	0.79702634
72	0xbe4090fa	-0.18805304
73	0x3fc3a16a	1.5283635
74	0xbf901eda	-1.1259415
75	0xc0cfe6d5	-6.4969277
76	0xc09329ee	-4.5988684
77	0x3ea8b2db	0.32948956
78	0x3e3f940f	0.18708824
79	0x40159d6c	2.3377333
80	0x3fdf7d18	1.746005
81	0xc074d330	-3.8253899
82	0xbfcabcfd	-1.5838925
83	0x3de77665	0.11301879
84	0xbfd0bf2b	-1.630834
85	0xbff2eaa8	-1.8977861
86	0xc0c74b54	-6.2279453
87	0xbed3f545	-0.41398063
88	0x3f8872a3	1.0659984
89	0xbd653d62	-0.055966742
90	0x3f2708db	0.6524789
91	0x3ff251a2	1.8931162
92	0x3f58f919	0.8475509
93	0x3b35e8ef	0.0027757247
94	0x3f52524f	0.8215684
95	0xbf788cdb	-0.9708993
96	0x3f92ca7d	1.1468045
97	0x4015b178	2.3389568
98	0x3ebaf184	0.36512387
99	0xbe429f9b	-0.19006197
100	0x3eb09f40	0.34496498
101	0xc02a75d6	-2.6634421
102	0xbe5ea778	-0.21743572
103	0xbfd23f75	-1.6425616
104	0xbf1a2e5d	-0.60226995
105	0xbf10a6fa	-0.56504786
106	0xc0c32cd3	-6.0992217
107	0x3f1d2de7	0.61398166
108	0xbf5bec31	-0.85907274
109	0xbf6ceb83	-0.9254686
110	0x3f0e5ae2	0.55607426
111	0xbfe41e6e	-1.7821786
112	0xc0464bac	-3.0983686
113	0x40038101	2.0547488
114	0xbe3bcb66	-0.18339309
115	0x3eedd1bf	0.46449086
116	0x3f85b2ab	1.044515
117	0x3f8ce97f	1.1008757
118	0x3f6d025f	0.92581743
119	0x3f538af0	0.82633877
120	0xc02e768d	-2.7259858
121	0xbf917367	-1.1363343
122	0x3f54d770	0.8314123
123	0xbe036a3a	-0.12833491
124	0xc005dd22	-2.0916219
125	0x3f28db43	0.65959567
126	0xc0d6c241	-6.7112126
127	0x40259988	2.5874958

layers.2.weight f4 [64, 128]
0	0x3c145161	0.009052605
1	0xbe1ef1ac	-0.15521878
2	0xc059b699	-3.4017699
3	0x3e3a53ff	0.18196104
4	0xc03341e3	-2.8008964
5	0xbfa4c7a0	-1.2873421
6	0xbec9d252	-0.39418274
7	0xbd1e50fa	-0.038651444
8	0xbe5232e1	-0.20527221
9	0xbf716f98	-0.94310904
10	0xbc0846a9	-0.008317628
11	0xbf84a67b	-1.0363306
12	0x3dadc977	0.08485692
13	0xbf22516e	-0.634055
14	0xbf1fefe2	-0.6247541
15	0x3e6054aa	0.21907297
16	0xbc07bec6	-0.00828523
17	0x3f0b1110	0.5432291
18	0xbf125f97	-0.5717711
19	0x3d9f4afd	0.07777975
20	0xbfae1d1a	-1.3602631
21	0xbecfe06a	-0.40600902
22	0x3ce8c8f8	0.028416142
23	0xbebea59f	-0.37235734
24	0xbec73747	-0.3890936
25	0xbe991459	-0.29898337
26	0x3d61dd39	0.055142615
27	0xbf037c10	-0.5136118
28	0xbcc713a6	-0.024301361
29	0x3db6890b	0.089128576
30	0xbf38949a	-0.7210175
31	0xbf6d17e4	-0.9261458
32	0xc093252c	-4.5982876
33	0x3e49baa8	0.1970011
34	0xbe6c4657	-0.23073708
35	0x3e20ec08	0.15715039
36	0xc06f771c	-3.7416449
37	0xbfa3b293	-1.2788872
38	0x3de0ac78	0.10970396
39	0xbd811fc1	-0.06304885
40	0xbfc6922c	-1.5513358
41	0x3e927253	0.28602847
42	0xbe15e7a5	-0.14639147
43	0x3e84201e	0.25805753
44	0xc027ed4c	-2.6238585
45	0xbf04e10d	-0.519059
46	0x3e1315af	0.1436374
47	0xbf2d7449	-0.6775556
48	0x3ea525ae	0.3225531
49	0xc0091a9c	-2.142249
50	0x3f394936	0.72377336
51	0x3d93117c	0.07181069
52	0xbf824e61	-1.0180169
53	0xc004e922	-2.0767293
54	0xbf78e6ed	-0.97227365
55	0x3dee4b56	0.11635463
56	0xbe7436bb	-0.23849003
57	0xc0adc76d	-5.430594
58	0x3c3ed835	0.011648227
59	0x3dfa4e62	0.122219816
60	0x3b0fbdd9	0.0021933226
61	0xbc1cc4e2	-0.009568425
62	0x3d3123bd	0.043246973
63	0xbdd8be48	-0.10583168
64	0x3eccda4d	0.400103
65	0x3ed590b1	0.41711953
66	0xbd0f2820	-0.034950376
67	0xbd282a69	-0.04105607
68	0xbf8d0be6	-1.1019256
69	0x3dcca95c	0.0999324
70	0xc07864c4	-3.8811502
71	0xc0a797f3	-5.2372985
72	0xbf0fb30a	-0.56132567
73	0x3e2ebd35	0.17064364
74	0xbd3ea81c	-0.04654704
75	0x3e4ec13a	0.20190898
76	0xbe46784d	-0.19381829
77	0xbc75f618	-0.015012287
78	0x3ee04fd1	0.43810895
79	0xbe4cd17f	-0.20001791
80	0x3e2d04ae	0.16896316
81	0xc0130a2b	-2.2974956
82	0xbe39f64c	-0.18160361
83	0xbf3abcf3	-0.72944564
84	0x3e027f3a	0.12743846
85	0xbe01f2ab	-0.12690227
86	0x3d43ae13	0.047773432
87	0xc0b70700	-5.7196045
88	0xbfef7ccf	-1.8709964
89	0xbe4c4077	-0.19946466
90	0xbfd47615	-1.6598536
91	0xbfd822a8	-1.6885576
92	0x3d9281b8	0.07153648
93	0xc0822ee1	-4.0682225
94	0xbf26b3f6	-0.6511835
95	0x3b9b9234	0.0047476534
96	0xc04a90e6	-3.165094
97	0x3e1d0ade	0.15336177
98	0xc0cf3566	-6.4752684
99	0xbe1bb6ff	-0.15206526
100	0x3eee609f	0.4655809
101	0xbe1324ad	-0.1436946
102	0x3d433653	0.04765923
103	0xba338160	-0.00068475865
104	0xbf4ef946	-0.8084911
105	0x3ea7d541	0.32779887
106	0xbe1cbaea	-0.15305677
107	0xbf749400	-0.9553833
108	0x3d3ee7fb	0.046607953
109	0x3e8777ba	0.26458532
110	0x3ce8d8ff	0.028423784
111	0x3e011081	0.12603952
112	0xc05ef577	-3.483732
113	0xc0744725	-3.8168423
114	0xbd687024	-0.05674757
115	0xc016b006	-2.3544936
116	0x3d16b093	0.036789488
117	0xc0b25628	-5.573017
118	0xbd8dc81d	-0.06922934
119	0x3dcadcab	0.0990537
120	0xbddd0127	-0.107912354
121	0xbded2b00	-0.11580467
122	0xbf32fc4f	-0.6991624
123	0xbe5e8d88	-0.21733677
124	0x3bc843b7	0.006111588
125	0xbab85416	-0.0014063145
126	0x3f238b7c	0.6388471
127	0x3f228f41	0.6349984
128	0x3dc2a52d	0.09504161
129	0xbdc2fb24	-0.095205575
130	0x3e10e254	0.14148837
131	0xbebece2d	-0.37266675
132	0x3e0a3843	0.13498025
133	0xbd347a16	-0.044061743
134	0xbe0fa837	-0.14029013
135	0xbece8989	-0.40339306
136	0xbe0e760d	-0.1391222
137	0xc0431658	-3.0482388
138	0xbcf60c0a	-0.030035038
139	0xc02b3733	-2.675244
140	0x3d81228b	0.06305417
141	0xbdb6f535	-0.08933488
142	0x3d98c2f0	0.074590564
143	0xbdf8e2fd	-0.121526696
144	0xbb22a94d	-0.002482015
145	0xbd55b8c7	-0.05217817
146	0xbd75a348	-0.05997017
147	0xbeb3236a	-0.34987956
148	0xbef741e9	-0.48292473
149	0xbd996956	-0.07490794
150	0x3dacb556	0.084330246
151	0x3e0ed898	0.13949811
152	0x3e79965f	0.24373768
153	0xbe68e38e	-0.22743055
154	0x3d9e720e	0.07736598
155	0xbfc3bc42	-1.5291827
156	0xbb37122f	-0.0027934422
157	0x3cb5a5a9	0.02217372
158	0xbedb4c96	-0.42831868
159	0xc055eb6f	-3.3424947
160	0xbc899b43	-0.016797667
161	0xc0325f30	-2.7870598
162	0xbecba75a	-0.39776117
163	0xbd87d2a5	-0.06631974
164	0x3e137c1a	0.1440281
165	0xbfaae1d4	-1.3350167
166	0xbdf4a73a	-0.119459584
167	0xbed6cf3c	-0.41954982
168	0xc04b2a3a	-3.1744523
169	0xbee212c2	-0.44154936
170	0x3c7077af	0.014676972
171	0xbe9912ef	-0.29897258
172	0x3cf6c72e	0.030124273
173	0xbf408122	-0.7519704
174	0xbdb51674	-0.08842173
175	0x3da1d3e1	0.07901741
176	0xbed9d9d2	-0.42548996
177	0xbfdfff49	-1.7499782
178	0xbf9e0a0c	-1.2346816
179	0xbdb720b4	-0.089417845
180	0xbbf49ae6	-0.0074647544
181	0xbf2ceb60	-0.67546654
182	0xc0723b62	-3.7848744
183	0xbde09efe	-0.10967825
184	0xbf280134	-0.65626836
185	0x3ec29fee	0.38012642
186	0xbc72d43c	-0.014821108
187	0xbdc49714	-0.09599128
188	0xbb608e30	-0.0034264438
189	0xbd9a288e	-0.075272664
190	0xbd0d23fc	-0.034458145
191	0xbeb5fcb2	-0.35544354
192	0xbc6224a9	-0.013802686
193	0xbf2a4214	-0.6650708
194	0xbea91e1e	-0.3303079
195	0x3d326d97	0.043561544
196	0x3ced243f	0.028947948
197	0xbdb43a94	-0.088002354
198	0x3e90f374	0.2831074
199	0x3dd71c76	0.10503475
200	0xbcfd6133	-0.030930137
201	0xbdc8c92f	-0.09803998
202	0x3dc17438	0.09445995
203	0xbe19ed16	-0.15031847
204	0x3daf27d8	0.085525215
205	0x3daa6aa4	0.08321121
206	0xbeefcefb	-0.468376
207	0xbf20ae29	-0.6276575
208	0xbd096e77	-0.033552613
209	0x3d9f9b02	0.07793237
210	0xbdfff8f0	-0.12498653
211	0xc02a4fdd	-2.6611245
212	0xbe356b44	-0.177167
213	0x3d7b5470	0.061359823
214	0xbde12641	-0.109936245
215	0x3e7525e3	0.23940234
216	0x3dca99d6	0.09892623
217	0xbedbda2f	-0.42939898
218	0xbdf430cb	-0.11923369
219	0x3db5e40b	0.08881386
220	0xbd861c44	-0.0654836
221	0x3f015740	0.5052376
222	0xc0323251	-2.784321
223	0x3ba8ebb0	0.0051550493
224	0x3d2d3974	0.04229112
225	0xbe00f155	-0.12592061
226	0x3dfc415c	0.12317154
227	0xbe93ce18	-0.28868175
228	0xbd1bdec9	-0.03805426
229	0x3e29175a	0.16512814
230	0xbcad1f4c	-0.021133088
231	0x3d5fd4e5	0.05464639
232	0x3d9ef123	0.07760837
233	0xbd5d1d78	-0.05398318
234	0xbdacffb5	-0.0844721
235	0xbf48c5be	-0.7842673
236	0xbf00b350	-0.5027361
237	0xbe9263e3	-0.28591833
238	0x3cd0a8e2	0.025471155
239	0xbe7f94ac	-0.24959058
240	0x3ca5c690	0.020236284
241	0xbb9e4cd7	-0.0048309374
242	0xbe3b217f	-0.18274496
243	0x3d486e79	0.04893348
244	0x3c646a46	0.013941353
245	0xbce69994	-0.028149404
246	0xc017f17b	-2.3741138
247	0xbcb61ee1	-0.022231521
248	0xbd8b7f5a	-0.068114
249	0xbf4d27bc	-0.80138755
250	0xbdcf1939	-0.10112233
251	0xbcb4c101	-0.022064688
252	0xbc9a08bf	-0.018802999
253	0xbcffc299	-0.031220721
254	0xbfbd4aea	-1.4788487
255	0xbdfc07da	-0.12306185

layers.2.bias f4 [64]
0	0xbf7d2ff0	-0.9890127
1	0x3e31b41a	0.1735386
2	0x3d61189b	0.054955106
3	0x3d922ed8	0.07137841
4	0x3db43ad3	0.08800282
5	0xbf6d867b	-0.92783326
6	0x3c9761ed	0.018479312
7	0x3d8e2de8	0.0694235
8	0xbf083d72	-0.5321876
9	0x3d7a10a2	0.06105102
10	0xbef5d74d	-0.48015824
11	0xbf74e19e	-0.95656765
12	0x3d901462	0.07035138
13	0xbeec2ed1	-0.46129468
14	0x3ddaf814	0.106918484
15	0xbda6e769	-0.08149607
16	0x3d891bae	0.066947326
17	0x3e8c5246	0.2740652
18	0xbfc9a360	-1.5752983
19	0xbff54d0e	-1.916414
20	0x3d717497	0.05894908
21	0x3db1f9f9	0.086902566
22	0xc00b9a09	-2.1812766
23	0xbca484f6	-0.020082932
24	0x3d8a58ff	0.06755256
25	0x3d4551c0	0.048173666
26	0xbbd33724	-0.0064457823
27	0xbffb4209	-1.9629527
28	0xbd778d30	-0.06043738
29	0x3c923d54	0.01785151
30	0xc0143e53	-2.316304
31	0xc01e219f	-2.470802
32	0x3d274f7f	0.040847298
33	0xbea0c4bb	-0.31400093
34	0xbfda078e	-1.7033556
35	0x3cad9768	0.02119036
36	0xbe43e6c4	-0.19130999
37	0x3dac3dca	0.08410223
38	0xc008d76a	-2.1381478
39	0x3d9398ac	0.07206854
40	0xbba21280	-0.004946053
41	0x3a1dd1ac	0.0006020318
42	0xbfb7688e	-1.4328783
43	0x3d5bb2a2	0.053637154
44	0x3cbce01d	0.023056084
45	0xbf292d43	-0.6608469
46	0x3e5ac289	0.21363272
47	0x3d1103c5	0.035403986
48	0x3d8b5054	0.06802431
49	0xbe0185dd	-0.12648721
50	0xc018fa1a	-2.390265
51	0xbff5e1a2	-1.9209483
52	0xbf0bf7c3	-0.5467493
53	0xbe3cea83	-0.18448834
54	0x3d675028	0.056472927
55	0xbf666d93	-0.90010947
56	0x3db991bd	0.090610005
57	0x3cdd8d46	0.027044903
58	0x3df04c3e	0.11733292
59	0xc003f0d8	-2.061575
60	0xc00ca83f	-2.197769
61	0x3c9ac776	0.018893939
62	0x3db34f1d	0.08755324
63	0xbf12a1bb	-0.5727803

layers.3.weight f4 [32, 64]
0	0xbfc70cd9	-1.5550796
1	0x3e0098f5	0.12558348
2	0xbc9d7937	-0.019222839
3	0xbdf1f5c4	-0.11814454
4	0xbb9a26f3	-0.00470435
5	0xc02ae7e6	-2.670404
6	0xbbb463f8	-0.0055050813
7	0xbe867adc	-0.2626561
8	0xbd8d814f	-0.06909429
9	0xbd18a542	-0.037266977
10	0xbea77ffd	-0.32714835
11	0xc01b43f7	-2.4260232
12	0x3c7d63ef	0.015465721
13	0xbeadb485	-0.33926788
14	0x3dcf30fc	0.10116765
15	0xbda5f54b	-0.081034265
16	0xbd9f5826	-0.07780485
17	0xbd8ce7bc	-0.06880137
18	0xbddfafe6	-0.10922222
19	0xbdbf94e8	-0.093545735
20	0xbc5ef489	-0.013608106
21	0x3cf5e823	0.030017918
22	0xbe349b18	-0.17637289
23	0x3c08245f	0.008309453
24	0x3d94a3c3	0.072577976
25	0xbcf95290	-0.030434877
26	0xbb762f1b	-0.0037564698
27	0xbd97cf86	-0.07412629
28	0xbd6d03e7	-0.05786505
29	0xbd53f4a9	-0.051746998
30	0xbe41519f	-0.18878792
31	0xbe21edea	-0.15813413
32	0xbdab865b	-0.08375236
33	0x3a462fa0	0.0007560197
34	0xbd835b4a	-0.064138964
35	0x3cbbae4e	0.022910263
36	0xbe298475	-0.16554435
37	0x3c870fbf	0.016487
38	0xbe0f6502	-0.14003375
39	0x3c2cedf4	0.010554779
40	0xbec61047	-0.38684294
41	0xbc488e49	-0.012240955
42	0xbd466394	-0.04843481
43	0xbd1eb492	-0.038746424
44	0xbdbc696b	-0.091997944
45	0xbf31bd96	-0.6942991
46	0x3db42ed7	0.087979965
47	0xbcb95835	-0.022625068
48	0x3c818580	0.015810728
49	0xbb61fb2f	-0.0034481992
50	0xbdfb1b7d	-0.12261102
51	0xbd24ca9d	-0.04023229
52	0xbd3f4c91	-0.04670388
53	0xbe84c5c1	-0.25932124
54	0xbcd45e06	-0.02592374
55	0xbdfa4876	-0.12220852
56	0xbe2c1867	-0.16806184
57	0x3b91fcf0	0.0044552013
58	0x3db6d561	0.089274175
59	0xbd5404c9	-0.051762376
60	0xbe07dc88	-0.1326772
61	0xbd3242d1	-0.043520752
62	0xbd86fb6c	-0.06590924
63	0xbc9511e2	-0.018197004
64	0x3c3926cb	0.011300753
65	0x3d260ce7	0.04053965
66	0xbd24e0c3	-0.040253412
67	0x3b47eb0a	0.0030505084
68	0xbc03aeb6	-0.00803726
69	0xbbae1312	-0.005312332
70	0xc02439a1	-2.5660174
71	0xbc088e20	-0.0083346665
72	0xbdd9a7f6	-0.10627739
73	0x3c543dc6	0.012954181
74	0x3ca8b482	0.020593885
75	0x3ca5ca2a	0.020238
76	0xc05cb4e3	-3.4485404
77	0x3d58675f	0.052832957
78	0x3d348b8c	0.044078395
79	0x3d31c964	0.04340495
80	0xbbdc809c	-0.0067291986
81	0xba5f4bd6	-0.00085180753
82	0xbdec28fd	-0.115312554
83	0x3cf7de48	0.03025736
84	0x3ccd82b3	0.025086736
85	0x3d27e2cc	0.040987775
86	0xbdbfe5d2	-0.093700066
87	0xbc1f0f94	-0.009708304
88	0x3ccae8bf	0.024769185
89	0x398e00c4	0.0002708492
90	0xc05ce8f7	-3.451719
91	0xbe5defbe	-0.21673486
92	0x3d2658fe	0.040612213
93	0xbcc025f6	-0.023455601
94	0xbe0aac5d	-0.13542314
95	0xbe146827	-0.14492856
96	0x3c827fe8	0.015930131
97	0xc0675928	-3.6148167
98	0xbe70c05a	-0.23510876
99	0x3c931bab	0.017957529
100	0x3cc36139	0.02385007
101	0xbed20d91	-0.41025975
102	0xbb7ed732	-0.003888559
103	0xbf0c0fab	-0.5471141
104	0x3ca2c0ff	0.019867418
105	0x3c0d4b7a	0.008623952
106	0x3cf84fcd	0.03031149
107	0xbd4b98a9	-0.049706135
108	0x3bedea3b	0.0072605885
109	0x3d2cca98	0.042185396
110	0x3c5ce84f	0.013483121
111	0x3ce02ccf	0.027365116
112	0xbffd9216	-1.9810207
113	0xc040b3f4	-3.0109835
114	0xbdbc5b4e	-0.091971025
115	0x3c318f8d	0.010837448
116	0xbd3c6cce	-0.0460022
117	0x3cb673e1	0.022272052
118	0xbc8b96c2	-0.01703966
119	0x3c40093d	0.011720953
120	0xbb1be888	-0.0023789722
121	0xc0474b7b	-3.113982
122	0x3c89c0cd	0.016815567
123	0xbe10aaca	-0.14127651
124	0xbce9a9c2	-0.02852333
125	0xbceac126	-0.028656553
126	0x3cec729c	0.028863244
127	0xc0604b79	-3.5046065
128	0xbbd24a5e	-0.0064175567
129	0x3cd06a1c	0.025441222
130	0xbd280692	-0.04102189
131	0x3bd94913	0.0066310256
132	0x3c07e3c1	0.008294047
133	0x3c94c48a	0.018160123
134	0xbec53b83	-0.38521966
135	0xbc016de4	-0.007899735
136	0xbdc18413	-0.09449019
137	0x3b91cea4	0.0044496823
138	0x3cc05326	0.023477148
139	0xbbb114a1	-0.0054040705
140	0xbe7f7fa9	-0.24951042
141	0x3c9839f3	0.01858232
142	0x3c22143b	0.009892519
143	0x3d102d94	0.035199717
144	0xba8af0ef	-0.0010600368
145	0x3c23aab8	0.009989433
146	0xbd760d8b	-0.06007151
147	0x3c4bec56	0.012446484
148	0x3be41e49	0.006961618
149	0x3d1a57d2	0.03768141
150	0xbe17c6f8	-0.14821994
151	0x3d475dab	0.048673313
152	0x3d6595b5	0.056050975
153	0x3cc49ceb	0.024000606
154	0xbe41c310	-0.18922067
155	0x3bb8b7aa	0.005637129
156	0x3d21efaf	0.03953522
157	0xbcf31d71	-0.029677125
158	0xbe5c266d	-0.21499033
159	0xbe61487a	-0.22000304
160	0x3c370f83	0.011173132
161	0xbdfece92	-0.12441744
162	0xbe5394fc	-0.20662302
163	0x3c4cb653	0.012494641
164	0x3d0e2587	0.034703758
165	0xbd9117e8	-0.07084638
166	0x3c7769c5	0.015100901
167	0xbdb9e342	-0.09076549
168	0x3c2adffa	0.010429377
169	0x3d2dde7a	0.0424485
170	0xbe52bba1	-0.20579387
171	0xbd7d5d79	-0.06185672
172	0x3d5705e2	0.052495845
173	0x3ca41ae5	0.020032356
174	0x3c867dfb	0.016417494
175	0x3d06b31e	0.032885663
176	0xbdc87ab2	-0.09789027
177	0xbde1b1ea	-0.110202625
178	0xbdfc6d81	-0.12325574
179	0x3b8689b5	0.0041057714
180	0xbe33f6c9	-0.1757461
181	0x3d15dcbc	0.03658746
182	0xbcd1f5d9	-0.025629925
183	0xbbc27cdc	-0.0059352946
184	0x3c04b9f9	0.00810098
185	0xbe51b1a4	-0.20477921
186	0x3c5d75b8	0.013516836
187	0xbd4b85ca	-0.049688138
188	0x3ce48a00	0.027897835
189	0xbcc4aaef	-0.024007289
190	0x3c7b5c9b	0.015341903
191	0xbe194926	-0.1496931
192	0x3cc657ee	0.02421185
193	0x3b7d35cb	0.00386368
194	0xbc8e82b2	-0.017396305
195	0x3bc33da1	0.0059582745
196	0x3d602b2b	0.05472867
197	0xbcfccab3	-0.030858373
198	0xbdde85e5	-0.10865382
199	0xbc9b55cf	-0.018961815
200	0xbfb001ae	-1.3750513
201	0x3c54acb6	0.012980631
202	0xbad1740b	-0.0015980018
203	0xbcb79185	-0.022408256
204	0xbd4c4e0b	-0.049879115
205	0xb98b92e5	-0.0002662159
206	0x3c271226	0.010197198
207	0x3d367ddb	0.04455362
208	0x3c10e2a0	0.008843094
209	0x3c967bcd	0.01836958
210	0xbf746221	-0.9546223
211	0x3b09d9ef	0.002103444
212	0x3c6a237f	0.0142906895
213	0x3d172e2c	0.036909267
214	0xbff94f53	-1.9477333
215	0x3d1630e1	0.03666771
216	0x3d648c14	0.05579765
217	0x3d235515	0.039876062
218	0xbdcbdd00	-0.09954262
219	0xbf7a3cb4	-0.97748876
220	0x3d535a23	0.051599633
221	0xbcc85328	-0.024453714
222	0xbfa530cd	-1.2905518
223	0xbfabbeac	-1.3417563
224	0xb9cd45dc	-0.00039152696
225	0xbd2b81de	-0.041871898
226	0xbfa44535	-1.283362
227	0x3d59e676	0.0531983
228	0x3c23da79	0.010000818
229	0xbd0a13d2	-0.03371031
230	0x3c1cab4d	0.009562326
231	0xbd4284bf	-0.047489878
232	0x3c01fbf7	0.007933608
233	0x3d6c7a88	0.057734042
234	0xbf58627e	-0.8452529
235	0x3c9720f3	0.018448329
236	0x3d954a2a	0.07289536
237	0x3c04b61a	0.008100057
238	0x3bee45b6	0.007271494
239	0x3d458958	0.048226684
240	0xbcd55bcd	-0.02604475
241	0xbd23b77b	-0.039969902
242	0xbf5dd5ea	-0.8665453
243	0xbd13e56f	-0.036107477
244	0xbf88adac	-1.0678
245	0x3badd19e	0.0053045293
246	0x3c899812	0.016796146
247	0x3b99fc17	0.004699241
248	0xbc420371	-0.011841641
249	0xbdb9d13e	-0.09073113
250	0xb8c21de8	-9.256211e-05
251	0xbfb704cc	-1.4298339
252	0xbf05cb9d	-0.52263814
253	0xbc5e7221	-0.013577015
254	0x3d7ce5fa	0.06174276
255	0xbd20e085	-0.03927662

layers.3.bias f4 [32]
0	0x3fd8f298	1.6949034
1	0x3ed7e220	0.42164707
2	0x3ea9c97a	0.33161527
3	0x3ea8e410	0.32986498
4	0xbca510f2	-0.020149682
5	0xbd60cc19	-0.054882143
6	0x3fce2fad	1.61083
7	0x3f853dd1	1.040949
8	0xbc8ae7f7	-0.016956313
9	0x3f067ad3	0.52531165
10	0x3f70db80	0.9408493
11	0x3f7cfae5	0.98820335
12	0x3ec46d34	0.38364565
13	0x3fe1ba55	1.7634989
14	0x3e930265	0.28712764
15	0x3f5c0f92	0.8596126
16	0x3fe2d85a	1.7722275
17	0x3ff42bf2	1.9075911
18	0x3ea2b3a8	0.31777692
19	0x3ea11f9f	0.31469437
20	0x3ec3c663	0.38237295
21	0x3fbddda4	1.4833264
22	0x3ff9c4c2	1.9513171
23	0x3f456553	0.77107733
24	0x3f71b9db	0.9442422
25	0x3adb065d	0.001671027
26	0x3fcd8ea9	1.6059161
27	0x3ebe899b	0.3721436
28	0x3f4a5d53	0.7904865
29	0x3e8e8d53	0.27842197
30	0x3e8a812f	0.27051684
31	0x3f53d4f2	0.82746804

layers.4.weight f4 [6, 32]
0	0xbcb8e7d1	-0.022571476
1	0x3d858bba	0.06520791
2	0x3d9d5537	0.07682269
3	0x3db7e2f5	0.089788355
4	0x3d262d73	0.040570688
5	0x3debad5f	0.11507677
6	0xbd27910e	-0.04090982
7	0xbcc6d9dd	-0.024273807
8	0x3d999fd8	0.07501191
9	0x3dd021f8	0.10162729
10	0x3e08563f	0.1331415
11	0xbe0bd3fb	-0.13655083
12	0x3dc3d8b7	0.095628195
13	0xbbd34ea1	-0.0064485823
14	0x3e0f0101	0.13965227
15	0xbda2e4eb	-0.07953819
16	0xbcfe34b7	-0.031030996
17	0xbc158cd5	-0.009127815
18	0x3d318788	0.043342143
19	0x3dbd0478	0.09229368
20	0x3e1a776c	0.15084618
21	0xbc2b01a5	-0.010437404
22	0xbd6ddddf	-0.05807292
23	0xbdd9e4ac	-0.10639319
24	0xbddd4f34	-0.108061224
25	0x3cf6f61a	0.030146647
26	0xbd9b82fc	-0.07593343
27	0x3df31592	0.118693486
28	0xbcd123a6	-0.025529694
29	0x3ddadeb0	0.106870055
30	0x3cd93e61	0.026519002
31	0xbda77bf4	-0.08177939
32	0x3cadf24b	0.021233698
33	0x3d700104	0.05859472
34	0x3da74b10	0.08168614
35	0x3db30863	0.08741834
36	0x3cdf7160	0.027275741
37	0x3dbfd81b	0.09367391
38	0x3c7ab63f	0.01530224
39	0x3d23a1e7	0.039949324
40	0x3d891ab8	0.06694549
41	0x3dbadbb5	0.09123937
42	0x3dd727e6	0.10505657
43	0xbd9e7bb2	-0.07738437
44	0x3dabe5ef	0.08393466
45	0x3d9a42ba	0.07532258
46	0x3e0fa279	0.14026822
47	0xbbf59f57	-0.0074958014
48	0x3cf0e626	0.029406618
49	0x3c14af21	0.009074957
50	0x3d4c8569	0.049931917
51	0x3dab8212	0.08374418
52	0x3e1ad24c	0.15119284
53	0x3d9f22d6	0.07770316
54	0xbba9a44b	-0.005177056
55	0xbb5af669	-0.0033411032
56	0xbcf9ce8a	-0.030493993
57	0x3c3f93ed	0.011692983
58	0xbbed879c	-0.007248832
59	0x3df2c9eb	0.11854919
60	0x3d219abb	0.039454203
61	0x3de63803	0.11241152
62	0x3d0fefb4	0.035140708
63	0xbc14ef62	-0.009090276
64	0x3d7c2fcc	0.06156902
65	0x3d6b2f28	0.05741802
66	0x3d88dc16	0.06682603
67	0x3da6ba6e	0.081410274
68	0x3b4d2876	0.0031304634
69	0x3d97b028	0.07406646
70	0x3d4d3b9b	0.050105672
71	0x3d4cfbfd	0.050045002
72	0x3d43806d	0.0477299
73	0x3da57464	0.080788404
74	0x3dbc38f6	0.09190552
75	0xbd1d401c	-0.038391218
76	0x3d97b12a	0.07406838
77	0x3dafe96b	0.08589443
78	0x3dfd1131	0.123567946
79	0x3d4ea250	0.050447762
80	0x3d82e864	0.06391981
81	0x3d5332bb	0.051562052
82	0x3d37d595	0.044881422
83	0x3d9f927d	0.07791612
84	0x3e05fe6b	0.13085334
85	0x3db79c98	0.08965415
86	0x3d2f485c	0.042793617
87	0x3d21de61	0.039518718
88	0xbb5daace	-0.0033823731
89	0xbb3b3fb3	-0.0028571903
90	0x3ce0fb6a	0.027463634
91	0x3dde2f08	0.10848814
92	0x3dcc069b	0.099621974
93	0x3dce8464	0.10083845
94	0x3cee57d4	0.029094614
95	0x3d610891	0.05493981
96	0x3dcf82c6	0.10132365
97	0x3c3b29d4	0.011423547
98	0x3cbd0bf8	0.023076996
99	0x3d49e1a2	0.049287446
100	0xbc73235b	-0.014839972
101	0x3d6441d3	0.055726837
102	0x3d9630d7	0.07333534
103	0x3dee8414	0.11646286
104	0x3c8e3f65	0.017364213
105	0x3cf58c51	0.029974135
106	0x3deb5907	0.1149159
107	0x3c79281d	0.015207318
108	0x3d381565	0.04494228
109	0x3dc6b301	0.09702111
110	0x3dc38c93	0.09548297
111	0x3dd5e38a	0.1044379
112	0x3d7e53a8	0.0620915
113	0x3dd22142	0.1026025
114	0x3c243695	0.010022779
115	0x3d3d5cbd	0.04623102
116	0x3de1afca	0.11019857
117	0x3dc143d4	0.09436765
118	0x3dc8a581	0.09797192
119	0x3d93ba40	0.07213259
120	0x3d399717	0.045310106
121	0xbcd32940	-0.025776505
122	0x3d49c31a	0.04925833
123	0x3d9cd3b2	0.07657565
124	0x3e1187b3	0.14211921
125	0x3d7360ad	0.05941837
126	0xbc4dd01e	-0.012561826
127	0x3dad8e89	0.08474452
128	0x3dafd124	0.08584812
129	0xbe21f134	-0.15814668
130	0xbe100ca3	-0.1406732
131	0xbe07a0b1	-0.13244893
132	0x3c977fbf	0.018493531
133	0x3d94d94a	0.07268007
134	0x3d55c698	0.052191347
135	0x3e0d40c5	0.13794239
136	0x3d432d94	0.04765089
137	0xbde974f0	-0.11399257
138	0x3df48b55	0.11940638
139	0x3d2f515d	0.042802203
140	0xbdf03734	-0.11729279
141	0x3c555070	0.013019666
142	0xbd4b37ca	-0.04961375
143	0x3dd18498	0.102303684
144	0x3d55f70c	0.052237555
145	0x3df5af36	0.119963095
146	0xbdb7f344	-0.08981946
147	0xbd6879d3	-0.056756806
148	0xbc37de24	-0.011222396
149	0x3d8a1b34	0.0674347
150	0x3e0ebbc2	0.13938811
151	0x3dc09666	0.09403686
152	0x3da04f29	0.078275986
153	0x3aa79d93	0.001278805
154	0x3cd222bf	0.025651334
155	0xbb598a71	-0.003319409
156	0x3e2ce831	0.16885449
157	0xbd1aaff1	-0.037765447
158	0xbe0e5439	-0.13899316
159	0x3dd7a6ee	0.10529886
160	0xbd80b38c	-0.06284246
161	0xbebb399e	-0.36567396
162	0xbef18856	-0.4717433
163	0xbf083765	-0.53209525
164	0x3d2d1791	0.042258803
165	0x3dfcbec3	0.123410724
166	0xbde7fda5	-0.11327676
167	0x3e18052e	0.14845726
168	0x3db52a44	0.08845952
169	0xbe819fa9	-0.25317124
170	0xbd180ff1	-0.037124578
171	0x3d43f3c7	0.047839906
172	0xbec39fb5	-0.38207784
173	0xbe15c84a	-0.14627185
174	0xbf1634dc	-0.58674407
175	0x3df18b41	0.11794139
176	0xbd936c58	-0.07198399
177	0x3acc644e	0.0015593858
178	0xbf2c367b	-0.6727063
179	0xbf1aa169	-0.6040254
180	0xbec26101	-0.37964633
181	0x3dd6c3ef	0.1048659
182	0x3cf0aa5a	0.029378105
183	0x3dd2aa43	0.10286381
184	0x3dabe4e4	0.08393267
185	0x3d2e5e4b	0.042570394
186	0xbe24af1c	-0.16082424
187	0xbef31927	-0.47480127
188	0x3e311495	0.17293008
189	0xbf385a6e	-0.72012985
190	0xbf436d91	-0.7633906
191	0x3de1aa80	0.110188484

layers.4.bias f4 [6]
0	0xbef1b0aa	-0.47205096
1	0xbe88419e	-0.26612562
2	0xbe51d331	-0.2049072
3	0xbe12d717	-0.14339863
4	0x3eae651b	0.34061512
5	0x3f609ea1	0.8774205
