saved_model.pth (torch, 296446 bytes, 18 tensors)

fc1.weight f4 [128, 52]
00000000: 1254 c73e 2cfc 0b3e 5721 823e 2c24 a63d
00000010: 3a52 c2bd 0d40 9f3e f836 b7bd 930a 4bbb
00000020: b98a 353e 7943 c7be f500 563e 43d2 afbc
00000030: ab35 72bf eecd af3f a1c4 1e3f a2cd 1fbf
00000040: db2d 77be 0473 fbbe 4dd3 623e 1d85 393f
00000050: 8c2c c83e 3df5 d03e 612a aabe b676 3e3e
00000060: 31f5 4bbf ad99 643e b28e 7ebe 267e 0c3e
00000070: a12a 02bf 589b 1c3d 44f5 803e 27cf ed3e
00000080: 9296 c8bd d8ce 663e a5df 8cbd a120 1d3e
00000090: 8fb6 203f 1daa 303f 61ff 2b3f 634d 753e
000000a0: 1a63 3abe 676c 573e da8f b33d 3d05 21bf
000000b0: ff27 8e3e 953d 0bc0 6ead 01c0 77a1 653f
000000c0: eb7f dbbf 2ca8 05be 0085 82be 13fe 653c
000000d0: 9775 51bc 0f6c c33d 6421 90be 4d27 42be
000000e0: d26c 93bd ecb0 a43d 655c c2be 15f5 55be
000000f0: 5d56 2a3e 0183 e63e d5e7 ac3e ea25 023f
00000100: e31e 62bf e018 b63f fbd2 3c3f c7f5 1bbf
00000110: 7937 e63d eb63 043e 566e e6bc 76fe 8dbe
00000120: bb30 10bf 8f9d b03d 4ba7 923e e5f8 b8be
00000130: e90b 6bbd 205d e1be 826f 38be 9015 dbbc
00000140: e3f0 7b3e 7df5 e8bc ae55 663e 033f 90be
00000150: fe5e 9c3e 9d36 8f3f 6139 0dbf 3231 c1be
00000160: 5916 74bf 084b 5cbf a373 de3f a9ef 18bf
00000170: 94bd d43e 5dac 3abe f756 803f f2c3 76bb
00000180: 63bc 23c0 8165 d8c0 36bf 053f 1249 4c3f
00000190: 61ee a8bf e8ed d13c 7764 a2bd 1fa8 a1bd
000001a0: 02fc 74be e927 0abd 4fcc 2c3e 7445 d33d
000001b0: f125 42bd e69d e8bd f47a fe3e 6aaa 1d3f
000001c0: 18a8 08bf f655 e8bd 1393 16bf be6f 47bf
000001d0: a03d d83e 04c7 81be d131 8f3f 25b6 24be
000001e0: 0b3b 2b3f 3e5f f4be e4a4 b83e e5d4 f83d
000001f0: 4b5b a73e d689 cb3e d936 013c e38a 803e
00000200: a3f1 b7be 9a76 033e 4dab 8abd 2635 33bc
00000210: 515b 1cbd 0ed2 813d 3ae0 903c d8d6 06bf
00000220: cc96 9bbe 74eb 09bf 0e7f 01bf 104a ab3e
00000230: 1608 a93e 893e 4fbd 3e48 673f c39c 80bf
00000240: d1e6 d7be 291a 29be 2742 873e a237 8cbe
00000250: b220 b63f 2041 993f 8d94 1f3e 4fae f0be
00000260: 0d75 8040 a530 fcbd 4eaa 8abe 9d73 5a3d
00000270: 12d4 13bd a284 873e 0493 87bd 68d7 debd
00000280: 29e6 1a3e 7415 9b3e 385d 11bf 237d 30bc
00000290: a771 793e 1672 da3e 7c68 283c fe56 1b3d
000002a0: 36bd ae3f 8b92 05c0 ad3b 8fbf 3ec9 383f
000002b0: 5d21 dabf ec93 893e 28aa 233e d61b c23d
000002c0: c853 b9be 9d22 623e fbcc b8be 4368 b0be
000002d0: d1e4 d0bc 5d3f d3bd 504a b0bd 02b4 873d
000002e0: 6240 64bd e28f efbd 8feb 223e f867 063e
000002f0: c21c 5a3e 613b abbd bb59 823b e210 bfbd
00000300: 8df0 fe3c a557 443c 8258 ffbd 7923 763e
00000310: 69af 8dbe 834d ac3e 62f6 4abe 6ba6 693e
00000320: 80e7 babf 546e 393f e3bf 51bf 66b7 92c0
00000330: f3a4 0440 4d1d 6e3c bdec 3d3f f572 1c3d
00000340: ae58 a2bd e7fc ffbb b5ca a3be 7859 88be
00000350: 79b8 373e caaa 1dbe 6799 843e 4c1e febd
00000360: 4d29 e0be 8e6b 76be 503b 2ebd e430 b8be
00000370: c6fa 573e 95a1 abbe 094a 03bf 0158 563e
00000380: 6ac2 383f b1c1 773e 16f2 61be 5fce 3abf
00000390: 66a1 a03d d166 cdbe d2d9 ea3e 2e3b f6bc
000003a0: 239e 5d3f 0c45 b93e 7619 153f 2226 a13e
000003b0: 195c 303e f3cb 253f dd4b e83d 57a8 e73e
000003c0: 92fb a4bd 6019 eebe f368 1f3e bb0b bdbd
000003d0: ee5d 8fbe 3c12 6cbe fb9c c8bf b54e 923f
000003e0: a832 c23e 480d 273d 6cfd 02be 78a9 02c0
000003f0: 5fc3 9b40 741f bfc0 f517 5940 1f9a 8140
0.38931328 0.13670415 0.2541606 0.08112368 -0.0948834 0.31103554 -0.08946031 -0.0030981645
0.177287 -0.38918665 0.20898803 -0.021462565 -0.9461314 1.373472 0.6201878 -0.62423146
-0.24138586 -0.49111187 0.22150917 0.7246874 0.39096487 0.40812102 -0.33235458 0.18599972
-0.7967101 0.22324248 -0.24859121 0.13719997 -0.50846297 0.038234085 0.25187123 0.46447107
-0.09794344 0.22539842 -0.06878594 0.15344478 0.6277856 0.6900957 0.6718655 0.23955302
-0.18201867 0.21037446 0.08767672 -0.6289862 0.2776489 -2.1756337 -2.0262103 0.896995
-1.7148412 -0.13052434 -0.25492096 0.014037627 -0.012784383 0.09542095 -0.28150475 -0.18960305
-0.0719849 0.08041558 -0.37961116 -0.20894273 0.16634507 0.45021823 0.33770624 0.508391
-0.8832838 1.4226341 0.7375943 -0.609219 0.11241049 0.1292874 -0.028128784 -0.277332
-0.56324357 0.08623802 0.2864326 -0.3612739 -0.057384405 -0.4401636 -0.18011287 -0.02674368
0.2460361 -0.02843737 0.22493622 -0.28173074 0.30541223 1.1188542 -0.5516568 -0.37732846
-0.953466 -0.8605199 1.737904 -0.5974069 0.41550887 -0.18229814 1.002654 -0.0037653414
-2.5583732 -6.7623906 0.5224489 0.79798996 -1.3197747 0.025626138 -0.079293184 -0.07893395
-0.23924258 -0.033729468 0.16874813 0.103159815 -0.047399465 -0.11358242 0.4970318 0.61588156
-0.5338149 -0.11344521 -0.5881817 -0.7790488 0.42234516 -0.2534715 1.1187078 -0.16085108
0.6688697 -0.47728914 0.36063302 0.121499814 0.32686839 0.39753598 0.007886612 0.25105962
-0.35926542 0.12838212 -0.06770954 -0.010937965 -0.038173024 0.06338893 0.017685045 -0.52671576
-0.30388486 -0.538749 -0.50584495 0.33454943 0.33013982 -0.050596748 0.9034461 -1.004784
-0.42168286 -0.16513886 0.26417658 -0.27386194 1.4228728 1.1973 0.15584011 -0.47007987
4.0142884 -0.12313966 -0.27083057 0.053332914 -0.036090918 0.26468378 -0.06619838 -0.10880929
0.15126862 0.30289805 -0.56782866 -0.010772022 0.24359761 0.42665166 0.010278817 0.03792476
1.3651493 -2.0870693 -1.1190087 0.7218207 -1.7041432 0.26870668 0.15982878 0.094779655
-0.36196733 0.22083516 -0.36093888 -0.34454545 -0.025499733 -0.1031482 -0.08607924 0.06626131
-0.055725463 -0.11697365 0.15910171 0.13125598 0.21300033 -0.08360935 0.003977982 -0.09329392
0.031120563 0.011983787 -0.124680534 0.24036969 -0.2767289 0.33652887 -0.1982055 0.2281739
-1.4601898 0.7243397 -0.8193342 -4.5848875 2.0725677 0.014533353 0.7418936 0.03819557
-0.079270706 -0.0078121307 -0.3199059 -0.2663076 0.17941464 -0.15397182 0.25898287 -0.124081224
-0.4378151 -0.24064466 -0.042537034 -0.359748 0.21091756 -0.33521715 -0.51284844 0.20932008
0.7217165 0.24194981 -0.22065005 -0.7297115 0.07843284 -0.40117505 0.4586931 -0.030057516
0.8656942 0.3618549 0.58241975 0.31474406 0.17222632 0.64764327 0.11342595 0.4524562
-0.08055796 -0.46503735 0.15567379 -0.09230753 -0.2800135 -0.23053831 -1.5672907 1.143027
0.37929273 0.04078415 -0.12791985 -2.0415936 4.867599 -5.9725895 3.3920872 4.0500636

fc1.bias f4 [128]
00000000: ddd9 d83d 5ce4 d7bf 0b4b febe a93e a63e
00000010: bdd5 50be 061e 0dc0 596c e6be fb7f a2bf
00000020: 4d5a 81bd 403f dabe 6b94 83bf 46cd 5ebf
00000030: 423e a2bf 83fc 01c0 b117 263d b9bb cebf
00000040: 24de 073f 96de 89bf 6275 22bf 3d6a 893d
00000050: 2c1f dbbf b317 b7bf 995f b1bf b902 6abf
00000060: 14e8 87bf 8acb 57bf ab88 17bf 9cab 2b3e
00000070: ee8b edbf 8772 c43e f890 86bf d1fa c8bf
00000080: 935f 9bbf 1b22 a6be 76cc 8fbf bd16 9fbf
00000090: f06e 4fbf adcb 0ebf 074b b3bf 98a6 80bf
000000a0: 8fae e0bf b2f2 95bf 1c2c a5bf 30c5 d2bf
000000b0: 90ff d5bf 183e 12c0 2b9d a03e afcf ddbe
000000c0: 5c73 16bf a7b7 703e 5c13 afbf 4749 73bf
000000d0: 542e cdbe cad4 debf b4a3 f8bf 8905 59bf
000000e0: 2275 1fc0 8794 8abf 5bed 4ebe 2e0b 86bf
000000f0: 9f41 57bf 4c7e 02bf 8a84 cbbe aead 1b40
00000100: b6d0 22bf 7a7c 93bf 6e4e e7bf e762 96bf
00000110: 8a55 32bf 5f9b c3bf b76c 5abf b962 f7bf
00000120: 17e0 25c0 f880 f5be c7eb 25c0 9bab b7bf
00000130: 18ae 92bf c2fc c1bf b727 babf a1da 133f
00000140: f0ad 18c0 5328 6bbf f345 c0bf ba76 17c0
00000150: 0a65 b0bf d5ad c9bf 9a41 abc0 b073 57bf
00000160: 9831 29be 9c77 38bf 6710 c1bf 8dce 91be
00000170: 874f 2fbf 86d8 b1bf cd81 4bbf df45 bfbf
00000180: 77b6 3cbf 5bff 2dbf 83c0 e5bf b078 aebf
00000190: ff0f b4bf 3be9 03bf ca80 abbf 3028 93bf
000001a0: 0d16 cdbf 1d81 dc3e b748 71bf 0796 f0bf
000001b0: 8bc0 b1bf f973 9ebf 46d2 3abf 6cef d7bf
000001c0: 701f 12bf 2962 97bf b688 82bf 53c5 36bf
000001d0: 0bf8 93bf 92a9 a8be 5bad e8be cbfd 9dbf
000001e0: b300 bbbf 31b7 84bf c392 fabe 3467 59bf
000001f0: eb3e bebf 5782 cabf fa91 8cbf 071a 4cbf
0.10588429 -1.6866565 -0.49666628 0.3246968 -0.20394035 -2.2049575 -0.45004538 -1.2695307
-0.06316052 -0.4262638 -1.0279669 -0.8703197 -1.267525 -2.031037 0.040549938 -1.6151038
0.53073335 -1.0771053 -0.6346036 0.067097165 -1.7118888 -1.4304107 -1.3857299 -0.91410404
-1.06177 -0.8429495 -0.59192914 0.16764683 -1.8558328 0.38368627 -1.0512991 -1.5701543
-1.2138542 -0.32447895 -1.1234272 -1.2428814 -0.8102865 -0.55779535 -1.4007272 -1.005084
-1.7553271 -1.171469 -1.2904086 -1.6466427 -1.6718616 -2.28504 0.3136991 -0.43322513
-0.58769774 0.23507558 -1.3677783 -0.9503369 -0.40074408 -1.7408688 -1.9424958 -0.8477407
-2.4915242 -1.0826577 -0.20207731 -1.0472162 -0.84084505 -0.50973964 -0.39749557 2.4324756
-0.6359972 -1.1522362 -1.807081 -1.1748933 -0.6966177 -1.528179 -0.85322136 -1.9327003
-2.5918024 -0.47949958 -2.5925157 -1.4349245 -1.1459379 -1.515526 -1.454337 0.57755476
-2.3856163 -0.91858405 -1.5021347 -2.3666215 -1.3780835 -1.5756174 -5.351758 -0.841609
-0.16522825 -0.7205751 -1.5083131 -0.28477898 -0.68480724 -1.3894203 -0.79494935 -1.4943198
-0.7371592 -0.67967767 -1.7949375 -1.3630581 -1.4067382 -0.51527756 -1.3398678 -1.1496639
-1.6022354 0.43067256 -0.9425158 -1.8795785 -1.3886884 -1.2379142 -0.729771 -1.6869941
-0.5707922 -1.1826831 -1.0197971 -0.7139484 -1.1560072 -0.32941872 -0.4544476 -1.2343076
-1.4609588 -1.0368406 -0.48940095 -0.849231 -1.4862951 -1.5821027 -1.0982049 -0.79727215

fc2.weight f4 [128, 128]
00000000: 1909 183c d796 753c 843c 50bf c4e7 5b3d
00000010: f3b9 c8bd 56d2 7ebf c2b1 17be 13ef 053f
00000020: 9258 32bf 8ad5 40be 6cd2 fb3e a6e5 dd3e
00000030: acbe 31be 7d6a dd3b aeba 893f 9ba3 ddbe
00000040: 8a05 aabe 9eb7 8dbe 3935 b23e 44c6 3ebf
00000050: 0fe1 c03e 04b6 b93d 5948 cdbe ba5f bdbe
00000060: eb53 c2bf 0552 b4be 92c7 783f 0c21 503f
00000070: 3ecc 7e3f 6627 16bf 4c5c 673e b625 3ac0
00000080: eedf 933f 7da8 a23e f7aa 5f3e d186 533f
00000090: 192f 78be 8233 5abf cf8a 413f 8bf8 18c0
000000a0: cb67 6ebf 5d7b 73bf e6dd a73d 509b 973f
000000b0: 0ac5 8bbe 275e 32be a8c1 193e 8d35 1d3f
000000c0: a781 003e d2df adbe 1b27 8dbe 8644 89bc
000000d0: 7f0e e13c 4fa5 a43c 60af 40be 5e95 073f
000000e0: 551b 4cbf 1b02 ca3d 6e88 1cbf e542 3fbf
000000f0: a40b 363e 0198 72bf 19de 0e3d 2713 04be
00000100: 5f4b 82bf 49a1 073d c5cf b6bf de02 9bbe
00000110: 8239 cabd a993 fdbd 40db 443f 4631 26bf
00000120: 47f7 663c 528f 473e 6dfe 883d 7d34 bfbe
00000130: 117c 4abf a67c d9bf 2bf7 edbe 9d0b 143f
00000140: b596 a93e 1fe5 cd3e 64c2 d63d 9b96 70be
00000150: 3f2b 543f e4f5 f3be 90ef 3fbf 99f2 c0be
00000160: cc9c 1bbd a241 9dbe 03e6 86bf 3379 41be
00000170: 9814 033f ec4e 8dbf 0be5 263f 4880 b5be
00000180: 3c76 84bf e5fa 04bf 06fa 75bf 01fe 1ac0
00000190: a20b 6a3e 89ab 033e 813e 47be 377f 5bbe
000001a0: 5717 413e 5c41 863f 164c cebd 9ea1 733f
000001b0: 4778 1cbe 72e2 23be 069e 0bbe 6703 b7bf
000001c0: 7912 b73e e974 01bf f054 673e ab04 fabf
000001d0: 1694 3bbe 7e66 d03e 31c2 773c e73e a73d
000001e0: 4cc2 733e a9e5 bfbe db49 2f3d 2e4a 903e
000001f0: 4b8b 38be 0cff 5b3f 92f1 edbe b70e fcbe
00000200: 961c 263e 1f9c b53e c697 2cbf e506 22c0
00000210: dac8 16bf ddb3 603f 710f 9f3e 85c6 f83f
00000220: 4e41 773e c10e d83d b04e 143a f4ab e7bd
00000230: b8fa 28bf b772 c4be 54d2 0e3e 3465 153f
00000240: b0e5 51be de92 77be 0144 693b 1db4 fb3d
00000250: 21b7 293f fa8d 8bbf 8586 c33e 55d8 1b3f
00000260: 7f18 a53d 9b7c 5cbf b146 9c3d d1a5 8a3e
00000270: cbe5 083f 4458 bbbe 5349 8b3c 83bf 4f3e
00000280: 5c4d 1a3f f3c5 c53f 4d9a 2abe 4d13 e8be
00000290: 9b0e ddbf 4599 913d 5a05 333f af29 c93e
000002a0: e3dd f0bc bb32 2d3f def3 bdbe cb47 053f
000002b0: c2bb 43bf d67c 1fbe 93b8 6ebe ac58 2abe
000002c0: 27c4 f8be 43f3 03be 4ad6 49be d8dc c2bf
000002d0: f763 4ebe b828 eabb fcff 4e3d d63e 1e3e
000002e0: 0661 1dbe 51ae 7ebd 09b4 103f b11d 07bf
000002f0: 0724 803e 404f 133e 7f9f b5be fae3 7c3e
00000300: 49e3 0ac0 6519 e03e 7809 eabf 039b babe
00000310: 4923 eebe c1f1 ad3e 5945 babe 4c3d 973e
00000320: de5d 4e3e f1ba 7cbe fa04 503f 7b2f 33be
00000330: f45a 473f c6d6 1ebf 6355 8f3e 8bda 18be
00000340: 3612 383d cf85 fe3e f6ba 1c3f b1d7 20c0
00000350: 2347 823d eabb babd 6f8d 7fc0 0bea 4fbd
00000360: a681 e63d fdf6 48be ec50 8fbf d7e7 cabe
00000370: ad99 7e3e fa23 b8bf 6134 ffbe 2610 fb3e
00000380: 5ac9 ec3e b08b ba3e 1376 88bf 7263 083e
00000390: 1c4d ddbe 306a e53d 12fa 3c3f ff35 86be
000003a0: 3a5c 8a3e a960 32c0 b925 99be fb65 af3e
000003b0: 05af babd fa65 d6be fc25 15c0 752b 233f
000003c0: 858f 973e 8880 98bd 26f6 17bf 3007 6f3e
000003d0: ee1f ab3e 36a0 103d 55be b3be 51cb f93d
000003e0: db3e a63e 2a62 cebd ae8d 6bbf 45c7 91be
000003f0: 8669 c4bd bfa8 9b3e 4262 a83e 74fa adbe
0.009279513 0.014989576 -0.8134234 0.053687826 -0.09801092 -0.995397 -0.14813903 0.52317923
-0.696664 -0.18831459 0.49183977 0.4333927 -0.17357892 0.006757079 1.0760095 -0.43288884
-0.3320735 -0.2767915 0.3480623 -0.7452128 0.37671706 0.0906792 -0.4009426 -0.36987096
-1.518186 -0.35218826 0.9717952 0.81300426 0.995304 -0.5865387 0.22593802 -2.9085517
1.1552713 0.3176917 0.21842562 0.8262759 -0.24236716 -0.85234845 0.7560243 -2.3901699
-0.93127126 -0.9511011 0.08196621 1.1844273 -0.27298766 -0.17418729 0.1501528 0.61409837
0.12549458 -0.33959824 -0.27568898 -0.016756307 0.027472733 0.020098357 -0.188169 0.5296229
-0.79729205 0.09863683 -0.61145675 -0.7471145 0.17777878 -0.9476319 0.034879778 -0.12897931
-1.0179251 0.033112798 -1.4282156 -0.30275625 -0.0987425 -0.123816796 0.7689705 -0.64918935
0.014097041 0.19488266 0.06689153 -0.37344733 -0.7909556 -1.6991165 -0.46477637 0.5783022
0.33122793 0.40213868 0.10486296 -0.23494951 0.8287849 -0.47648537 -0.7497492 -0.37685087
-0.03799133 -0.30714136 -1.0538944 -0.1889389 0.512033 -1.103971 0.6519324 -0.35449433
-1.0348582 -0.51945335 -0.9608463 -2.4217532 0.22856 0.12858404 -0.19457437 -0.21435247
0.1885656 1.0488696 -0.10073106 0.95168483 -0.15280257 -0.16004351 -0.136345 -1.4297913
0.3575628 -0.50569016 0.22590995 -1.9532675 -0.18318209 0.40703195 0.015121982 0.081662945
0.23804587 -0.37479904 0.042795043 0.28181595 -0.18021886 0.85936046 -0.46473366 -0.49229977
0.16221842 0.35470673 -0.6741909 -2.5316708 -0.58900225 0.8777445 0.31066468 1.9435583
0.24146006 0.10549689 0.00056574773 -0.11312094 -0.66007566 -0.3836877 0.13947421 0.5835755
-0.20497775 -0.24177119 0.0035593512 0.12290213 0.6629506 -1.0902703 0.38188568 0.6087697
0.08061313 -0.8612763 0.07630671 0.27079633 0.53475636 -0.3659078 0.017002737 0.202879
0.6027429 1.5451034 -0.16660424 -0.45327225 -1.7270082 0.07109312 0.6993004 0.39289615
-0.029402679 0.67655534 -0.37100118 0.5206267 -0.7645837 -0.15574965 -0.23312597 -0.16635388
-0.48587152 -0.12885766 -0.19710651 -1.5223646 -0.20155321 -0.0071459673 0.050537094 0.15453658
-0.15369043 -0.06217796 0.5652471 -0.5277968 0.25027487 0.143857 -0.35473248 0.24696341
-2.1701224 0.43769374 -1.828414 -0.3644639 -0.46511295 0.33973506 -0.36381033 0.29538953
0.20152995 -0.24680687 0.81257594 -0.17498581 0.7787316 -0.6204647 0.27994832 -0.14927118
0.044939242 0.49711463 0.6122278 -2.5131648 0.063612245 -0.09117873 -3.9930074 -0.05076031
0.11255197 -0.19625469 -1.119657 -0.39630005 0.2486331 -1.4385979 -0.4984465 0.49035758
0.4624737 0.36434698 -1.0661033 0.13319185 -0.43222892 0.11201894 0.73819077 -0.2621307
0.27023488 -2.7871497 -0.29911593 0.34257492 -0.091154136 -0.41874677 -2.3304434 0.63738185
0.29601684 -0.074463904 -0.5935997 0.23342586 0.33422798 0.03530904 -0.3510615 0.12196983
0.3246983 -0.10077317 -0.9201306 -0.28472343 -0.095904395 0.3040218 0.32887465 -0.33980143

fc2.bias f4 [128]
00000000: abdc 6c3d 2e13 a5bd 39a1 4ebe c844 07bf
00000010: 7c7f d7bd 73b8 533e 2704 453c 56bf a4be
00000020: d3c2 fabe 27d7 0abf ec0c 00c0 8fd3 263e
00000030: a885 3bc0 2e40 8d3e eba8 ecbf c61b 943f
00000040: 5818 5bbc da07 af3f 5745 8fbd 99f0 19bf
00000050: d522 6cbf dd81 4fbf 2f0f c73d 8e6e 4a3e
00000060: e398 53bf 7475 803f 3dd5 dc3e 8a67 073e
00000070: 5748 e03e 420d e43d ccac eebe edf8 c13e
00000080: 803f 463f 76b4 0d3f ce5b 01be 0a4b b5bf
00000090: f3bd 14c0 54c4 6dbe 3fd0 e8be a625 e7bd
000000a0: f5cd 0cbf a35c 50bf 0f90 b0be 83bf 063e
000000b0: bcb3 51bf 1796 0bbe 67b8 e0bf 05f5 a0bf
000000c0: bc11 6f3f d369 553e 3dec 8abe 4c70 35be
000000d0: e002 bf3e c082 72bf 35e4 20bd 3ee8 e2be
000000e0: 1f87 5bbe 7396 efbf 0799 4bbf 8507 203f
000000f0: 9b9a c0bf 1850 a6bf ba37 cdbc 0e02 97bf
00000100: c474 d63e a801 23bf 84b7 753e 384c ad3e
00000110: 3949 79b9 afb1 0cbe 5d9c 9b3f 2116 3f3e
00000120: b660 d5be 9a4f a8be dd45 dd3e fa45 89c0
00000130: f98b 86be 1c1c 1cbe 8530 19c0 67f2 eb3e
00000140: 6a6f 39bf d7e0 443e 51b5 bcbf 213e 363d
00000150: ac3e 42bc 58a2 46bf f050 e6be fc56 c9be
00000160: 8904 ab3e 9ce9 a1be aea4 d83d d16a adbd
00000170: 1528 d13e 46bd 5abf 7694 0cc0 a7ae 04c0
00000180: 061b 6fc0 bb00 503f 0f84 16bf a417 a23e
00000190: ec8c 2ec0 2d85 593f 87cd c9bf cead 573f
000001a0: cb58 cf3e 302b 25bf 2a85 26bc 770e 2540
000001b0: 7e65 b3bf 303b 7dbe 9de0 1e3e ced6 93be
000001c0: f667 853f 23ac 513e 5ba9 e9be f48c 5bbe
000001d0: a09c 043f 9cbe 20bf 00f0 ca3e c9f2 163f
000001e0: 9cca d43d 2394 9fbf af2d 60bf 727f 303f
000001f0: baf7 e5be ca88 813b 247d 373e 3b83 2a3e
0.057827633 -0.08060299 -0.20178689 -0.52839327 -0.105223626 0.2067583 0.012024916 -0.32177228
-0.48976764 -0.54234546 -2.0007887 0.1629164 -2.9300327 0.27588028 -1.848905 1.1570976
-0.013372503 1.3674271 -0.069956474 -0.6013275 -0.9224065 -0.8105753 0.09719693 0.19768736
-0.8265516 1.0035844 0.43131438 0.13223091 0.4380519 0.11135341 -0.4661621 0.37885228
0.77440643 0.55353487 -0.12632677 -1.4163525 -2.3240936 -0.23219424 -0.4547138 -0.11286478
-0.55001765 -0.8139135 -0.34484908 0.13158993 -0.8191488 -0.13631473 -1.7556275 -1.2574774
0.93386436 0.2084115 -0.2713336 -0.17718619 0.3730688 -0.9473076 -0.039280135 -0.44317812
-0.21438263 -1.8717788 -0.79530376 0.62511474 -1.5047182 -1.2993193 -0.025050987 -1.1797502
0.4188596 -0.636744 0.23995787 0.33847213 -0.00023773768 -0.13739656 1.2157093 0.18660785
-0.41675347 -0.3287323 0.43217364 -4.289792 -0.26278666 -0.15245098 -2.3935864 0.46083376
-0.7243563 0.19226395 -1.4742833 0.044492844 -0.011855762 -0.77591467 -0.44983625 -0.39324176
0.33401898 -0.31623542 0.10578285 -0.08467639 0.40850893 -0.8544506 -2.1965613 -2.07316
-3.7360244 0.81251115 -0.58795255 0.3165866 -2.7273512 0.84968835 -1.5765847 0.8424958
0.4049743 -0.64519024 -0.010163585 2.5790079 -1.4015348 -0.2472961 0.1551537 -0.2887482
1.0422351 0.20475821 -0.4563702 -0.21440488 0.5180149 -0.62790847 0.3963623 0.5896421
0.10390207 -1.2467083 -0.8756971 0.68944466 -0.44915563 0.003953074 0.17918831 0.16651623

fc3.weight f4 [6, 128]
00000000: 4490 823d 5c24 47be 289a 29bd 69ce b43e
00000010: 1e05 623c 7cb4 57be bf2b c33a 24ce 4c3d
00000020: edc6 573c 67fa 84bd b9ff 1abe 363a ba3d
00000030: ce4b 5bbf 60a7 a63d 21fa f8be 7e4a 4dbf
00000040: f997 873d b2df 863e a14d 8a3e b42e 533e
00000050: 40a2 c83e 53cc 963c ca1f f53e 1132 6d3d
00000060: 7dc4 83be dafb 97be be1d 8fbe b2e2 c4be
00000070: 1c68 87be e911 07be a011 6fbe df50 e8bd
00000080: b844 debe c4de 1a3e 19d9 673d c4d9 203f
00000090: 6fe5 813e b955 d4bd cce1 223e e130 67be
000000a0: cecf 373d a1b7 e5bc fec4 efbc dfc7 e13e
000000b0: 21bc 323e a8eb 44be e56b c33e b337 d63d
000000c0: 8257 403e fa8c 22be a62b bd3d 99cc 1b3c
000000d0: 3191 ff3d 4a0c 923d bdef 93bd dfc6 04bf
000000e0: f6d5 afbd f0c5 efbe e6d7 8a3e c4cf cb3d
000000f0: 037f 0e3e b868 f7bd b193 c2ba 912c 7c3e
00000100: a456 903e db38 28be d38c c5be e7b6 e33d
00000110: a313 d7bc f9c5 0bbf 678a 85be 0955 70bd
00000120: 4877 88be fc47 41be 80d3 a7be e8bb 833f
00000130: 82a6 72bd 90f9 69bd 8379 eebe db07 d5bd
00000140: 0d8f 8e3e 9fd7 ea3d b0ef e03d 1e0b 963e
00000150: 4db3 46be cd3e c63d fd57 28be 9805 933e
00000160: 264f b7bc 502f a8be d559 6abe f216 d5bd
00000170: a9ae 973d 81c9 053e 3fec 2abf c775 17bf
00000180: e9ce eebe 596f 4a3e c5d8 9d3e ae3d 1a3e
00000190: c7ef acbe fe67 063e 5074 1e3e ad3e 36bd
000001a0: 5696 e63c a627 b83d 5072 bb3d bbb8 d9be
000001b0: 5a9f 4c3d ddea 883d c290 08be a65b 47be
000001c0: 544d c23e f3d9 85bc 7b5b ea3d a029 b8bc
000001d0: 22b1 d8be 3d6b 7f3e 6113 343e 4eb3 c13d
000001e0: ecbd 91be c82b 94bd 0573 bc3e 1a75 bbbe
000001f0: 14ed bf3d ae17 5dbd ff25 843e e016 c8be
00000200: 90ca c73d baad 04bd edb7 fc3c 7fb0 323e
00000210: 6001 a8bc 8cab 4abe f76e 01bd 9737 bcbb
00000220: 5abc ef3c fbb5 853d 01a3 a4be d5c6 5a3d
00000230: 2250 d7be 8367 043c 61c8 cabe 27d8 b3be
00000240: 099e 043e abf2 5b3e ac1a 883e 6064 393e
00000250: d67c 5d3e 3fec 46be 8a55 833e f933 86bb
00000260: 9d9b 3abe 8a9b 65bd edfb 87be 582b b4be
00000270: b6a7 1dbc 7419 adbd 43b6 3fbe 5ccf 21bc
00000280: 6ab5 1abe c381 293e 9ba2 233e b22a f03e
00000290: aefb 733e 5dfb 6a3d 6aa4 fb3d 5b73 8cbd
000002a0: 69e7 66bd 769c 35bd bdf5 b9bd 5129 303e
000002b0: 7cf6 c83d f442 73bd b70d 663e 4af7 0b3d
000002c0: e4dd 263e 59f5 dcb9 9beb 0d3e 9d50 20bd
000002d0: 941a d93d fe32 8b3d 856f 31bd 4519 5bbe
000002e0: 63ad 1dbe 4f12 98be 7c0e d23d 83f9 973d
000002f0: d475 033e 5245 b7be 0369 fbbc ba2e b13d
00000300: abfc aa3d 31a6 97bd 4068 bfbe 88b8 2c3e
00000310: 43a6 bb3c da3b a0be ec02 f0bd af1a b4bc
00000320: 1a78 8fbe 9be4 63be b205 97be ac43 a53e
00000330: d5a5 403d 30e2 e3bd 02af 1fbe 892a 1a3d
00000340: 6155 463e 09bf 8f3d 6529 363e 4730 5e3e
00000350: 7968 83be 8175 fc3d 266c 63be 766b 3c3e
00000360: e778 89bd 30c5 92be aaa6 8fbe f16a d7bd
00000370: d125 113c 6901 213e 5c5a 25bf bb9e fdbe
00000380: 66f2 60be 49e3 c23d 88a7 6e3e 492f 073e
00000390: 8695 bbbe 5b8c 87bd a19c 853e 91ca 5bbd
000003a0: 5c85 f0bd c57b d13c 1d52 a73b bbaf 4fbe
000003b0: e7a0 fd3c 15e6 103e d5d2 203d 29a2 09be
000003c0: 3208 503e 9477 febb b6a6 f63d b60c 86bd
000003d0: 9c4b 89be 9d3b 773e ab3b d63d 8607 0a3e
000003e0: 2c14 76be 23ae 86bd 7f31 a53e 473c 3bbe
000003f0: 10b4 d03d 697c 07bd f409 443e 2bc7 aabe
0.06375173 -0.19447464 -0.04140678 0.35313728 0.013795165 -0.21064943 0.0014890357 0.05000128
0.013169986 -0.06493073 -0.15136613 0.09093134 -0.85662544 0.08137393 -0.48628333 -0.8019179
0.06620783 0.2634254 0.2701235 0.20623285 0.39186287 0.018407976 0.47875816 0.057909075
-0.25735846 -0.29684335 -0.2795238 -0.38454205 -0.26446617 -0.13190426 -0.23346567 -0.1134355
-0.43411803 0.15124041 0.056603525 0.62832284 0.25370356 -0.10367913 0.15906447 -0.2257724
0.044875912 -0.028041663 -0.029268738 0.44097802 0.17454578 -0.1923052 0.38168254 0.104598425
0.18783382 -0.15874091 0.09236841 0.009509229 0.12478865 0.0713125 -0.07223461 -0.51865953
-0.08585732 -0.46830702 0.27117842 0.099517375 0.13915639 -0.120805204 -0.0014845041 0.24626376
0.28191102 -0.16427939 -0.38584003 0.1111887 -0.02625448 -0.5459896 -0.26082155 -0.058674846
-0.26653504 -0.18875116 -0.3277855 1.029172 -0.059240825 -0.057122767 -0.4657708 -0.10401889
0.27843514 0.11466908 0.10983217 0.29305357 -0.19404335 0.09679947 -0.16439815 0.28715205
-0.022376608 -0.32848597 -0.2288583 -0.10404767 0.07406361 0.13065149 -0.6676673 -0.5916409
-0.46642235 0.19769038 0.30829445 0.15062591 -0.33776686 0.13125607 0.15474057 -0.044493366
0.028147858 0.08991937 0.09152663 -0.4252375 0.049956657 0.066854216 -0.1333647 -0.19468555
0.37949622 -0.016339278 0.1144323 -0.022480786 -0.42322642 0.24943252 0.17585517 0.09458028
-0.2846521 -0.07234913 0.36806503 -0.3661278 0.09371391 -0.05397766 0.2581024 -0.39079952
0.097554326 -0.03239224 0.030849421 0.1745014 -0.020508468 -0.19792002 -0.031599965 -0.0057439315
0.029264618 0.06528851 -0.32155612 0.053412277 -0.42053324 0.00808132 -0.39606002 -0.3512585
0.1295091 0.21479289 0.2658285 0.18104696 0.21629652 -0.19426058 0.256512 -0.004095551
-0.18223424 -0.056056537 -0.26559392 -0.3518932 -0.009622505 -0.084521204 -0.18721871 -0.0098760985
-0.15108266 0.16553406 0.15979998 0.46907574 0.23826477 0.057368625 0.12287219 -0.0685794
-0.056373034 -0.044338666 -0.09080074 0.17203261 0.09812638 -0.059390023 0.2246617 0.03417138
0.16295582 -0.00042144468 0.13859408 -0.03913938 0.106007725 0.06796835 -0.043319244 -0.21396358
-0.15398173 -0.29701468 0.10256669 0.074206375 0.12837917 -0.35795075 -0.030689722 0.086514905
0.08348974 -0.07404745 -0.37384224 0.16867268 0.022906428 -0.31295663 -0.11719307 -0.02198538
-0.28021318 -0.22255175 -0.29496533 0.32278192 0.04703315 -0.11127126 -0.15594104 0.03763822
0.19368507 0.07018859 0.17789228 0.21698104 -0.25665644 0.123270996 -0.22209224 0.18400368
-0.067125134 -0.28666067 -0.28056842 -0.10518444 0.008859114 0.15723194 -0.64591 -0.49535164
-0.21967468 0.095160075 0.23306096 0.13201632 -0.36637515 -0.066185676 0.2609606 -0.05365998
-0.11744186 0.025571713 0.005106224 -0.2028188 0.030960513 0.1415027 0.039263565 -0.13440765
0.20315626 -0.0077657197 0.12043516 -0.06545393 -0.26815498 0.24143834 0.104605995 0.13479432
-0.24031132 -0.06576183 0.32264325 -0.18284713 0.10190594 -0.03307763 0.19144422 -0.33355078

fc3.bias f4 [6]
00000000: 572d 0abf 77c8 453c 8dbc 42bd 7097 103d
00000010: b46c 4c3e c74e 273f
-0.53975433 0.01207172 -0.047543097 0.035300672 0.19963342 0.6535458

exp_avg f4 [128, 52]
00000000: 8d00 00bc 1e35 063c 2dd7 633b 9332 60bb
00000010: dbb5 de3b e6ee 10bc a3a1 d3bb 3060 fcbb
00000020: 2899 95bb 5082 c039 b1c2 763a 0454 533b
00000030: 09b2 05bb 3aec ad3b c15b 93bb 23da 0d3a
00000040: 6dec a2bb 8031 f4ba f26a 9439 f9e9 093a
00000050: 3df0 7e3a 1ac2 d1ba d6b1 7dbb a598 ae3b
00000060: 578f 90b9 0ccd 363a ce46 7e38 22b9 e33a
00000070: 6077 323b 76e3 f13a 3923 1d3b 8278 88ba
00000080: 8be6 e5ba 91ae 9c39 4a55 85ba de9e 6eba
00000090: 0b58 e23a 90f0 6fb9 42bf 6dba 8436 9339
000000a0: cc4c 7cb9 72fc 08ba 4866 8bb8 b5b8 0cb9
000000b0: 1285 40b7 34ff c9b7 a81d 6837 fb0a 95b6
000000c0: e7b4 65b4 6364 62aa 992c cbad 8c9f 7c2a
000000d0: dfdf 08bc f8cd b5bb 88be fa3b ca74 29bc
000000e0: abb1 833b 01c7 c33a 1147 8b3b d81f ea3b
000000f0: b9c0 673b 3e24 3fbb 4e23 17bc 3883 baba
00000100: 493d 65bb f0c8 58bb 8681 0939 fbff 1f3b
00000110: f683 a5ba 98cb 443a b048 7138 9985 f03a
00000120: d292 00ba 509b ebba 1aa2 d537 8bc4 123a
00000130: bc6d 78bb 6295 9e39 f2f4 d93a 149a a83a
00000140: cd7a bcb6 64a4 d6ba 1174 b23a b6fb 523b
00000150: 03aa 253a ecc9 993a 738a 9f3a 824f f939
00000160: 5808 3e3a a231 7c39 c23b 70ba 3121 43ba
00000170: 289f 083a a100 c9b7 bd1e 3e3a dd8e 7537
00000180: d85a 0738 0923 2935 5ada 3cb5 79e6 8e36
00000190: 73c5 d4b3 b749 bba9 2cfd 21ad 0532 ba29
000001a0: faf6 32bc 294e 6abc 27a1 403b bc3d 353c
000001b0: b44e 9fbb e6c2 e239 d806 61bb eff5 103b
000001c0: d01d 85bb 457f 663b 350d cc3b b583 dabb
000001d0: 559e b5bb 2a7b 163a 8389 18bb 3c9f 183a
000001e0: 18de 5ebb 951f 713b c4a8 b4bb d4a7 12bc
000001f0: b305 a9ba 5b31 76ba 7f02 11bc a22a 143c
00000200: ea4a 4cbb 8707 24ba 2aba b2ba 0a7b 8639
00000210: 2ad5 e53a eaa0 053b bc1d fbba 397a 58b9
00000220: b050 053a 0b2d 9cba ae65 a339 a98e caba
00000230: 70b4 a2ba 3613 49ba ca6d 00b9 461d ad3a
00000240: c5dc 913a ba4c 0aba d90f 1939 7541 d0b8
00000250: aaf0 66b9 9ee2 b2b5 f015 4637 15b4 45b7
00000260: 3726 32b5 e295 77ab ddb2 ddae 799f 862b
00000270: b200 b43c a2a4 e5bc 7e6a 19bb a9e6 8c3c
00000280: d019 0bbd 48e2 71bc 4298 913c c0c2 73bc
00000290: 64aa c9bc bcef 6fbc 8465 253c b2f8 47bc
000002a0: 081a 61bb 4094 823c 4667 a53c 5c05 99bb
000002b0: 163f 0fbc 44c6 1fbb 104a 6e3b 352b 4ebc
000002c0: 9264 073c 40d4 d0bb 20d3 633a d03f adb9
000002d0: e8ca b5bb b0af 1cbc 6e24 86bb 050f 4d3b
000002e0: 4737 ecba 1e41 043c f8d3 353b 6f8d 2c3c
000002f0: 4785 09bb bba7 873b c47d 463b 58fa d4ba
00000300: 82d2 0c3b 2a37 133a f549 03bb 38c5 c0b9
00000310: d4fb 80bb e5f6 e339 c82c e93a 8f54 40ba
00000320: 80e0 5eb9 9b4b a9b8 330e a137 97b1 6137
00000330: 58fe 42b7 46d2 602b bee5 cc2e a44e 5fab
00000340: 5bb3 9a3d a919 93bd 0024 f7b7 da65 643c
00000350: 002e 87bc 836f 31bd 1a94 533c 9a06 453b
00000360: 683f 9dbc 893a d3bc e57e db3c 2a0d b4bb
00000370: 5590 c0bc 5230 c83c a11c 8e3b 8062 0339
00000380: ddb6 e6bb 4d1a c63b 2a13 d73a 02b9 9a3c
00000390: 2cb1 e4bb b8f9 f33b a240 22bc 31e6 24bc
000003a0: 9015 31bc 63e6 46bc 0def 33bc d004 273a
000003b0: cd32 c73b a9af 413c b538 603c b617 b33b
000003c0: e8e9 6e3a b8f3 123b 62f6 c23a c40a 4dba
000003d0: 0ab0 4b3b 1e0a 29bb 1fc3 16bb 691f 00ba
000003e0: d418 123b 2065 5539 8495 9039 ef52 613a
000003f0: 94b5 4e39 dc3a 65b7 8d2d 49b5 9c67 0cb7
-0.007812631 0.008191375 0.0034765706 -0.0034209832 0.006796581 -0.00884602 -0.0064584776 -0.007701896
-0.004565377 0.00036718184 0.00094131666 0.0032246122 -0.0020400307 0.0053077014 -0.004497022 0.0005411228
-0.004972032 -0.0018630475 0.0002830844 0.0005261 0.00097251293 -0.0016003281 -0.0038710735 0.0053282552
-0.00027572617 0.00069733034 6.062426e-05 0.00173739 0.0027231798 0.001845463 0.0023977293 -0.0010411891
-0.0017540021 0.000298847 -0.0010172513 -0.00091026525 0.001726867 -0.00022882433 -0.0009069332 0.00028078642
-0.00024061202 -0.00052256056 -6.647088e-05 -0.00013420249 -1.1475075e-05 -2.4079905e-05 1.38351825e-05 -4.4418243e-06
-2.1393099e-07 -2.0107661e-13 -2.3098233e-11 2.243745e-13 -0.008354156 -0.005548235 0.0076521076 -0.010342786
0.0040189824 0.0014936627 0.004250415 0.0071449094 0.0035362674 -0.002916589 -0.009224726 -0.001422978
-0.0034979156 -0.0033078752 0.0001311359 0.002441405 -0.0012627828 0.00075071445 5.7526573e-05 0.0018350362
-0.00049046904 -0.0017975364 2.5467063e-05 0.0005598745 -0.0037907204 0.00030247407 0.0016628786 0.0012863302
-5.6171325e-06 -0.0016375897 0.0013614913 0.0032193488 0.0006319584 0.0011733151 0.0012171998 0.0004755222
0.0007249168 0.00024051082 -0.0009164178 -0.00074436056 0.00052117044 -2.396136e-05 0.0007252505 1.4636401e-05
3.2271113e-05 6.300839e-07 -7.03532e-07 4.2587603e-06 -9.907935e-08 -8.317256e-14 -9.208006e-12 8.268736e-14
-0.010923142 -0.014300861 0.002939293 0.011062082 -0.004861677 0.0004325129 -0.0034336355 0.0022119244
-0.004062392 0.0035171073 0.0062271603 -0.0066685327 -0.0055425563 0.0005740399 -0.0023275323 0.00058220676
-0.003400689 0.0036792506 -0.0055132825 -0.008951146 -0.0012895375 -0.000939151 -0.008850693 0.009043368
-0.0031172582 -0.0006257225 -0.0013635803 0.00025650143 0.0017534841 0.0020390102 -0.0019158642 -0.00020644897
0.0005085571 -0.0011915279 0.0003116554 -0.0015453893 -0.0012413394 -0.0007670404 -0.00012247931 0.0013207577
0.0011128417 -0.00052757154 0.00014597121 -9.930405e-05 -0.00022024164 -1.3327988e-06 1.1806827e-05 -1.1784044e-05
-6.636578e-07 -8.796003e-13 -1.0081689e-10 9.565535e-13 0.021972988 -0.028032605 -0.0023409422 0.017199831
-0.033960164 -0.014763422 0.017772797 -0.014877975 -0.024617381 -0.0146445595 0.010095004 -0.01220529
-0.0034347791 0.015939832 0.020190846 -0.0046698283 -0.008743068 -0.002437965 0.0036360063 -0.012583544
0.008263724 -0.0063729584 0.0008690823 -0.00033044675 -0.00554787 -0.009563372 -0.004093698 0.003128947
-0.0018021845 0.008072166 0.0027744751 0.010531767 -0.002098398 0.004139868 0.0030287364 -0.0016248925
0.0021487777 0.0005615825 -0.0020033095 -0.00036768033 -0.0039362703 0.00043480765 0.0017789835 -0.0007336819
-0.00021255203 -8.0726306e-05 1.9199308e-05 1.3452393e-05 -1.162252e-05 7.98726e-13 9.3176564e-11 -7.933465e-13
0.075537406 -0.07182629 -2.9461458e-05 0.013940299 -0.016501427 -0.043319236 0.012913728 0.003006375
-0.019195274 -0.025784748 0.026793906 -0.0054947333 -0.023506323 0.024437103 0.004336909 0.00012529828
-0.007040842 0.0060456158 0.001640891 0.018887047 -0.0069791283 0.0074455403 -0.009903105 -0.0100646475
-0.010808364 -0.012139889 -0.010982287 0.00063712616 0.006079054 0.011821666 0.013685395 0.005465473
0.0009113834 0.00224231 0.0014874453 -0.00078217336 0.003108027 -0.0025793384 -0.0023004485 -0.0004887493
0.002229263 0.00020350935 0.00027577218 0.0008595427 0.00019713334 -1.3663168e-05 -7.494462e-07 -8.368774e-06

exp_avg_sq f4 [128, 52]
00000000: f6ed ad3b 3413 b13b 3ec6 273b 77a9 0e3b
00000010: 42ee 163b bdbc 993a 7f1c 973a a639 593a
00000020: 8ca0 663a 17ab 303a 44f7 2b3a b80c ce39
00000030: bf04 033a 6db2 003a 4925 013a 876b c139
00000040: 95e3 163a 3702 c639 6115 6539 2de3 6a39
00000050: 0e81 8639 53aa 6839 a42b 8739 b745 7239
00000060: 0c3c 1739 5518 0339 2e8f da38 1d24 0c39
00000070: cade d738 a41c 0839 82d5 9838 9e80 9038
00000080: cefc 2d39 c185 3138 122f 3638 49a1 d437
00000090: 327c 8137 5dca 7937 75dd a737 4ca6 8d37
000000a0: ae28 3737 d701 9937 b73b c536 ef03 3236
000000b0: 75ba fa34 7eef 4733 8b6c a830 3bc0 8230
000000c0: 9345 312e b441 9919 067c 7620 e2ee ac19
000000d0: 933a 083b 951f 073b 6002 7e3a c881 403a
000000e0: 9082 533a 99ac 0a3a 3126 ea39 a1a3 bb39
000000f0: 1196 a839 0c6f 8c39 0b5d 9539 384e 8739
00000100: 988e 7e39 1c4c 8139 d04b 7b39 cf49 8739
00000110: 5e3d 3f39 856d 0639 7bc3 9038 b682 c038
00000120: 7b61 df38 adc7 a338 2a0e 9c38 d24f 9b38
00000130: 613e 8d38 4be7 6738 500f 5438 df5c 5738
00000140: b1d8 3738 64e4 1938 73a8 0138 3626 f137
00000150: e97b c637 f258 9637 7bba 6737 9dbc e236
00000160: 0ba6 d836 f316 cb36 8bbf 1537 8851 f636
00000170: 8504 d436 28e5 bd36 6257 1236 6e59 8235
00000180: 499c 5234 24a5 fa32 973b 0c30 322d cb2f
00000190: 3cd3 ab2d dd48 ea18 2458 bc1f 59ed 0319
000001a0: 3a9e a33b 83b0 533b 302c d83a 337f c43a
000001b0: 88fc 8e3a 4160 5d3a f22a 3f3a 6987 de39
000001c0: 50f2 033a 0795 f839 7a69 b439 3505 ab39
000001d0: ea96 d039 0d11 cf39 a92d f139 3253 0a3a
000001e0: 24b2 b139 8c3e 9039 cf29 4b39 68d9 3239
000001f0: 8230 4e39 d51d 4039 3dd7 2f39 dcf8 4c39
00000200: 9dc8 0d39 e3ad c438 de74 fe38 f58e 8938
00000210: a27f 8e38 2b54 5e38 e44a 6b38 ee11 2938
00000220: 8a76 4538 8c75 9737 0514 8837 323a 7537
00000230: d22b 8137 4bd1 4c37 2c90 4c37 4b65 3737
00000240: 286d 2937 55ed 0537 3c32 8536 7fff f235
00000250: 4003 b334 41d9 6b32 8cce 9430 bdea 3330
00000260: aa16 242e 9cc6 4819 af8c 2120 88a6 6219
00000270: 3859 7e3c 3189 833c 43ef eb3b 681f c13b
00000280: 8d23 b43b f161 643b 8339 613b 1d10 213b
00000290: cd4e 023b 5a1c f93a 7896 e23a 155e 063b
000002a0: f2b6 d83a 76fd 9e3a 5322 b83a 4146 5a3a
000002b0: 7a93 8b3a 4e78 8b3a 1522 223a 38ae 623a
000002c0: 9345 743a c972 303a 36f5 233a 1291 1c3a
000002d0: ef4a e939 c724 f939 5dcd 9139 bce5 aa39
000002e0: fa5c a839 b2b9 9739 cef3 6039 42d9 5d39
000002f0: 32b4 5e39 1a35 fa38 f2c9 d338 7c73 6238
00000300: 5e9e 6538 4358 3638 55ad 6f38 930f 5138
00000310: 8c73 5a38 e389 4b38 975b 9537 ac54 f036
00000320: 60c5 ac35 1d94 fb32 5114 8131 1985 4b31
00000330: 3c09 292f 80bb 351a 5f2e 1221 17d1 4c1a
00000340: e310 8b3b 79d2 3d3b 1a1a ab3a a19e a33a
00000350: b85e 853a 5fec 813a b451 053a 2dae b239
00000360: b4fa c339 61c3 fd39 8903 b839 8520 d639
00000370: eb6a b339 4c2f c239 be27 9839 e815 9839
00000380: 3673 3639 6cd3 7c39 53f2 0339 e988 6139
00000390: 7e55 2639 f1ca 0039 7cab fa38 80b3 e538
000003a0: e65d 0839 8175 0e39 e847 cb38 9fa5 5d38
000003b0: 42eb 5f38 f236 6338 e1b3 8a38 90e7 1038
000003c0: 2f23 0938 a74b 9d37 b614 4037 2d20 5237
000003d0: e526 5e37 5f19 1337 71ca 3837 ce9a 2437
000003e0: 23c1 0737 c6f0 fb36 6edf 4536 7da8 cc35
000003f0: 8f4b 8934 9dad 0b33 59da 4430 99c2 1730
0.005307908 0.0054039005 0.002560034 0.002176849 0.0023030196 0.0011729222 0.0011528878 0.00082864834
0.0008797727 0.00067393616 0.0006559978 0.00039300858 0.00049979606 0.00049094 0.00049265154 0.00036891943
0.0005755958 0.00037767153 0.00021847106 0.00022400609 0.00025654625 0.00022188695 0.0002578172 0.00023104889
0.00014422851 0.00012502198 0.00010421719 0.00013364894 0.000102934966 0.0001298064 7.287694e-05 6.890412e-05
0.00016592743 4.2324657e-05 4.343602e-05 2.5347474e-05 1.5435831e-05 1.4888673e-05 2.0011075e-05 1.6885948e-05
1.09171215e-05 1.8239878e-05 5.8780092e-06 2.6526357e-06 4.6701794e-07 4.6551115e-08 1.2254459e-09 9.51338e-10
4.0306935e-11 1.5846366e-23 2.0878046e-19 1.7880867e-23 0.0020786866 0.002061819 0.0009689685 0.00073435577
0.00080684666 0.0005290001 0.00044660413 0.00035789332 0.00032155265 0.00026785617 0.00028488817 0.00025807484
0.00024276448 0.00024661503 0.00023965468 0.00025804198 0.0001823804 0.00012820035 6.902866e-05 9.17962e-05
0.00010651626 7.809638e-05 7.441298e-05 7.405844e-05 6.735023e-05 5.52901e-05 5.0559e-05 5.1346487e-05
4.383241e-05 3.6690748e-05 3.0912877e-05 2.8747232e-05 2.366114e-05 1.7922812e-05 1.3812091e-05 6.7572823e-06
6.4566316e-06 6.052543e-06 8.925689e-06 7.340863e-06 6.3186185e-06 5.6593162e-06 2.1806559e-06 9.711782e-07
1.961463e-07 2.9178928e-08 5.1016386e-10 3.6957598e-10 1.9534256e-11 6.0561155e-24 7.9766913e-20 6.820473e-24
0.0049932273 0.0032301254 0.0016492661 0.0014991522 0.0010909 0.0008444824 0.0007292471 0.00042444028
0.0005033361 0.0004741328 0.00034410862 0.0003261954 0.0003978529 0.0003949482 0.00046001122 0.00052766793
0.00033892796 0.0002751242 0.00019375164 0.00017056393 0.00019663761 0.0001832166 0.00016769483 0.00019547663
0.00013521542 9.378397e-05 0.00012133432 6.559297e-05 6.794861e-05 5.3007312e-05 5.6098113e-05 4.030944e-05
4.707886e-05 1.805534e-05 1.6221786e-05 1.4616688e-05 1.5398404e-05 1.2208077e-05 1.2192915e-05 1.0931234e-05
1.00986e-05 7.982676e-06 3.969557e-06 1.8104764e-06 3.3343713e-07 1.3728198e-08 1.0827121e-09 6.5453404e-10
3.7309413e-11 1.03798665e-23 1.3683779e-19 1.1717557e-23 0.015524201 0.016056629 0.007200153 0.0058936365
0.005497402 0.0034848417 0.0034366555 0.0024576255 0.0019883395 0.0019005642 0.0017287275 0.0020502855
0.0016534014 0.0012129981 0.0014048315 0.00083265087 0.001064881 0.0010640712 0.0006184888 0.00086471764
0.00093182287 0.00067309715 0.0006254496 0.0005972545 0.00044497053 0.00047520382 0.00027809563 0.00032596092
0.0003211273 0.00028939318 0.00021453129 0.00021157137 0.00021238698 0.0001193082 0.00010098879 5.3990152e-05
5.4745346e-05 4.347438e-05 5.714347e-05 4.9843988e-05 5.208286e-05 4.852739e-05 1.7804834e-05 7.1624145e-06
1.2872442e-06 2.92876e-08 3.756704e-09 2.9616045e-09 1.5373741e-10 3.7581384e-23 4.9528096e-19 4.2355113e-23
0.0042439564 0.0028964563 0.0013054044 0.0012483188 0.0010175323 0.0009912363 0.0005085722 0.00034080577
0.00037380087 0.0004840149 0.0003509785 0.0004084149 0.000342212 0.00037037802 0.0002902131 0.0002900802
0.00017399792 0.00024111354 0.00012583406 0.00021508675 0.00015862842 0.00012282633 0.000119528704 0.000109530054
0.0001300495 0.00013585949 9.693188e-05 5.2844753e-05 5.3386444e-05 5.417219e-05 6.613858e-05 3.4547935e-05
3.2696113e-05 1.8751087e-05 1.1448914e-05 1.2524467e-05 1.3241287e-05 8.76779e-06 1.1014389e-05 9.811205e-06
8.091595e-06 7.5084126e-06 2.948534e-06 1.5248221e-06 2.5573215e-07 3.252136e-08 7.1614675e-10 5.521002e-10

exp_avg f4 [128]
00000000: 3faf 613b a44e 3fbb 02be 88ba 77ab d9bc
00000010: f39e e2bc 886f 9b39 4da7 893b 1f74 4cbd
00000020: f4a3 92bd 5948 063a c6f1 153b 77a0 673b
00000030: fbb3 85bb 35d8 c03a 8bd6 703b e78b 48ba
00000040: 5980 ea3a 1829 1b3b cfbf 24bd fbda fbbc
00000050: 67e5 453c eca1 d13b 20e0 6639 1271 a6bc
00000060: cc57 d4bc 132c ab3c a948 0a3d 131f fe3b
00000070: 8086 11bc fe7f e5bb 8f69 993b 2de2 ae3c
00000080: 03c5 d7bb 83e5 96bd c223 0abc bae1 e2bd
00000090: d6bf 23bd b83b b63c 0857 043b 8845 693a
000000a0: 8bf6 91bb 38df 5fbb e07f 8dbc df18 a1bb
000000b0: d43f 76bc 3f7d ae3b 8b67 e33d 5183 8c3c
000000c0: 568a 3d3d c8bc 7bbb 70d6 9abc f5db 7ebd
000000d0: edd7 8cbb ccbf 96bb e84f be3b 6bfa 82bc
000000e0: d0b6 5a39 04fc 89ba c9e0 85bc 3e05 c7ba
000000f0: 0080 c1b7 d235 9bbc 2ac1 413a dca5 923c
00000100: 12f4 a53b df1c 6dbb 62d0 9abd 648c 3b3d
00000110: ca8c 8b3b c7de 97bb 9339 e63a 57bf f1ba
00000120: dd08 ddbb 5eae c43b 7816 7cba 3f20 133b
00000130: f66b 58bd 78c1 513d 4d35 8fbd e078 193c
00000140: bcb3 903a 5fc7 74bc 0b0e 1dbb 8061 45bc
00000150: cd37 4eba a978 67bd c427 003d 13bb 7e38
00000160: b0ed b13b 3f10 cebb a9ce 1fbb 258a 1abc
00000170: 652f 023d 7ea1 e73d 00b5 fbbc c964 3a3b
00000180: b07c 63bb b8f9 b0bc 11f6 903a 3d4a 5d3c
00000190: 9a40 583c 15a2 e63b 1678 92bb 3af5 ee39
000001a0: 167e 653a 3844 dd3d 8ee5 393a a1a4 70bb
000001b0: 3d61 cf3b c192 8bbb aaf7 44bb c0f1 5a38
000001c0: 031e 7e3b e2e6 02bb 2c24 593d 7f2d bdba
000001d0: 9cd7 da3b 3a86 a03b beb9 c43d 7315 20bc
000001e0: 9bbf 44bb 8737 743d 0f78 c53d dcdc 023c
000001f0: d224 ca3b e0df 8c3b 3941 f5ba e204 0cbc
0.003443673 -0.002919116 -0.0010432603 -0.026571019 -0.027663684 0.00029647 0.004200852 -0.04991543
-0.07160178 0.0005122475 0.0022879704 0.0035343447 -0.0040802932 0.0014712872 0.0036748971 -0.00076502416
0.0017891034 0.0023675617 -0.040221985 -0.030744066 0.01207862 0.0063974764 0.00022018002 -0.020317588
-0.025920771 0.02089504 0.0337607 0.007755169 -0.008882165 -0.0070037832 0.004681773 0.021348083
-0.006584765 -0.07367995 -0.008431377 -0.1107821 -0.03997787 0.022245273 0.0020193476 0.00088986056
-0.004454439 -0.0034160148 -0.01727289 -0.004916295 -0.015029866 0.005324989 0.11103734 0.01715246
0.046274506 -0.0038412083 -0.01890108 -0.062221486 -0.0042982013 -0.0046005007 0.0058078654 -0.01598855
0.00020858203 -0.0010527377 -0.016342537 -0.0015184057 -2.3066998e-05 -0.018946562 0.00073911494 0.017901354
0.005064496 -0.0036180539 -0.07559277 0.045788184 0.0042587267 -0.0046347114 0.0017564766 -0.0018443865
-0.0067454414 0.0060022315 -0.0009616385 0.002244964 -0.052837335 0.051209897 -0.06992588 0.009367198
0.0011039893 -0.014940112 -0.002396467 -0.012047172 -0.00078665913 -0.056511555 0.031287923 6.0732546e-05
0.005429946 -0.006288558 -0.0024384654 -0.00943235 0.03178348 0.11310099 -0.030725956 0.002844142
-0.003471177 -0.02160345 0.0011059662 0.013506469 0.013198996 0.0070383647 -0.0044698818 0.00045577605
0.0008754445 0.10804027 0.0007091396 -0.003671922 0.0063287304 -0.004259438 -0.0030054846 5.2200397e-05
0.0038775213 -0.0019974043 0.05301301 -0.0014433115 0.0066785347 0.0048988136 0.0960574 -0.009770739
-0.0030021432 0.059623268 0.0964204 0.007987227 0.00616894 0.004299149 -0.0018711454 -0.008546086

exp_avg_sq f4 [128]
00000000: 9f82 1c3a fa6e 8939 5db4 003a 92e1 f43a
00000010: 657a d939 6508 4e39 1622 053a cc54 133a
00000020: 30ce 993a 1b79 a73a 2bea 7639 8a75 7139
00000030: 68f7 8b39 25ba ad39 5014 163a 60f0 9139
00000040: 2de5 ed39 8431 8739 e6f2 dd39 eb74 233a
00000050: ead7 8539 396a e839 107e c539 33c5 9839
00000060: 9e27 253a 0ae2 113a f821 cc39 762e f739
00000070: 8cf4 bc39 2de6 1c3a 98dc b139 f0f3 e639
00000080: 2a3d 4139 9240 913a e7cf 003b 3257 703b
00000090: 8901 ef39 bbfc 233a 7f46 4e39 5abc e939
000000a0: 1015 5339 5ef8 6e39 87a5 9d39 bbd4 5339
000000b0: d017 6a39 68b8 733a d185 1a3b 20aa 713a
000000c0: a559 103a 4009 fe39 fe58 8739 be71 263a
000000d0: 3b9d 9539 3361 5539 e967 f239 c271 c939
000000e0: f595 243a 32d0 233a a420 243a 415a 4739
000000f0: 51a7 7b39 cc49 b139 8aa7 bb39 310a 5b3b
00000100: dd4f 6c3a 7b82 7339 5d54 4c3a d4e4 1d3a
00000110: ddb7 9b39 a8e5 f339 5f67 8c39 7350 3339
00000120: 2346 6039 0ac1 a839 943c 8a3a b426 2f39
00000130: c076 033a 66b6 2b3a ae8f 4a3a 4d1a 2b3a
00000140: 9498 093a 8083 653a e564 4239 b771 f13a
00000150: 54d5 0939 1342 933a e80e 0a3b 101f de39
00000160: 8516 a539 4f19 6d39 0df4 6f39 ca75 013a
00000170: ba71 a739 3eb3 e13a d830 f539 5486 8739
00000180: 949a a939 86f1 9739 1a66 8239 e044 dc39
00000190: e152 0d39 083f d239 1420 6439 d607 7839
000001a0: ee47 2239 a08e 9c3b 8f92 ef39 ab15 a03a
000001b0: b966 4439 1123 5a39 b724 113a 5338 0f39
000001c0: 5135 c139 5360 4339 0334 253a 684a 5739
000001d0: c447 8b39 3f8a be39 e441 a23a 7e39 db39
000001e0: 5c88 0f3a 804a 1d3a 82c7 c43a ab2f 9c39
000001f0: 1ef7 2e39 012c 5139 8d8d 2139 6556 9639
0.0005970392 0.0002621336 0.0004909689 0.0018682948 0.00041480656 0.00019648818 0.00050786266 0.00056202407
0.0011734422 0.0012777181 0.00023547623 0.00023027338 0.00026696478 0.0003313582 0.00057250727 0.00027835649
0.00045374912 0.000257861 0.00042333378 0.00062353787 0.00025528605 0.0004432963 0.00037668692 0.00029138624
0.0006300154 0.00055649935 0.0003893522 0.00047146127 0.00036040356 0.00059852266 0.00033924426 0.00044050766
0.000184287 0.0011081866 0.001965517 0.0036673066 0.00045586776 0.00062556163 0.00019671953 0.00044581556
0.00020130374 0.00022789973 0.000300687 0.00020201776 0.0002232485 0.0009297193 0.0023578296 0.0009218771
0.0005506522 0.00048453547 0.0002581551 0.00063493464 0.0002853664 0.00020349472 0.00046235256 0.00038422464
0.0006278449 0.000624898 0.00062609673 0.00019011741 0.00023999556 0.00033815054 0.00035792246 0.0033422823
0.0009014586 0.00023222894 0.00077945535 0.0006023173 0.00029700893 0.0004651968 0.00026779898 0.0001710074
0.00021388433 0.00032187282 0.0010546618 0.00016703719 0.00050149485 0.0006550312 0.00077270984 0.00065270514
0.0005248871 0.0008755252 0.00018538868 0.001842073 0.00013144809 0.0011234902 0.0021066014 0.00042366283
0.0003148803 0.0002261151 0.00022883732 0.00049385114 0.00031937455 0.0017219556 0.00046766433 0.0002584929
0.00032349362 0.00028980913 0.00024871604 0.00042012986 0.00013477683 0.00040101283 0.00021755724 0.00023654042
0.0001547632 0.0047777444 0.00045694827 0.0012213489 0.00018730284 0.00020803163 0.0005536782 0.00013658525
0.00036851552 0.00018632533 0.0006302001 0.00020531716 0.00026565616 0.00036342625 0.0012379256 0.0004181377
0.0005475336 0.0006000176 0.0015013071 0.00029790154 0.00016685991 0.00019948186 0.00015406888 0.00028674598
